models/new/#CONV=2_#POOL=1_Hidden=256_PoolR=0.8_RANDS=777.pth (torch, 930302 bytes, 11 tensors)

convpool_layers.0.conv.weight f4 [1, 256]
0	0xbbc9ff96	-0.0061645014
1	0x3d252d4c	0.0403264
2	0xbd29e8c7	-0.04148176
3	0x3ddd74ef	0.10813319
4	0x3def59a8	0.116870224
5	0x3c35c9ef	0.011095508
6	0xbd949c65	-0.072563924
7	0xbc8b8bfe	-0.017034527
8	0xbc111e51	-0.008857326
9	0x3d81afb0	0.06332338
10	0x3de0747f	0.1095972
11	0x3ccc571e	0.024943884
12	0xbcbf1085	-0.023323307
13	0x3d9e1d17	0.07720392
14	0xbbecc5f5	-0.0072257468
15	0x3c39eb60	0.011347622
16	0xbd465210	-0.048418105
17	0xbd647e99	-0.055784795
18	0x3c8c94ac	0.017160736
19	0xbd39132f	-0.04518431
20	0xbd4198e9	-0.047264967
21	0xbd8323bc	-0.064033
22	0x3dd64ef0	0.10464275
23	0xbdc39220	-0.095493555
24	0xbbe7a83f	-0.007069617
25	0xbd8c399d	-0.06846926
26	0x3d05d21d	0.032671083
27	0xbb006c93	-0.0019595965
28	0x3d884782	0.06654264
29	0x3e0fdacb	0.14048307
30	0x3c9c6909	0.019093053
31	0xbd012d8d	-0.03153758
32	0xbd390ff1	-0.04518122
33	0x3dfce187	0.123477034
34	0x3d5bf0e0	0.053696513
35	0xbda621e9	-0.081119366
36	0x3b468658	0.0030292477
37	0x3cddcf89	0.0270765
38	0x3d8a8a9a	0.067647174
39	0x3daacfe6	0.08340435
40	0x3e137bda	0.14402714
41	0xbd8d6c87	-0.069054656
42	0x3db6739f	0.08908772
43	0x3de51280	0.11185169
44	0x3d910a38	0.07082027
45	0x3dfe9c53	0.1243216
46	0x3e081392	0.13288715
47	0xbdb019b6	-0.08598654
48	0xbd379f4c	-0.04482965
49	0x3d984e2d	0.07436786
50	0x3ba30e81	0.0049760942
51	0x3df5eb73	0.12007799
52	0xbdfa60b9	-0.1222548
53	0x3d3c2714	0.045935705
54	0x3d068bf9	0.032848332
55	0x3d35630e	0.04428392
56	0xbd4541a7	-0.048158314
57	0x3d964e40	0.07339144
58	0xbd264575	-0.040593583
59	0x3dadf1ec	0.084934086
60	0xbdc17fc8	-0.094482005
61	0xbbbb4af4	-0.005715722
62	0x3d24ff89	0.04028276
63	0xbdae2eb3	-0.08505001
64	0x3dcbc620	0.09949899
65	0x3c95fafe	0.018308159
66	0xbd9538dd	-0.072862364
67	0xbdd3a52e	-0.1033424
68	0xbcbbcdd3	-0.022925293
69	0x3b8c5499	0.0042825458
70	0x3de1a2ca	0.11017378
71	0xbdae63b6	-0.08515112
72	0xbd85585a	-0.06510992
73	0x3e0fe5f8	0.1405257
74	0x3cf865ff	0.030322073
75	0xbdc276ac	-0.09495291
76	0x3da15521	0.07877565
77	0xbd0bbefb	-0.03411768
78	0xbd375ebc	-0.04476808
79	0x3dbd9a1c	0.0925791
80	0x3e190c3e	0.14946076
81	0xbd3e0047	-0.046386983
82	0x3d9f175a	0.07768126
83	0xbda409d7	-0.08009689
84	0xbba5fc99	-0.0050655124
85	0xbc96753c	-0.018366449
86	0x3d67fd38	0.056637973
87	0xbcd73221	-0.02626902
88	0x3e1d0667	0.15334474
89	0xbd16c76e	-0.036811285
90	0xbdd221d4	-0.102603585
91	0xbda50fad	-0.080596305
92	0xbd6db051	-0.058029477
93	0xbd53bd3e	-0.051694147
94	0xbdee3eea	-0.11633094
95	0x3e28d795	0.16488488
96	0x3d813b8d	0.063101865
97	0x3d105600	0.035238266
98	0xbdf6d7cf	-0.12052881
99	0x3e202763	0.15640025
100	0x3dd71f55	0.10504023
101	0x3e1452ed	0.14484759
102	0x3d68f334	0.05687256
103	0x3d013752	0.0315469
104	0x3de59198	0.112094104
105	0x3e01cef4	0.12676603
106	0x3e2057dc	0.15658516
107	0xbdc820bf	-0.09771871
108	0xbda90873	-0.08253565
109	0x3e0b3afc	0.1359672
110	0x3e2348ac	0.15945691
111	0xbd78b7c7	-0.06072214
112	0xbd7fee07	-0.06248286
113	0xbc0a1b1c	-0.008429315
114	0x3e10cfc4	0.14141756
115	0x3dc217fb	0.0947723
116	0xbb0fa70a	-0.0021919631
117	0x3c8d5741	0.01725352
118	0x3d9b81ec	0.0759314
119	0x3dadcd5f	0.08486437
120	0xbd728923	-0.059212815
121	0x3da6176b	0.081099354
122	0x3ce1f676	0.027583342
123	0x3d6b2336	0.057406627
124	0x3d829265	0.06375579
125	0x3dc94d97	0.09829252
126	0xbd8e94ff	-0.069620125
127	0xbd2b9d4c	-0.041898057
128	0xbd2ac99c	-0.041696176
129	0x3db6abc2	0.08919479
130	0x3d0aa3d4	0.033847645
131	0x3d397646	0.04527881
132	0x3e0c1659	0.136804
133	0xbcc27726	-0.023738455
134	0x3b868ee2	0.0041063884
135	0xbdbfe40d	-0.09369669
136	0xbd29f88e	-0.041496806
137	0x3baf3567	0.005346942
138	0xbcd70eb8	-0.026252136
139	0xbd2e7037	-0.042587485
140	0x3d774b7f	0.060374733
141	0xbd7ec636	-0.062200747
142	0xbcd332cc	-0.025781058
143	0xbd8d4147	-0.06897216
144	0x3cc58393	0.024110591
145	0x3c8b3702	0.016994003
146	0x3cfc73af	0.030816881
147	0x3dad81d7	0.084720306
148	0x3da71f52	0.08160271
149	0x3e1b561e	0.1516957
150	0x3c52ae61	0.012858958
151	0x3d356e4e	0.044294648
152	0xbdea4709	-0.1143933
153	0xbd617322	-0.05504144
154	0x3e036cfa	0.1283454
155	0x3d12d0c7	0.035843637
156	0x3c77ea87	0.015131599
157	0xbda98ad0	-0.082784295
158	0xbc1ee101	-0.0096972
159	0x3c4ff970	0.012693748
160	0xbc722db6	-0.014781406
161	0x3c732fe4	0.014842961
162	0xbdba5eed	-0.09100137
163	0xbd8ab875	-0.06773464
164	0xbd103148	-0.03520325
165	0xbddfc5e6	-0.10926418
166	0xbd6cbd21	-0.057797555
167	0xbded5fcc	-0.115905374
168	0xbbcd4c9b	-0.0062652356
169	0xbd9f728c	-0.0778552
170	0x3d6bb563	0.05754603
171	0xbdc28583	-0.094981216
172	0xbdc0a509	-0.09406478
173	0x3bba6eb2	0.0056894654
174	0x3cd1d9e8	0.025616601
175	0xbbb966f4	-0.005658025
176	0xbcf12308	-0.02943565
177	0xbd0ac292	-0.033876963
178	0x3e096160	0.13416052
179	0xbd90d492	-0.070717946
180	0xbdc3a485	-0.09552864
181	0x3deece2e	0.116604194
182	0xbdf60df6	-0.120143816
183	0x3de719e0	0.11284232
184	0xbd02dc14	-0.031948164
185	0xbbd5bd86	-0.006522837
186	0xbc25d09a	-0.010120535
187	0x3dff7112	0.12472738
188	0x3d4cca28	0.04999748
189	0x3d95ecb5	0.07320539
190	0x3cebbcfe	0.028776642
191	0x3dde6eb4	0.10860959
192	0x3da72076	0.08160488
193	0xbc9ad534	-0.018900491
194	0x3dbebbaf	0.093131416
195	0x3d55f9ab	0.052240055
196	0x3dde7896	0.10862844
197	0x3ddbae46	0.107265994
198	0xbc96141f	-0.018320141
199	0x3d97af47	0.074064784
200	0x3c910ba4	0.017705746
201	0xb8b9c662	-8.858439e-05
202	0x3dcf5937	0.10124438
203	0xbd83e38b	-0.06439885
204	0x3db5222c	0.088444084
205	0xbd458da1	-0.04823077
206	0xba7aa8cc	-0.0009561896
207	0xba51d9da	-0.00080051797
208	0xba4dd31a	-0.0007851586
209	0xbc922626	-0.017840456
210	0xbe09f4ff	-0.13472365
211	0x3d6c9ff0	0.057769716
212	0x3dcd3282	0.10019399
213	0x3df67998	0.12034911
214	0xbe0617ff	-0.13095091
215	0xbdef9310	-0.11697972
216	0xbdeeba38	-0.11656612
217	0xba8a3222	-0.0010543505
218	0x3de76f14	0.11300483
219	0xbd76c503	-0.06024648
220	0xbc24d986	-0.010061627
221	0x3db1aa70	0.086750865
222	0x3d9e4f6e	0.07729994
223	0x3da0c389	0.07849795
224	0xba719d15	-0.00092168275
225	0xbd7451f6	-0.059648477
226	0x3d81e4be	0.06342457
227	0xb74e5620	-1.2298609e-05
228	0xbdc46e46	-0.095913455
229	0xbde573f1	-0.11203755
230	0x3e0c9719	0.13729514
231	0x3d955885	0.072922744
232	0xbd5fd6c7	-0.054648187
233	0xbc8614a6	-0.016367268
234	0x3b0976c3	0.0020975329
235	0x3dd05a55	0.101734795
236	0xbdd48d99	-0.1037857
237	0xbd85f9e4	-0.065418035
238	0x3d0345f3	0.03204913
239	0xbd9ec946	-0.077532336
240	0x3dd483d8	0.1037671
241	0x3dc9f0ae	0.09860359
242	0x3e0d9e26	0.1382986
243	0x3dfbebce	0.123008355
244	0x3d6cff06	0.057860397
245	0xbdb7caf6	-0.089742586
246	0xbd00ee9b	-0.031477552
247	0xbd59a632	-0.05313701
248	0x3d3d1f2e	0.046172313
249	0x3e17965d	0.14803453
250	0xbdf9f4ad	-0.12204871
251	0x3d594922	0.05304826
252	0xbd74bb40	-0.059748888
253	0xbca66b90	-0.020314962
254	0xbd4097cf	-0.047019776
255	0x3e169598	0.14705503

convpool_layers.0.conv.bias f4 [256]
0	0xba640b05	-0.0008699152
1	0xbc20ce58	-0.009814821
2	0xbbc8b302	-0.006124855
3	0xbc6acb8e	-0.014330758
4	0xbc2062f1	-0.0097892145
5	0xbc289c9e	-0.010291247
6	0xbb5088aa	-0.003181974
7	0xb9db2cf9	-0.00041804442
8	0xbc0c51d3	-0.00856443
9	0xbb9fd88e	-0.0048781103
10	0xbb839bbc	-0.0040163677
11	0xbbb26adb	-0.005444867
12	0xbbfda5f0	-0.0077407286
13	0xbca12f10	-0.019675761
14	0xbaf57df4	-0.0018729554
15	0xbcbb19ea	-0.022839505
16	0x391f0468	0.00015165063
17	0x3b983f23	0.0046461984
18	0xbc16bc9e	-0.009200243
19	0xbb25e700	-0.0025314689
20	0x3a31ff7d	0.0006790085
21	0xbb202f68	-0.0024442319
22	0xbc996c64	-0.018728442
23	0xba872e66	-0.001031351
24	0xba466533	-0.00075681804
25	0x3b847745	0.0040425383
26	0xbc0bdc36	-0.008536389
27	0xbb873952	-0.004126706
28	0xbc104497	-0.008805416
29	0xbc3142a2	-0.010819109
30	0xbc89891f	-0.016789017
31	0x3bec8eee	0.007219187
32	0x3a4375d0	0.0007456215
33	0x3baad0ff	0.0052129026
34	0xbb886895	-0.004162858
35	0xb997548d	-0.0002886396
36	0xbca07baf	-0.019590227
37	0xbc22a0a0	-0.009925991
38	0xbc421f31	-0.011848257
39	0xbb3fd6ec	-0.002927239
40	0xbbd8070a	-0.006592636
41	0x3ae4c4f7	0.001745372
42	0xbc0b956d	-0.008519513
43	0xbb82838a	-0.003982966
44	0xbc382a7f	-0.011240601
45	0xbbb57646	-0.005537781
46	0xbabe189f	-0.0014503187
47	0x3bb4061e	0.0054938933
48	0xbb868fe2	-0.0041065076
49	0xbb76b1ac	-0.0037642522
50	0xbca02fcf	-0.019554047
51	0x3b092fb8	0.0020932984
52	0x3af3c987	0.0018599489
53	0xbc3182d3	-0.010834414
54	0xbc903e31	-0.01760778
55	0xbc5c1b0f	-0.013434186
56	0x3baf3a44	0.005347522
57	0xbb616194	-0.0034390436
58	0x3aa30b05	0.0012439197
59	0xbbc0aacc	-0.0058797356
60	0xb9fe049c	-0.0004845009
61	0xbb568e99	-0.0032738803
62	0xbc745ce0	-0.014914721
63	0x3b471887	0.003037961
64	0xbbb7a690	-0.0056045726
65	0xbb8f4f7b	-0.0043734885
66	0xbb691209	-0.0035563728
67	0xbab7e3e4	-0.0014029709
68	0x3b06d0d7	0.0020571256
69	0xbbeab7d6	-0.007163028
70	0x3aaf8431	0.0013390837
71	0x3b4fb698	0.0031694528
72	0x3989a8ba	0.00026256387
73	0xb931650c	-0.00016917678
74	0xbbe13cac	-0.0068736877
75	0x3bef4da8	0.0073029585
76	0xbc167d3f	-0.009185134
77	0xbb11c902	-0.0022245054
78	0x3bbba1f5	0.005726094
79	0xbc95c275	-0.0182812
80	0x3b8b8a38	0.0042584203
81	0xb9a10928	-0.00030715135
82	0xbb91b3e9	-0.004446496
83	0xbabaf838	-0.0014264649
84	0xbc02b370	-0.007977352
85	0x3a466f94	0.0007569727
86	0xbc1c1947	-0.009527511
87	0xb8b8d142	-8.812781e-05
88	0xbbedf3aa	-0.007261713
89	0x3b4d175d	0.0031294443
90	0x3ba038b3	0.0048895716
91	0x3b1d42b5	0.002399606
92	0x3c035a65	0.008017157
93	0x3ad927ec	0.0016567684
94	0xbb8eb01a	-0.004354489
95	0xbbffb72c	-0.007803818
96	0xbc9ac7a5	-0.018894026
97	0xbbcc8909	-0.006241922
98	0x3bad9791	0.005297609
99	0xbbb10e14	-0.0054032896
100	0xbbbd7336	-0.0057815565
101	0x3bb107b8	0.0054025315
102	0xbccd2474	-0.025041796
103	0xbcad8d23	-0.021185463
104	0xbb3dd797	-0.0028967613
105	0xbb14a34f	-0.0022680347
106	0xbba7689b	-0.0051089055
107	0xbb9659de	-0.0045883497
108	0x3c16b27b	0.0091978265
109	0x3b2e959b	0.0026639465
110	0xbbf6f966	-0.007537055
111	0x3b7b3870	0.00383332
112	0xbb8ee9dd	-0.004361375
113	0xbaa5dcab	-0.0012654265
114	0xbbb182e5	-0.005417215
115	0xbc8cf4b1	-0.017206522
116	0xbc7bcf1e	-0.015369205
117	0xbc513eeb	-0.0127713485
118	0xbbe5df3d	-0.0070151375
119	0xbc23e055	-0.010002215
120	0x3afb6f18	0.0019182889
121	0xbc9ba823	-0.019001072
122	0xbb901522	-0.0043970505
123	0xbc9a0277	-0.018800003
124	0xbc812717	-0.01576571
125	0xbbb74ab6	-0.005593623
126	0x3aa6629e	0.0012694185
127	0x3b1f626e	0.0024320143
128	0x3ac9baad	0.0015390717
129	0xbb1d5e8f	-0.002401266
130	0xbc2260ed	-0.009910804
131	0xbc5bc682	-0.013414027
132	0x3a9dd326	0.0012041077
133	0x3aabda98	0.0013111411
134	0xbc96c333	-0.018403625
135	0x3a7eaddd	0.00097152387
136	0xbaeb9ed5	-0.0017976413
137	0xbcd197b0	-0.025585026
138	0x3b066a13	0.0020510003
139	0x3bd99037	0.006639506
140	0xbb448509	-0.0029986522
141	0x3aaa2d7c	0.0012983526
142	0xba75ffbf	-0.00093841174
143	0xbae18bcf	-0.0017207804
144	0xbc0d878d	-0.008638275
145	0xbc2ac1b4	-0.010422159
146	0xbc424cf8	-0.011859171
147	0xbbdc1f34	-0.006717587
148	0xbc1cde83	-0.009574535
149	0xb9b4154a	-0.00034348137
150	0xbb857554	-0.0040728245
151	0xbb26717b	-0.002539723
152	0x3c061413	0.008183497
153	0x3bb296c0	0.0054500997
154	0x3ac34fca	0.0014901098
155	0xbbc9ccd4	-0.0061584506
156	0xbd1bbab8	-0.038019866
157	0xb9a2a93c	-0.00031025137
158	0xbaeafdaa	-0.0017928381
159	0xbc194dee	-0.009356959
160	0xbb28b6dd	-0.002574376
161	0xbc3d4b29	-0.011553564
162	0xba80367b	-0.0009781861
163	0x3b199980	0.002343744
164	0x3a3df006	0.0007245544
165	0x3a9b5730	0.0011851545
166	0xbb75bb1b	-0.0037495557
167	0x3ba3b8ee	0.0049964106
168	0xbc3f4974	-0.011675227
169	0xbb49fe45	-0.0030821722
170	0x3ab87da8	0.0014075534
171	0x3bc99733	0.0061520576
172	0x3bc13bf3	0.005897039
173	0xbcd27b69	-0.025693612
174	0xbb5e830b	-0.003395262
175	0xbb517063	-0.0031957857
176	0x3aa124f3	0.0012294337
177	0x3a20f76c	0.00061403844
178	0x3b2e16f1	0.0026563967
179	0x3aadffe5	0.0013275115
180	0x3938c83c	0.000176222
181	0xbbdd69f6	-0.0067570163
182	0x3b536770	0.0032257698
183	0x3b2d3c1a	0.0026433528
184	0x3974119a	0.0002327621
185	0x3b88d286	0.004175487
186	0x3b9f951e	0.004870071
187	0xbac8ee77	-0.0015329857
188	0xbb5a313f	-0.0033293513
189	0xbbeb790d	-0.0071860612
190	0xbc2df5ad	-0.010617656
191	0xbbe3e813	-0.0069551556
192	0xbb77e3c3	-0.0037824966
193	0xbb02b2e1	-0.0019943046
194	0xbbcb7efd	-0.0062102065
195	0xbc40d642	-0.011769833
196	0xbc1404bf	-0.009034335
197	0xbba0ce3f	-0.004907399
198	0xb9524848	-0.00020054088
199	0xbbb90386	-0.005646172
200	0xbcc370f8	-0.023857579
201	0xbb2b1482	-0.0026104753
202	0xbc129039	-0.008945518
203	0xbb915e74	-0.0044363085
204	0xbb074249	-0.0020638874
205	0xbb79045c	-0.0037996983
206	0xbb72a0f7	-0.0037022212
207	0xbb0d2c0c	-0.0021541147
208	0xbb14a48c	-0.0022681085
209	0x3b23fd4c	0.0025022803
210	0xbc2c8162	-0.010528894
211	0x3b310f1e	0.0027017067
212	0xbc76a176	-0.015053144
213	0x3b18b856	0.0023303232
214	0x3bdda2f9	0.0067638126
215	0x3b68b862	0.0035510291
216	0x38abb774	8.188086e-05
217	0xbb63652b	-0.0034697752
218	0x39f0aef7	0.00045906726
219	0x3b75be20	0.0037497357
220	0xbb91883f	-0.0044412906
221	0xbaa843bf	-0.0012837573
222	0xbc5c5554	-0.013448078
223	0xbbcdfb31	-0.006286048
224	0xbb1e9512	-0.002419774
225	0xbb7a0ad2	-0.0038153422
226	0xbc9013f2	-0.017587636
227	0xbab402d4	-0.0013733753
228	0xbad5024f	-0.0016251298
229	0x3b07f94b	0.0020747955
230	0xbb8a8de4	-0.0042283405
231	0xbbc9287d	-0.00613886
232	0x3a2dae24	0.0006625375
233	0x3bee0370	0.0072635934
234	0xbc7a491b	-0.015276219
235	0xbc3fa9e4	-0.01169822
236	0x3b8cced2	0.004297116
237	0x39eeec4a	0.00045570947
238	0xbc7ef492	-0.01556124
239	0x3b207bc4	0.0024487833
240	0xbc10a5c4	-0.008828584
241	0xbbfc6cb8	-0.00770339
242	0xbb4fa759	-0.003168544
243	0xbb4eaee3	-0.0031537346
244	0xbd1b3e08	-0.037900954
245	0xbc2e4bc7	-0.010638184
246	0x39908fbe	0.00027572917
247	0xbb97a5e6	-0.004627931
248	0xbc057abd	-0.008146939
249	0x3b178301	0.0023118856
250	0x3b019314	0.0019771503
251	0xbc76f42a	-0.015072862
252	0x3bb955da	0.0056559863
253	0xbbdef324	-0.006803887
254	0xbb5c9a36	-0.0033661253
255	0xb98f8a2e	-0.00027378037

convpool_layers.0.pool.att f4 [1, 512]
0	0x3cd3ce02	0.025855068
1	0x3dd2c7a9	0.102919884
2	0xbb847110	-0.0040417984
3	0xbd4de4cb	-0.050267022
4	0xbd736292	-0.059420176
5	0xbcdd3883	-0.027004486
6	0xbb350310	-0.0027620234
7	0xbb4c9b7f	-0.0031220613
8	0xba413428	-0.00073701376
9	0xbce83662	-0.028346244
10	0x3d733ba8	0.059383065
11	0x3caacc10	0.020849258
12	0xbc9652b9	-0.018349992
13	0x3e18657c	0.14882463
14	0xbc933483	-0.017969375
15	0x3c510a57	0.012758813
16	0xbb8df9ea	-0.0043327706
17	0xbb851c8f	-0.0040622423
18	0xbc6ba5a4	-0.0143827535
19	0xbb898352	-0.004196563
20	0x3cb1d990	0.021710187
21	0x3c7c18d3	0.015386778
22	0x3db5410a	0.08850296
23	0xba5347f0	-0.0008059731
24	0xba6db8c4	-0.0009068365
25	0xbc30a33a	-0.010781104
26	0x3c1e4301	0.00965953
27	0x3b56e941	0.0032792839
28	0xbd014942	-0.031564005
29	0xbc0fcfff	-0.0087776175
30	0xbc7c722a	-0.015408078
31	0xb4133800	-1.3710815e-07
32	0xbbcda69a	-0.006275964
33	0xbd9751f0	-0.07388675
34	0xbc20f0e0	-0.009823054
35	0xbcc46e21	-0.023978295
36	0xbacefa10	-0.0015791077
37	0xbd459a59	-0.0482429
38	0x3e005a3f	0.12534426
39	0x3c578660	0.013154596
40	0x3cc15b79	0.023603188
41	0xbcc9824c	-0.024598263
42	0xbd6f342e	-0.05839937
43	0x3afe4038	0.0019397801
44	0x3d2b36bc	0.041800246
45	0xbc6aa193	-0.014320749
46	0x3d964067	0.073365025
47	0xbdadbfe3	-0.08483865
48	0x3d2becc5	0.041973848
49	0x3e013ac1	0.12620069
50	0xbabf81e0	-0.0014610849
51	0xbe13ee97	-0.14446484
52	0xbcd9997b	-0.026562443
53	0x3cafc6d7	0.021457119
54	0xbcb0c838	-0.021579847
55	0x3cccbbf2	0.024991963
56	0xbb9180d9	-0.0044404087
57	0xbccca10c	-0.024979137
58	0xbb6bc6a4	-0.0035976553
59	0xbd0d44d6	-0.034489475
60	0xbc2f0ae3	-0.010683748
61	0xba390c81	-0.0007059053
62	0x3b6d7404	0.003623248
63	0x3bafeea3	0.005369024
64	0x3dd3dd8e	0.103449926
65	0xbda5b5f6	-0.08091347
66	0x3c84ecf2	0.016226266
67	0x3b75a6bc	0.0037483415
68	0xbbf006c8	-0.007325027
69	0x3ba2fce0	0.0049739927
70	0xbd27dd6c	-0.04098265
71	0xbc87f938	-0.016598329
72	0xbc18dc77	-0.009329907
73	0x3d4fd8f4	0.050744012
74	0x3d3b5251	0.0457328
75	0x3c84da98	0.016217515
76	0x3d43caba	0.047800757
77	0xbb7ea75f	-0.0038857085
78	0xbb84433f	-0.0040363367
79	0x3d747480	0.059681416
80	0xbda0e7a8	-0.07856685
81	0xbb8c04b4	-0.0042730216
82	0x3cc97171	0.024590226
83	0xbd7e12b6	-0.062029563
84	0xbaf954c7	-0.0019022458
85	0xbbcfb3e4	-0.0063385833
86	0x3a18fc40	0.0005835928
87	0xbb46cc3d	-0.0030334138
88	0xbd438003	-0.047729503
89	0x3d1544ca	0.036442555
90	0xbc5fccac	-0.013659637
91	0xbc2c25a8	-0.010507025
92	0x3a6088b8	0.00085652946
93	0xbd29b3d9	-0.04143128
94	0x3cae2764	0.021259017
95	0xba8d05d1	-0.001075918
96	0x3d0b0fca	0.033950604
97	0x3d73c849	0.05951718
98	0x3cb0bd1b	0.021574548
99	0x3e116037	0.1419686
100	0xbc6d4673	-0.014482128
101	0x3d47703d	0.048691023
102	0x3d4dc54a	0.050236978
103	0xbd9bb6a2	-0.07603194
104	0x3bb6a5ac	0.005573949
105	0xbdc923bf	-0.09821271
106	0x3d635b80	0.055507183
107	0xbccffbfe	-0.025388714
108	0x3bc62b99	0.0060476777
109	0xbd281936	-0.041039668
110	0x3d7cac76	0.06168791
111	0x3d00df0f	0.031462725
112	0xbd11d30f	-0.03560167
113	0xbd1b4bb8	-0.037914008
114	0x3de87b74	0.11351672
115	0x3da9f32f	0.08298337
116	0x3cc5bc31	0.024137588
117	0x38c81a80	9.541679e-05
118	0xba6af345	-0.00089626416
119	0x3cf762bc	0.030198447
120	0x3b921cd3	0.0044590025
121	0x3ce770e5	0.028252074
122	0x3ce8e531	0.0284296
123	0xbde3c85e	-0.111222014
124	0xbda4a832	-0.08039893
125	0x3cf2dd13	0.029646432
126	0xbbaed253	-0.005335131
127	0xbb8b81dc	-0.004257424
128	0xbb8580e2	-0.004074202
129	0xbdab6390	-0.083685994
130	0x3da6f827	0.081528
131	0xbd154d42	-0.036450632
132	0xbdcfdf81	-0.10150052
133	0xbb4b0847	-0.0030980275
134	0xbd39a47f	-0.04532289
135	0xbc80a946	-0.015705716
136	0xba945a26	-0.001131837
137	0x3c9b27c7	0.018939866
138	0xbc375445	-0.011189525
139	0xbb8ad564	-0.004236864
140	0x3c79507f	0.015216946
141	0xbb690ed3	-0.0035561814
142	0xbb834de3	-0.0040070876
143	0x3c6f3286	0.014599448
144	0xbcc25c00	-0.02372551
145	0x3b861610	0.0040919855
146	0xbd0553d9	-0.032550666
147	0x3d6925fd	0.056920994
148	0x3db16d5c	0.08663437
149	0xbcf26377	-0.029588444
150	0x3ae88330	0.0017739292
151	0xbda3ee87	-0.0800448
152	0x3c958e6c	0.018256389
153	0xbbb5c870	-0.0055475757
154	0xbd64d123	-0.05586351
155	0xbd4abd07	-0.049496677
156	0x3cd94c85	0.026525745
157	0x3c844510	0.016146213
158	0xbb061455	-0.0020458896
159	0x3ddcb6c2	0.10777046
160	0xbb30d799	-0.0026983975
161	0x3be97450	0.0071244612
162	0xbd001587	-0.03127053
163	0xbad59cba	-0.0016297319
164	0xbb96f182	-0.0046064267
165	0xbdc25ea5	-0.09490708
166	0x3c6a96b5	0.014318158
167	0xbbf98ace	-0.0076154238
168	0xbaeabc6b	-0.0017908936
169	0xbc7f84cf	-0.015595629
170	0x3d495a34	0.04915829
171	0xbc86e52b	-0.016466698
172	0x3bb03034	0.00537684
173	0xbb7611fd	-0.0037547343
174	0xbd38b86a	-0.045097746
175	0xbafa487a	-0.0019095086
176	0xbbe7e777	-0.0070771533
177	0xbb7260d4	-0.0036983984
178	0xbc531703	-0.012883904
179	0xbba5607f	-0.0050469036
180	0xbc74b553	-0.014935809
181	0xbc64a8e3	-0.013956281
182	0x3cd148e7	0.025547458
183	0xbd03dbf2	-0.032192178
184	0xbc60ff12	-0.0137326885
185	0xbaa36ba0	-0.0012467988
186	0xbb196883	-0.002340824
187	0x3d3e5c3d	0.046474684
188	0x3e276721	0.16347934
189	0x3d4dbc21	0.05022824
190	0x3d7a6b8b	0.061137717
191	0xbdf03743	-0.1172929
192	0x3cf0332f	0.029321281
193	0xbb56798a	-0.0032726252
194	0x3c29b4b5	0.010358025
195	0x3afebc56	0.0019434791
196	0x3cb5b27a	0.02217983
197	0x3cf865f5	0.030322054
198	0x38d38710	0.000100864214
199	0x3bfba80f	0.0076799463
200	0xb9697258	-0.00022263208
201	0x3b882d61	0.0041558
202	0x3da57945	0.08079771
203	0xbbeb0ff1	-0.007173531
204	0x3d3898f3	0.04506774
205	0x3bccbef8	0.006248351
206	0xb93e73d0	-0.00018162956
207	0xb9b8fda8	-0.00035284203
208	0xb9d89210	-0.00041307556
209	0xbb234d87	-0.0024918036
210	0xbaa89519	-0.0012861817
211	0x3cf7e987	0.030262722
212	0x3c13e40d	0.0090265395
213	0xbbdaa83c	-0.006672887
214	0xbbcdf55d	-0.006285353
215	0xbce577f8	-0.028011307
216	0xb9f67460	-0.00047007482
217	0x3c9ad5e8	0.018900827
218	0x3d02f34a	0.0319703
219	0xbb9b0a7f	-0.004731476
220	0xba86851e	-0.0010263061
221	0xbd8ead01	-0.069665916
222	0x3ce7d0f0	0.028297871
223	0xbdaac7b7	-0.08338874
224	0xba41456b	-0.000737271
225	0x3c3b8c0a	0.011446962
226	0x3ceb60b3	0.028732633
227	0xbcbb626f	-0.022874085
228	0x3b0c7941	0.0021434578
229	0x3ba4685c	0.0050173234
230	0x3defba69	0.11705477
231	0x3c968ecd	0.01837864
232	0xbb9a53bd	-0.0047096894
233	0xbb68ca6a	-0.0035521039
234	0x3b3be202	0.0028668647
235	0xbced4c66	-0.028967094
236	0xbc8ac3ef	-0.016939132
237	0xbd0b61bb	-0.03402875
238	0x3c510177	0.012756697
239	0xbd970291	-0.073735364
240	0x3d973388	0.07382876
241	0xbdba5566	-0.0909832
242	0x3de1946b	0.110146366
243	0xbcb46292	-0.022019658
244	0xbc4aa4fb	-0.012368436
245	0xbbb90696	-0.005646537
246	0xbb974f02	-0.0046175728
247	0x3d0a15dd	0.033712257
248	0x3d0c3f6f	0.034240182
249	0x3c939960	0.01801747
250	0xbc06f551	-0.008237199
251	0xbd7aa07d	-0.06118821
252	0xbd9f7075	-0.07785121
253	0xbb8158d4	-0.0039473567
254	0xbb8da158	-0.004322212
255	0xbd4d0129	-0.050049935

convpool_layers.1.conv.weight f4 [256, 256]
0	0xb96524f7	-0.00021852912
1	0xbc6b8605	-0.014375214
2	0xb8992af7	-7.303611e-05
3	0xbc81332f	-0.015771477
4	0xbcf179b1	-0.029476972
5	0x3a164e0b	0.0005733675
6	0xbcd4c1d0	-0.025971323
7	0xbae37e08	-0.0017356286
8	0x35b6be10	1.3615372e-06
9	0x3cedc0c3	0.02902258
10	0x39bf3510	0.00036469894
11	0xbc2d5b2b	-0.010580818
12	0x38af5050	8.35961e-05
13	0x3ca45a14	0.020062484
14	0x3988ab7a	0.000260677
15	0xb8942968	-7.0649025e-05
16	0xbca4d0c9	-0.020119088
17	0x38d1c4aa	0.00010002528
18	0x3a280d36	0.000641066
19	0xb93bbe3f	-0.00017904582
20	0xbacf4d18	-0.0015815822
21	0x3c2c6019	0.010520958
22	0x397d28fe	0.00024143231
23	0x3bdc3bf9	0.0067210165
24	0xb765209c	-1.3657056e-05
25	0x39ba876a	0.00035577576
26	0x39f6e42f	0.00047090786
27	0x3932b0c8	0.00017041259
28	0xbb106071	-0.002203014
29	0xb92be3dc	-0.00016392715
30	0x38b15436	8.455703e-05
31	0x37c3de27	2.334926e-05
32	0x3a310762	0.0006753114
33	0xbcb42ab8	-0.021993026
34	0x38c60d15	9.4438125e-05
35	0xba16b478	-0.0005748938
36	0x3b969784	0.004595699
37	0xb9c785ae	-0.00038055837
38	0xbc7d94d0	-0.015477374
39	0xbcf1fba4	-0.029538937
40	0x3ca6d016	0.020362895
41	0xb98f1287	-0.0002728889
42	0xbcfdfb43	-0.0310036
43	0x3b821e86	0.003970924
44	0x3a3c7dab	0.0007190357
45	0x3a3d2024	0.0007214567
46	0x3d064774	0.032782987
47	0x39968d2f	0.0002871542
48	0xbcf6418f	-0.030060558
49	0xbc05bce7	-0.008162714
50	0x389423a0	7.0638256e-05
51	0xbcc4225e	-0.023942169
52	0x3cec272d	0.028827274
53	0xbc789ee6	-0.015174603
54	0x39c4bd48	0.0003752506
55	0xbc3520a3	-0.0110551445
56	0x39f0ce86	0.0004593024
57	0x3b5bf3e5	0.003356212
58	0x3a0dc14c	0.00054075266
59	0xb9df143a	-0.00042548944
60	0xbce4ea18	-0.027943656
61	0x3b0826de	0.002077512
62	0xbaa9c002	-0.00129509
63	0x3a2bd291	0.0006554509
64	0x3cbc68b1	0.02299914
65	0xbcaa5e6a	-0.020796973
66	0xbc075003	-0.008258822
67	0xbb9f81b1	-0.0048677553
68	0xb950faa7	-0.00019929801
69	0x3c93ce84	0.01804281
70	0xbc3d7498	-0.011563443
71	0x37ea2e80	2.7916627e-05
72	0xb9160204	-0.00014305866
73	0x3881d8bb	6.1915685e-05
74	0x388b18fa	6.632689e-05
75	0xb8ecea18	-0.0001129696
76	0xbcaea086	-0.021316778
77	0x3a3e296c	0.0007254097
78	0xb84484b4	-4.685363e-05
79	0x39882904	0.000259705
80	0x3d051b35	0.03249665
81	0xba39d478	-0.000708885
82	0x3cacd5f8	0.021098122
83	0x38a61cfe	7.920897e-05
84	0xb99fa994	-0.0003045319
85	0x3b16aaba	0.0022989945
86	0xbc55c388	-0.013047107
87	0xb83367a4	-4.277345e-05
88	0x38c3bad6	9.3331255e-05
89	0xb9e9b26a	-0.00044574152
90	0x388bff1d	6.675555e-05
91	0xbc5993d5	-0.013279875
92	0xba1ab4ba	-0.0005901564
93	0x3cbb444e	0.022859719
94	0xbcd5d091	-0.026100429
95	0x3c8a85b5	0.01690946
96	0xb9a4bc60	-0.00031420868
97	0xbc81ee74	-0.015860774
98	0xba2377f8	-0.0006235833
99	0x38c3d963	9.338816e-05
100	0x3ace6d74	0.0015749172
101	0xbcfff6de	-0.031245645
102	0xb9c9818c	-0.00038434227
103	0x3c028986	0.007967358
104	0xbbc3a7cc	-0.0059709307
105	0xbca3353b	-0.019922843
106	0xb8ce45ba	-9.835833e-05
107	0x3b9068fe	0.0044070473
108	0x38dde76f	0.00010581209
109	0x3950c7d7	0.00019910872
110	0x3bfc4ad3	0.0076993494
111	0x3a25d4eb	0.0006325978
112	0x3cbbfe81	0.022948505
113	0x3b0cbc8c	0.0021474687
114	0xbc2277f2	-0.0099162925
115	0x3a29c6fb	0.0006476489
116	0xb879b7d7	-5.953744e-05
117	0xb964ce88	-0.00021820713
118	0xbbf4cc71	-0.0074706604
119	0xbc4363be	-0.011925636
120	0x3c23a494	0.009987969
121	0x3cca11fd	0.02466678
122	0xbc8d69c4	-0.017262347
123	0xba22aeff	-0.0006205886
124	0x399100f5	0.00027657268
125	0xb8c2d34c	-9.289998e-05
126	0xb931567c	-0.00016912253
127	0xbcca8112	-0.024719749
128	0xbcf7a7d0	-0.030231386
129	0xbc5b1362	-0.01337132
130	0xb98635f3	-0.00025598667
131	0x395ddc94	0.00021158374
132	0x388f7d59	6.842119e-05
133	0x3adc83e4	0.0016823974
134	0xbca60514	-0.020266093
135	0xb70b693c	-8.309547e-06
136	0xb8a67628	-7.937505e-05
137	0xbce7a9d2	-0.028279219
138	0xbc2a9fb5	-0.010414054
139	0xb92a450e	-0.00016238188
140	0xb984c124	-0.00025320903
141	0xbc6c1cb6	-0.014411142
142	0x36d7b46b	6.4285027e-06
143	0xb98d603f	-0.00026965325
144	0x3a1cba7d	0.00059787167
145	0x3ce129f0	0.027485818
146	0x3bbe61cc	0.005809998
147	0x36db3810	6.533235e-06
148	0xbb49fdb0	-0.0030821376
149	0x3a226f92	0.0006196435
150	0x38addd14	8.290462e-05
151	0xb8236292	-3.895403e-05
152	0xbc7d0fe8	-0.015445687
153	0x3cc689a9	0.024235563
154	0x385753a7	5.1337902e-05
155	0x38e524b4	0.000109264074
156	0xbcd29c0c	-0.025709175
157	0xbb875930	-0.004130505
158	0xb7f9523e	-2.972141e-05
159	0x39ce754b	0.00039378772
160	0x38019b90	3.0900876e-05
161	0x39a8c97c	0.00032193575
162	0x3cac5ddd	0.021040851
163	0x3a092496	0.0005231587
164	0xb810f7fe	-3.4563236e-05
165	0xb896e4c6	-7.19517e-05
166	0x39845313	0.00025238897
167	0x387a43de	5.966785e-05
168	0x3cdfbff7	0.027313216
169	0xb9b2461b	-0.00034003038
170	0xb949ad99	-0.00019233524
171	0x3c8cfd41	0.017210605
172	0x39dbf040	0.00041949935
173	0x3c2728ab	0.010202567
174	0x3a0eab5e	0.0005442406
175	0x3b919b3a	0.0044435533
176	0xbce8bb11	-0.028409513
177	0xbccf149e	-0.025278386
178	0x3bc0b2a8	0.0058806725
179	0x3cfd2de6	0.030905675
180	0xb96a711d	-0.00022358117
181	0x39098ce4	0.00013117824
182	0xbc738270	-0.014862642
183	0x399045be	0.00027517782
184	0xb983fd73	-0.00025175101
185	0x3afcea90	0.0019295979
186	0xba2096c7	-0.0006125983
187	0xbcec7620	-0.02886492
188	0xbc1d867f	-0.009614586
189	0xb7295eca	-1.0095255e-05
190	0x3a29064d	0.0006447777
191	0xb989aa39	-0.00026257502
192	0x39357774	0.00017306005
193	0x38f2b5a0	0.000115732895
194	0xbcaf4521	-0.021395268
195	0x3c609a7c	0.013708707
196	0xb72afe4a	-1.0191996e-05
197	0x393542a5	0.00017286332
198	0x37cfbe1a	2.4764846e-05
199	0x381a8a4e	3.6845267e-05
200	0xbcf8f99f	-0.030392466
201	0xb8aaa380	-8.136686e-05
202	0x3cc79705	0.024364004
203	0xbc058588	-0.008149512
204	0x3a13f75b	0.0005644464
205	0x38bc913e	8.991592e-05
206	0x3a0edf5e	0.00054501544
207	0xb990a50b	-0.00027588787
208	0xbc8dfe39	-0.017333137
209	0x3cc350e8	0.02384229
210	0x3cf42998	0.02980499
211	0xb9952438	-0.0002844648
212	0xbc587d8e	-0.013213528
213	0x39193e3f	0.00014614406
214	0xbc21841a	-0.009858156
215	0x3982c544	0.00024942507
216	0xbbf1743c	-0.0073685925
217	0x3c30226a	0.010750392
218	0x38a1f90d	7.7234676e-05
219	0x3b0943c5	0.0020944935
220	0x36fab626	7.4717855e-06
221	0xba13411a	-0.0005617306
222	0xb9adf454	-0.0003317917
223	0xb9ee3218	-0.0004543222
224	0xba1b3064	-0.00059199915
225	0x3ae70ec5	0.0017628303
226	0x3d03607c	0.032074437
227	0x3982e8e0	0.00024969038
228	0xbcf459e6	-0.029828023
229	0x3c38484d	0.011247707
230	0x3a70addd	0.0009181181
231	0xbc9e7c04	-0.019346245
232	0xbba6744f	-0.005079783
233	0xb7126a16	-8.726978e-06
234	0xbcdb5486	-0.026773702
235	0xbbb4d218	-0.005518209
236	0x3baf0177	0.005340751
237	0xb921826b	-0.00015402741
238	0x3932ce79	0.0001705232
239	0xbc7c0984	-0.015383128
240	0xbcfa62e9	-0.030564742
241	0x3cae20f2	0.021255944
242	0xb8a1ea4c	-7.7207194e-05
243	0xbced7196	-0.028984826
244	0x3a22a398	0.0006204187
245	0xb943d196	-0.00018674726
246	0xb9303cfc	-0.00016807386
247	0x39dca450	0.00042084092
248	0x3a28ab5a	0.0006434225
249	0x38e6fa31	0.000110138564
250	0x38e53488	0.000109293556
251	0x39098d30	0.00013117935
252	0x392bf10f	0.00016397632
253	0x39e315c6	0.00043313036
254	0xb9f68d5c	-0.00047026097
255	0xb93e61bc	-0.00018156221

convpool_layers.1.conv.bias f4 [256]
0	0xb9ea4d20	-0.0004468942
1	0xbcbb276d	-0.022845948
2	0xbc0916a2	-0.0083672125
3	0x00000000	0.0
4	0xbc2d24cd	-0.010567856
5	0x00000000	0.0
6	0x00000000	0.0
7	0xbbc6d515	-0.006067882
8	0x00000000	0.0
9	0xbb183fd1	-0.0023231397
10	0xbb8d1b7c	-0.004306255
11	0x00000000	0.0
12	0xbc6b9d11	-0.014380709
13	0xbbdeea70	-0.0068028495
14	0xbc8f6e17	-0.01750855
15	0x00000000	0.0
16	0x3ad90c89	0.0016559522
17	0xbc08e4a9	-0.008355298
18	0xbc2cd240	-0.010548174
19	0xba358798	-0.0006924807
20	0xbc064fbf	-0.008197724
21	0xbc0c501e	-0.008564023
22	0xbc9b7191	-0.018975051
23	0xbc02ee5c	-0.0079914
24	0x00000000	0.0
25	0x3b34d197	0.0027590746
26	0xbbadb0d9	-0.005300623
27	0x39e1048d	0.00042918735
28	0xbb6fa4f2	-0.003656682
29	0xbb639d48	-0.0034731198
30	0xbc7ee702	-0.015558006
31	0xbc0590ca	-0.008152196
32	0xbbdfe589	-0.0068327826
33	0xbc5238b7	-0.012830905
34	0xbb66f71e	-0.0035242508
35	0xba73ac99	-0.00092954334
36	0xba82b184	-0.0009971117
37	0xbc603488	-0.013684399
38	0xbc9f8ff8	-0.01947783
39	0x3abe995c	0.0014541554
40	0x00000000	0.0
41	0x00000000	0.0
42	0xbce886a2	-0.02838451
43	0xbc2037fe	-0.009778975
44	0xbc5f5dcb	-0.013633202
45	0xbc376b6b	-0.011195044
46	0x00000000	0.0
47	0x3b9208c7	0.0044566127
48	0xbc15d00b	-0.00914384
49	0xbb3d8c0b	-0.0028922583
50	0xba3ffe40	-0.0007323958
51	0xbbc1264a	-0.005894457
52	0xbc16d0bc	-0.00920504
53	0xbc6fb0e0	-0.014629573
54	0xbc552418	-0.013009094
55	0xbbe8aa0f	-0.0071003507
56	0xbb988916	-0.004655014
57	0x00000000	0.0
58	0xbb67b7fd	-0.0035357468
59	0xbb29e3d3	-0.0025923147
60	0x00000000	0.0
61	0xbb82fc74	-0.00399738
62	0xbc009085	-0.007846956
63	0xbc397f3f	-0.011321842
64	0xbb4d8c5a	-0.0031364174
65	0x00000000	0.0
66	0xbc48c962	-0.012255045
67	0xbb727aba	-0.003699942
68	0x3b05345a	0.0020325393
69	0xba111896	-0.00055349746
70	0xb97bdb8d	-0.00024019014
71	0xba1734aa	-0.00057680404
72	0x382b1bec	4.079558e-05
73	0xbb9e3a64	-0.004828738
74	0xbc14da44	-0.009085242
75	0xbb003887	-0.0019564943
76	0xbbfa3a52	-0.007636347
77	0x3ae73ded	0.0017642357
78	0xbbb60357	-0.0055545974
79	0xbba7b7c3	-0.0051183417
80	0xbc57260b	-0.013131629
81	0xbc76bb62	-0.015059324
82	0xbc4ce048	-0.012504645
83	0xbc0eac54	-0.008708078
84	0xbc1d22a5	-0.009590779
85	0x3ab55b7b	0.0013836467
86	0xbba16a97	-0.0049260366
87	0xbbeb2191	-0.0071756323
88	0xbb62a5cd	-0.0034583688
89	0xba923869	-0.0011155728
90	0xbbc2f54b	-0.0059496514
91	0xbc25faa4	-0.010130558
92	0xbbcfc68f	-0.0063408087
93	0x3ae8aa2b	0.0017750909
94	0xbbdf15a4	-0.0068079997
95	0xbbb3a1cc	-0.005481934
96	0xbd055ce0	-0.032559276
97	0xbbcff71c	-0.0063465964
98	0xbc07c48a	-0.008286605
99	0xbcc133e2	-0.02358431
100	0xbbcb22ad	-0.006199202
101	0xbc224756	-0.009904703
102	0xbb6b7b82	-0.003593177
103	0xbc321a26	-0.010870492
104	0xbc186804	-0.009302143
105	0x00000000	0.0
106	0xbc37b0df	-0.011211603
107	0x00000000	0.0
108	0xbb4695a7	-0.0030301602
109	0xbb0c973f	-0.0021452454
110	0xbb8d9d73	-0.004321748
111	0xbbe04428	-0.0068440624
112	0xbbc1a72c	-0.005909821
113	0xbafb2bf1	-0.0019162876
114	0xbbedc70d	-0.0072563947
115	0xbc89ae36	-0.016806703
116	0xbca90e01	-0.02063656
117	0x00000000	0.0
118	0x00000000	0.0
119	0xbc2772e2	-0.010220261
120	0xbc2d8cfd	-0.010592696
121	0x00000000	0.0
122	0xbb9e2e0e	-0.0048272675
123	0xbb88c1fe	-0.0041735163
124	0x00000000	0.0
125	0x3a3897fd	0.0007041691
126	0xba01be1f	-0.000494929
127	0xbc58b38b	-0.0132264
128	0x3ab7b47c	0.001401558
129	0xbb3bc8a2	-0.0028653522
130	0xbc496937	-0.012293152
131	0x00000000	0.0
132	0xbb5b7106	-0.0033484115
133	0x3b6544a0	0.003498353
134	0xbaf499f4	-0.0018661604
135	0xbc48b0fa	-0.012249226
136	0x00000000	0.0
137	0x00000000	0.0
138	0x3a357d68	0.0006923289
139	0xbbc4e49b	-0.006008697
140	0xbc08f16f	-0.0083583435
141	0xbc05f6e5	-0.00817654
142	0x00000000	0.0
143	0xbba1d11e	-0.004938259
144	0x00000000	0.0
145	0xbc2088b9	-0.009798222
146	0xbc2f11a0	-0.0106853545
147	0xbbf4dbb5	-0.00747248
148	0xbbc9cd84	-0.0061585326
149	0xbc20b1b1	-0.00980799
150	0xbbda8498	-0.0066686384
151	0xbca7f2a9	-0.020501452
152	0xbc1113d2	-0.008854823
153	0xbc0e4283	-0.00868285
154	0xbc5b44ca	-0.0133831
155	0xbbf44366	-0.0074543236
156	0xbc0469be	-0.0080818515
157	0xbc0e1b5f	-0.008673518
158	0xbbca6efb	-0.0061777807
159	0x00000000	0.0
160	0xbb003305	-0.001956166
161	0x00000000	0.0
162	0xbb239fb5	-0.002496702
163	0xbc8edbe3	-0.017438835
164	0xbc50d7fa	-0.012746805
165	0x00000000	0.0
166	0xbbdd5b08	-0.0067552365
167	0x3b9d85ab	0.004807194
168	0xbbc364b7	-0.005962934
169	0xbc1686a1	-0.0091873715
170	0x3bce5ed3	0.006297925
171	0xbc9085cb	-0.017641922
172	0xb938838d	-0.00017596614
173	0x00000000	0.0
174	0x39e5f2d6	0.0004385921
175	0xbbf5f297	-0.0075057256
176	0x3a7e3498	0.0009697168
177	0x3b71e5d2	0.0036910665
178	0xbc31effe	-0.010860441
179	0x38bcc8e4	9.0019574e-05
180	0xba242a16	-0.0006262375
181	0xbc06bb64	-0.008223388
182	0x3c098d14	0.008395452
183	0x00000000	0.0
184	0xbc472cbc	-0.012156662
185	0xbc1b97e9	-0.009496667
186	0xbb77d56d	-0.003781642
187	0xbc5239b1	-0.0128311375
188	0xbc0589db	-0.008150543
189	0xbbade440	-0.0053067505
190	0xbc6d4131	-0.014480875
191	0x00000000	0.0
192	0xbbf80451	-0.007568874
193	0xbc142a68	-0.009043314
194	0x00000000	0.0
195	0xbb879d91	-0.0041386564
196	0xbc76c00a	-0.015060434
197	0xbc09c078	-0.0084077045
198	0x00000000	0.0
199	0x00000000	0.0
200	0x00000000	0.0
201	0x00000000	0.0
202	0xbc34f678	-0.011045091
203	0xbbf25aa9	-0.0073960614
204	0xbc05fe5f	-0.008178323
205	0xbc20a4c1	-0.009804905
206	0x3a1a36fd	0.00058828277
207	0xb9eeca50	-0.00045545632
208	0x396de7ac	0.00022688386
209	0x38cac202	9.6682474e-05
210	0xbbdebd38	-0.006797459
211	0xbc1aba66	-0.009443855
212	0xbc9e238c	-0.01930406
213	0xbb09d4c2	-0.0021031355
214	0xb67be47e	-3.7534915e-06
215	0x00000000	0.0
216	0xbc4e4d06	-0.012591606
217	0x00000000	0.0
218	0xbc30a34d	-0.010781121
219	0xbc1b3a94	-0.009474415
220	0xbbe01c45	-0.0068393075
221	0xbbca1977	-0.0061675864
222	0x3a3f61e4	0.00073006586
223	0x39dac4c3	0.000417268
224	0xbb14b6a8	-0.002269188
225	0xbc3ecabc	-0.011645015
226	0x00000000	0.0
227	0x3a9dd868	0.0012042644
228	0xbc443d26	-0.01197747
229	0xba056c3e	-0.00050896767
230	0xbbb772eb	-0.005598416
231	0xbaabe9d4	-0.0013115951
232	0xbc2c1784	-0.010503653
233	0xbbfe70ac	-0.0077648964
234	0xbc48d170	-0.012256965
235	0xbcbedea9	-0.023299532
236	0xbbfd11d9	-0.007723075
237	0x00000000	0.0
238	0xbc897ff4	-0.016784646
239	0x00000000	0.0
240	0xbc59a02b	-0.013282816
241	0xbbca132a	-0.0061668353
242	0x3bb6d2e5	0.00557934
243	0xbc0c82b5	-0.008576085
244	0xbc193352	-0.009350615
245	0xbc15949f	-0.009129672
246	0xbc079605	-0.008275514
247	0xbbf21787	-0.0073880586
248	0xbbe2d8ca	-0.006922816
249	0x3b0d5394	0.002156471
250	0x3a899aa0	0.0010498352
251	0x00000000	0.0
252	0x3b567762	0.0032724966
253	0xbc9d56d4	-0.019206442
254	0x00000000	0.0
255	0xba9b83be	-0.0011864824

lin1.weight f4 [256, 512]
0	0x3a1e20ad	0.0006032091
1	0xba3a0854	-0.0007096578
2	0xb8bc46dc	-8.977737e-05
3	0xba24d97e	-0.00062885124
4	0x39a65f8e	0.0003173318
5	0x38b852fb	8.78926e-05
6	0x394288cc	0.00018552243
7	0x391aef0f	0.00014775641
8	0x39292dcd	0.00016134158
9	0xb975a3d8	-0.00023426057
10	0xba19ada1	-0.00058623595
11	0xb9afc705	-0.00033526882
12	0xb8e98cd0	-0.00011136534
13	0xb95efd82	-0.00021266009
14	0xb99661bd	-0.0002868305
15	0x397edab8	0.00024304807
16	0xb8c2105e	-9.2536895e-05
17	0xb999c8ff	-0.00029332188
18	0xb9d7547a	-0.00041070936
19	0xb8c43c9e	-9.357299e-05
20	0x37a703d0	1.9909727e-05
21	0x3a1ae808	0.0005909209
22	0xba89de66	-0.001051855
23	0xb9976b50	-0.00028880918
24	0xb890ff23	-6.913978e-05
25	0xb8a7c712	-8.00026e-05
26	0xba39bc97	-0.0007085292
27	0xb915ad31	-0.00014274266
28	0xb9f99112	-0.00047601067
29	0xba5b2176	-0.0008359173
30	0xba429dde	-0.0007424037
31	0xb99279e1	-0.00027938097
32	0xb9ba0eae	-0.00035487622
33	0x391361e2	0.00014055477
34	0xb620d298	-2.396444e-06
35	0x3817ff08	3.623872e-05
36	0xb4195900	-1.4281613e-07
37	0x38d2dc3b	0.000100546014
38	0xba559b2f	-0.00081484293
39	0xb99112ed	-0.00027670656
40	0xbad8cb20	-0.0016540028
41	0xb98d4946	-0.0002694821
42	0xba59c418	-0.00083071133
43	0xb96a6d8e	-0.00022356791
44	0xba245801	-0.0006269217
45	0xb968913e	-0.00022179351
46	0xbac49f52	-0.0015001094
47	0x38120c6d	3.4820685e-05
48	0x39e58195	0.0004377483
49	0xb937e72f	-0.00017538363
50	0xb8d25783	-0.00010029881
51	0xba5ad074	-0.0008347102
52	0xb6d42c40	-6.3232437e-06
53	0xba482515	-0.000763492
54	0xba0a81cc	-0.00052836235
55	0x38bf883a	9.132964e-05
56	0xb9188a51	-0.00014547376
57	0xba6f5275	-0.00091294135
58	0x39b4a415	0.00034454526
59	0xba0cc728	-0.0005370253
60	0x38a91ba1	8.063694e-05
61	0x389f3390	7.591315e-05
62	0xb9c01136	-0.00036633917
63	0xba1da536	-0.0006013693
64	0xba174b3b	-0.0005771403
65	0xb9a34f63	-0.0003114893
66	0xb9780b24	-0.00023655273
67	0xb847aece	-4.7608097e-05
68	0xb837b07b	-4.379496e-05
69	0x3724be68	9.819494e-06
70	0xb9aa2ae8	-0.00032456894
71	0xb88ca71e	-6.706848e-05
72	0xb93565be	-0.00017299407
73	0xba624652	-0.00086316944
74	0xb98fed72	-0.00027451996
75	0x387feae0	6.1015482e-05
76	0xb7a45f00	-1.9594561e-05
77	0x398c3681	0.0002674349
78	0xb9a6fd4e	-0.00031850714
79	0xb9b0e926	-0.00033743045
80	0xba2c5717	-0.00065742567
81	0xba040c28	-0.0005037212
82	0xb9e26a10	-0.00043185102
83	0xb87e26cc	-6.059445e-05
84	0x39aaa180	0.00032545254
85	0x39bd262a	0.00036077324
86	0xb9e50f19	-0.00043689532
87	0x38a4b289	7.853384e-05
88	0xba3724e3	-0.00069863925
89	0x3729c4b0	1.011898e-05
90	0xb9922307	-0.00027873387
91	0xb91be829	-0.00014868438
92	0xb98860ad	-0.0002601197
93	0x38f71051	0.00011780917
94	0xb9cfaec2	-0.0003961232
95	0xba248b6a	-0.0006276878
96	0xba88bf44	-0.0010432978
97	0x3a016e8d	0.0004937433
98	0xb7ecc50a	-2.8225146e-05
99	0xbaf081f3	-0.0018349275
100	0xbaf26bfb	-0.0018495315
101	0xba4a5b34	-0.0007719279
102	0xba3df431	-0.0007246165
103	0xb8ea45ff	-0.00011171027
104	0xbae2c585	-0.0017301297
105	0x39b1df97	0.00033926658
106	0xbae6c2d5	-0.0017605672
107	0x39873a2e	0.00025792554
108	0xb88d6acd	-6.743297e-05
109	0xb98860b9	-0.00026012005
110	0xba3f209a	-0.000729093
111	0xb8c0960d	-9.1832226e-05
112	0x38ee0d62	0.00011351217
113	0x3887d9f8	6.4779015e-05
114	0xba4747b3	-0.00076019316
115	0xbabafbe6	-0.0014265745
116	0x398bc893	0.00026661585
117	0xb7035fc2	-7.830504e-06
118	0xba1cddf8	-0.00059840037
119	0x39485414	0.00019104808
120	0xb98226a8	-0.00024824333
121	0xb914252a	-0.00014128225
122	0xb8a08560	-7.6542376e-05
123	0xb9ce5d61	-0.00039360955
124	0x386674dc	5.4945107e-05
125	0xba196796	-0.00058519223
126	0x377633c6	1.4674797e-05
127	0xb9e3ab6a	-0.00043424527
128	0x3937af50	0.00017517549
129	0xb91b485d	-0.0001480891
130	0x39d25ac4	0.00040121947
131	0x3a09f4e5	0.00052626274
132	0xba2de75c	-0.00066339015
133	0xb8ad9342	-8.276712e-05
134	0xba249a93	-0.0006279137
135	0xb8820c27	-6.2011466e-05
136	0x38e4b7e0	0.000109061366
137	0xb8792c76	-5.9407634e-05
138	0xb8fecae0	-0.00012149452
139	0xb96f7690	-0.00022836984
140	0xba1310c2	-0.0005610102
141	0xb80de30a	-3.3828466e-05
142	0xb91a819a	-0.00014734865
143	0xb9939626	-0.00028149894
144	0xb9a3f9c6	-0.00031275878
145	0xb82f0556	-4.172822e-05
146	0xb9f49c03	-0.00046655544
147	0x395a9b8c	0.00020848046
148	0xb9c9c980	-0.00038487837
149	0xbae1613e	-0.0017195118
150	0xb9bafbef	-0.0003566439
151	0xba0ecd53	-0.0005447466
152	0xb82e0b89	-4.1495576e-05
153	0x38d0a7dc	9.949479e-05
154	0xb748f900	-1.1978904e-05
155	0xb9d84672	-0.00041251216
156	0xb7cf02c4	-2.467761e-05
157	0xb89a332a	-7.352822e-05
158	0x391b745f	0.00014825304
159	0x3a1b20a2	0.00059176434
160	0xb920eb72	-0.000153465
161	0x37ab5779	2.0425521e-05
162	0x3932be7a	0.00017046361
163	0x390acea8	0.00013237691
164	0x39fc01f6	0.00048066647
165	0xb9794816	-0.00023773345
166	0xb9c697c9	-0.00037878592
167	0xb8819fe6	-6.180983e-05
168	0x38917058	6.9350644e-05
169	0xba38815d	-0.00070383196
170	0xba37e874	-0.0007015534
171	0xba00e129	-0.0004916364
172	0x3a03aea2	0.0005023276
173	0x38b3c169	8.5714106e-05
174	0xb96f2606	-0.00022806981
175	0xb964fa4f	-0.00021837022
176	0x37e90dfc	2.7782276e-05
177	0xb7c20e65	-2.3133305e-05
178	0xba341cb3	-0.00068707316
179	0x39f27164	0.0004624232
180	0xba12eb0f	-0.00056044845
181	0xb9f06813	-0.00045853909
182	0xb8eca601	-0.000112842776
183	0xb99e442b	-0.00030186897
184	0xb8e5c910	-0.00010957022
185	0xb9a40907	-0.00031287243
186	0xb6a7fe14	-5.0065664e-06
187	0xb944e3f6	-0.00018776939
188	0xb9ed818e	-0.00045300688
189	0x3815b7fe	3.5695724e-05
190	0x3a067677	0.0005129347
191	0xba93475a	-0.0011236474
192	0xb95a845f	-0.00020839412
193	0xb8b14293	-8.452418e-05
194	0xba134be6	-0.0005618915
195	0xb9c96a05	-0.00038416698
196	0xb99d3616	-0.0002998567
197	0xba3d3e47	-0.0007219058
198	0xb9d97aaa	-0.00041480857
199	0xb91f59bb	-0.00015196849
200	0xb901e086	-0.0001238604
201	0x3a25e038	0.00063276617
202	0xba107245	-0.00055101915
203	0x38cd8c3e	9.801284e-05
204	0xba302ec6	-0.0006720837
205	0x38f7eff8	0.000118225755
206	0x3a25ccc0	0.00063247606
207	0x38838390	6.271072e-05
208	0x3845a356	4.712058e-05
209	0x380d772c	3.3728007e-05
210	0x378fb14a	1.7129485e-05
211	0x388ee0f8	6.812991e-05
212	0xbadc3e16	-0.0016803171
213	0xbac7e7b2	-0.0015251546
214	0xb8951627	-7.109e-05
215	0x38a1b1ba	7.7101824e-05
216	0xb9b3c786	-0.00034290197
217	0xb7f92626	-2.9700877e-05
218	0xba4f2757	-0.00079022854
219	0xb9bf7a81	-0.0003652163
220	0xb870fac0	-5.7453988e-05
221	0xb88968f7	-6.55222e-05
222	0x39cbd783	0.00038879746
223	0xba859d25	-0.0010193927
224	0x38058717	3.1835483e-05
225	0x39035266	0.0001252383
226	0xb9f1cbec	-0.00046119036
227	0xba19412b	-0.00058461976
228	0xb97d6056	-0.00024163848
229	0x38c34936	9.311961e-05
230	0xba8c3ab8	-0.0010698652
231	0x37f17320	2.8783048e-05
232	0xb8cad1b4	-9.671171e-05
233	0xb9d5bd85	-0.0004076773
234	0xb92442f6	-0.00015665204
235	0xba34cd83	-0.0006897079
236	0xba339241	-0.00068501016
237	0x38cb2a46	9.687668e-05
238	0xb8e727ab	-0.00011022327
239	0x3848bbd1	4.7858633e-05
240	0xbabcd632	-0.0014407097
241	0xb99377f2	-0.0002812739
242	0x388118d2	6.1558225e-05
243	0xba474493	-0.0007601466
244	0xba09599a	-0.0005239487
245	0xb949b5e2	-0.0001923661
246	0xb9936e3a	-0.0002812015
247	0xb93390ab	-0.00017124663
248	0x3835cc9a	4.3344313e-05
249	0xba9d84fa	-0.001201778
250	0xb97f3a3f	-0.00024340393
251	0xba1aef77	-0.0005910317
252	0x38acd370	8.2409824e-05
253	0xb9a7a82c	-0.0003197802
254	0x35eaca14	1.7493171e-06
255	0xbaeacd90	-0.0017914046

lin1.bias f4 [256]
0	0xba052c53	-0.0005080152
1	0xbcb345f7	-0.021883948
2	0xbcd0cfc6	-0.0254897
3	0xbba8b184	-0.0051481146
4	0x3cc57da2	0.024107758
5	0x3a41ea57	0.0007397285
6	0xba6522a6	-0.000874082
7	0xbbaab642	-0.005209715
8	0xb90e2514	-0.00013555988
9	0xbd2c86b4	-0.04212065
10	0xbaff572b	-0.0019480934
11	0x3a9e40e7	0.0012073786
12	0xba12ed71	-0.00056048395
13	0xb8cc49f6	-9.741254e-05
14	0xbb4cd7c4	-0.0031256536
15	0x38a46412	7.838769e-05
16	0x3c2af9ab	0.010435502
17	0xb960a9ff	-0.00021425633
18	0xbb19c309	-0.0023462197
19	0x3bcec352	0.006309905
20	0xbd35558f	-0.04427105
21	0x3d307e03	0.043088924
22	0x3c8a6e57	0.016898317
23	0xbbd0da44	-0.0063736755
24	0xbb4da869	-0.0031380898
25	0xbbc34f38	-0.0059603713
26	0x3c218b25	0.009859835
27	0xbb39ab06	-0.0028330698
28	0xbcea3eab	-0.028594336
29	0xbcb551f9	-0.022133814
30	0xbc010b4b	-0.007876228
31	0xbbb80c7b	-0.005616722
32	0x3b2e91ae	0.0026637125
33	0x3c9bc69b	0.0190156
34	0xb9e0f399	-0.00042906104
35	0xbb95eb47	-0.0045751664
36	0x3c82e60e	0.01597884
37	0xba3628a3	-0.00069488044
38	0x3b55e691	0.003263865
39	0xbb72208d	-0.0036945671
40	0x3c3dd2a8	0.011585869
41	0x3cc103e9	0.023561435
42	0x3c8bb0cc	0.017052077
43	0xb9e7f688	-0.00044243434
44	0x3cf89135	0.030342678
45	0x3cdaf386	0.02672745
46	0xbbcf9b0c	-0.0063356217
47	0xb93528c8	-0.00017276697
48	0xba6d74d0	-0.0009058239
49	0xbca22f26	-0.019797873
50	0x3cc37393	0.023858821
51	0xbc0f2b26	-0.008738315
52	0x3d0750b6	0.033035956
53	0x3cc61f9f	0.024185
54	0xba41d995	-0.0007394788
55	0xbb8f1a81	-0.004367173
56	0xba174e78	-0.00057718856
57	0xbcb9eb25	-0.022695133
58	0xbd040b3a	-0.03223727
59	0xbb7c0ef4	-0.0038461061
60	0xbb6e1b84	-0.0036332319
61	0x3ca35e13	0.019942319
62	0xbcf6c5e8	-0.030123666
63	0xbb6091fc	-0.00342667
64	0xb9ab1c98	-0.00032636966
65	0xba3e33cd	-0.0007255644
66	0xbadd5fa3	-0.0016889464
67	0xb9a85b13	-0.00032111313
68	0xbb5a0b03	-0.0033270724
69	0x3cb72fcd	0.02236166
70	0xbc6cb47f	-0.0144473305
71	0xbca7959f	-0.020457087
72	0xbcc30652	-0.023806725
73	0xb9875982	-0.00025815895
74	0x3af4a244	0.0018664082
75	0x3be67e3a	0.0070340903
76	0x3cf4129c	0.02979403
77	0x3cad724a	0.021172661
78	0x3cc24b8c	0.023717664
79	0x3a8a495d	0.0010550428
80	0xbc0aab6b	-0.008463721
81	0x3c728443	0.014802041
82	0xbabf7847	-0.0014607989
83	0x3d251732	0.040305324
84	0x3d226ee6	0.039656542
85	0x3c52154f	0.012822463
86	0xb8a60d0b	-7.917926e-05
87	0x3d0b4936	0.034005366
88	0xbc364f4b	-0.011127303
89	0xbc90dd20	-0.017683566
90	0xbcf274cd	-0.02959671
91	0x3a178cce	0.00057811744
92	0x3ce8eab8	0.028432235
93	0x3a5aa44c	0.0008340522
94	0xbbc7d107	-0.006097916
95	0xbbe670b4	-0.007032478
96	0xbc44b89e	-0.012006907
97	0xbce36c1e	-0.027761515
98	0x3b45e231	0.0030194635
99	0x38813cc5	6.1625185e-05
100	0x3a591cb4	0.000828217
101	0xbc575958	-0.01314386
102	0x3ceda779	0.029010521
103	0x3d09ca7b	0.033640366
104	0xbba86a24	-0.005139606
105	0x3c33d4aa	0.010975996
106	0x3ce6e11f	0.028183518
107	0xbcd7dc4c	-0.026350163
108	0xba13958c	-0.0005629889
109	0xb908d041	-0.00013047551
110	0x3c9a5147	0.018837584
111	0xba1c4112	-0.0005960624
112	0x3b0607fe	0.002045154
113	0x3c2fff29	0.010741987
114	0xbb1aea48	-0.0023638178
115	0x3c6eee3c	0.014583167
116	0xbc383ce5	-0.011244987
117	0xbae00fc3	-0.0017094541
118	0x3b008d11	0.0019615332
119	0x3cfcc915	0.030857602
120	0xbbb112de	-0.0054038605
121	0x3c0b9e43	0.008521619
122	0xb9fe5671	-0.0004851106
123	0x389f1330	7.585285e-05
124	0xbcb5f519	-0.022211598
125	0x3cba2f58	0.022727653
126	0xbc2dc9b9	-0.010607176
127	0x3a08c51d	0.00052173604
128	0xba5d0fc2	-0.0008432829
129	0x3ba23ec1	0.0049513285
130	0xbae4450e	-0.00174156
131	0xbca58fda	-0.020210195
132	0x3bb4da08	0.0055191554
133	0xbb8b9905	-0.0042601847
134	0xbcbd1fad	-0.023086393
135	0x3b854c09	0.004067902
136	0x3cc06ffe	0.023490902
137	0x3927f9ec	0.00016019464
138	0x3d02bd17	0.03191861
139	0x3d1529e9	0.03641692
140	0xba3d10a5	-0.0007212258
141	0xbc8a7a51	-0.016904028
142	0x3c0998c4	0.008398239
143	0x3bdaaaf4	0.006673211
144	0xbc22a469	-0.009926894
145	0x3922881a	0.00015500226
146	0xbc1b538c	-0.009480368
147	0x3b27d006	0.002560617
148	0xbba867e3	-0.0051393374
149	0xbcd96929	-0.026539402
150	0xb9a84b7f	-0.00032099706
151	0xbc3466cd	-0.011010838
152	0xbc018545	-0.007905309
153	0xbbc64628	-0.0060508437
154	0xbb004702	-0.0019573574
155	0xbbbfd273	-0.005853945
156	0x3a0109d4	0.0004922424
157	0xbb6f6642	-0.0036529456
158	0xb9b4c81e	-0.00034481374
159	0xb89ceceb	-7.482789e-05
160	0x3c2547cb	0.010087918
161	0xbac46d20	-0.0014986135
162	0xbb3b4006	-0.0028572096
163	0x3cc527ec	0.024066888
164	0xbb650026	-0.0034942715
165	0x3b5cc6ef	0.003368791
166	0xba26c2d1	-0.00063614274
167	0x3cd6360e	0.026148822
168	0xbcc1d2c6	-0.023660075
169	0xba835f11	-0.0010022839
170	0xbca85558	-0.020548508
171	0x3c621e6f	0.013801201
172	0xb88c2c7f	-6.684008e-05
173	0x3d4af372	0.049548574
174	0x3c8e52c0	0.017373443
175	0x3b91988a	0.004443233
176	0xbd268c64	-0.04066123
177	0xbcaf5c71	-0.021406384
178	0xbc24c714	-0.01005723
179	0xbb134482	-0.0022471254
180	0xbaf74356	-0.0018864672
181	0x3d136e95	0.03599413
182	0x3c23555a	0.00996908
183	0x3a23c340	0.0006247051
184	0xbb8da6d7	-0.0043228674
185	0xb97105fe	-0.00022985783
186	0xbcf08e46	-0.029364716
187	0x3a4d35c0	0.0007828139
188	0x3bee29e4	0.0072681773
189	0xbcca67b7	-0.024707658
190	0xbcc65de2	-0.024214689
191	0x3c06a97f	0.008219122
192	0x3b8fd887	0.0043898257
193	0xb8f0dbce	-0.000114850336
194	0x3c3a7b8a	0.011381993
195	0x39c3d7d0	0.0003735409
196	0x3a1a35f2	0.0005882672
197	0xbcdafaf0	-0.026730984
198	0x379c32cc	1.8620303e-05
199	0x3c46780b	0.012113581
200	0xbca51ae3	-0.020154422
201	0xb939ccca	-0.00017719265
202	0xb9a5ad06	-0.00031600165
203	0xbbe86511	-0.007092126
204	0xbd09c9aa	-0.033639587
205	0xbb0864d2	-0.0020812047
206	0xbaabf884	-0.0013120328
207	0xbbae4004	-0.00531769
208	0xbba62626	-0.0050704656
209	0x3c266efc	0.010158297
210	0x3d0cef29	0.03440777
211	0x3d1be4fd	0.038060177
212	0x3883a394	6.2770356e-05
213	0x3ca09074	0.01960013
214	0x3d262ae6	0.040568255
215	0x3c79e76e	0.015252931
216	0xbafaac9b	-0.0019124927
217	0x3d3e439d	0.0464512
218	0xbd0399bd	-0.032129038
219	0xbd324ca7	-0.043530133
220	0xbc050361	-0.008118481
221	0xb9c13f38	-0.0003685893
222	0x3bf251dc	0.0073950123
223	0xbb3dcf5a	-0.0028962702
224	0x3b4017ed	0.0029311136
225	0xbc182390	-0.0092858225
226	0xbc1091fe	-0.00882387
227	0x3cf51db6	0.029921394
228	0x3cfd37cf	0.0309104
229	0x3d2c9e27	0.042143013
230	0x3b1a0911	0.002350394
231	0xbba28d6c	-0.0049607065
232	0xbc80a094	-0.01570157
233	0xbb354eee	-0.0027665454
234	0xbafc2d81	-0.0019239635
235	0xbbd0b021	-0.0063686525
236	0xbcae94e0	-0.021311224
237	0xbc68a1f0	-0.014198765
238	0xb7f11028	-2.8736962e-05
239	0xba10cc12	-0.0005523573
240	0x3b7a6213	0.003820543
241	0xbb16212f	-0.0022907963
242	0x3cc15a8a	0.023602743
243	0x3cb57455	0.022150198
244	0x3beb9c74	0.0071902815
245	0xbd081221	-0.033220414
246	0xbaafb3c1	-0.0013405011
247	0xbd0b6c0d	-0.034038592
248	0xbb342a5e	-0.0027491073
249	0x3ab780a0	0.0014000125
250	0xbaaa1536	-0.0012976292
251	0x3d0212cb	0.031756204
252	0x3d1f1655	0.038839657
253	0x3d38995a	0.045068122
254	0xbbbf3e0e	-0.005836255
255	0xbbab3ade	-0.0052255234
