models/new/#CONV=2_#POOL=1_Hidden=128_PoolR=0.6_RANDS=777.pth (torch, 238270 bytes, 11 tensors)

convpool_layers.0.conv.weight f4 [1, 128]
-0.011773646 0.18659078 0.20948538 -0.098118946 0.11069803 0.20218636 0.095053464 -0.12802935
-0.14063863 -0.13959366 -0.117742494 -0.1507434 0.21053009 0.013352251 -0.033313744 0.0012278527
-0.03460775 0.03393387 0.13191631 -0.12988633 -0.07273445 -0.033615656 0.1710495 0.07298562
-0.072994046 -0.09922501 0.012786729 -0.14835463 0.20397487 0.0003781918 0.18306924 -0.09725528
-0.14874145 -0.157215 -0.047477473 -0.04533982 -0.1350767 0.22855163 -0.15304916 -0.04334011
0.1627037 -0.16616534 -0.15413015 0.061940417 0.18871728 -0.028996333 0.15358004 -0.068969935
0.034862887 -0.07254979 -0.15715925 0.0013143036 -0.05981975 -0.006971614 -0.13701564 0.18270363
0.05882507 0.14036897 0.06089561 -0.092283525 -0.02946251 -0.04014212 0.14831918 -0.04764965
-0.01422215 -0.008168102 0.08289077 -0.05356609 -0.12923414 0.068974994 -0.12315901 0.015574357
0.08302797 0.12180275 -0.07698309 -0.11409871 0.10203124 0.13622417 0.23459476 0.16812478
-0.097677074 0.009948613 0.099153824 -0.102755316 -0.057678204 -0.043475494 -0.02189335 -0.1558485
0.031158717 0.06806975 0.07332962 0.1294238 -0.11126796 0.22903733 -0.025469942 -0.026506083
-0.114079975 0.08368464 -0.01845907 0.0049780826 0.18203305 0.0007119531 0.20941012 0.1574917
-0.10727185 -0.11259107 -0.13028702 -0.01888188 0.08272737 -0.071635395 0.06817473 -0.0012049895
0.03368582 -0.03440273 -0.015714979 0.22960119 -0.016861381 -0.11659734 0.20328605 0.2213982
-0.16738155 -0.08976439 0.15090473 0.12267232 -0.040723898 -0.08491312 -0.15808757 0.24510998
00000000: 40e6 40bc a711 3f3e 5683 563e 96f2 c8bd
00000010: a6b5 e23d f109 4f3e 64ab c23d 201a 03be
00000020: 9303 10be a4f1 0ebe fa22 f1bd 7a5c 1abe
00000030: 3395 573e 66c3 5a3c fe73 08bd e6ef a03a
00000040: dbc0 0dbd 3efe 0a3d 1215 073e ec00 05be
00000050: cdf5 94bd 92b0 09bd 9a27 2f3e 7c79 953d
00000060: e77d 95bd 7b36 cbbd 6e7f 513c 47ea 17be
00000070: cade 503e 0b48 c639 8176 3b3e c72d c7bd
00000080: ae4f 18be f8fc 20be bd77 42bd 3fb6 39bd
00000090: 8c51 0abe 7009 6a3e ebb8 1cbe 6685 31bd
000000a0: cc9b 263e 3f27 2abe 4bd4 1dbe 3cb5 7d3d
000000b0: 1a3f 413e b889 edbc 1644 1d3e 1c40 8dbd
000000c0: 63cc 0e3d fc94 94bd 5bee 20be b644 ac3a
000000d0: 8e05 75bd 2372 e4bb d44d 0cbe a916 3b3e
000000e0: 8ef2 703d e2bc 0f3e ad6d 793d 25ff bcbd
000000f0: 5d5b f1bc 106c 24bd fce0 173e 482c 43bd
00000100: 0504 69bc 81d3 05bc a3c2 a93d 1e68 5bbd
00000110: f455 04be c342 8d3d cb3a fcbd 962b 7f3c
00000120: 910a aa3d b873 f93d 4fa9 9dbd 96ac e9bd
00000130: c1f5 d03d 597e 0b3e 9c39 703e e728 2c3e
00000140: eb0a c8bd 82ff 223c 2911 cb3d 6171 d2bd
00000150: fb3f 6cbd 5c13 32bd af59 b3bc c096 1fbe
00000160: 9140 ff3c 2768 8b3d d72d 963d ac87 043e
00000170: 75e0 e3bd c388 6a3e 57a6 d0bc 4923 d9bc
00000180: c3a2 e9bd da62 ab3d 7a37 97bc 2f1f a33b
00000190: df66 3a3e 5da2 3a3a 9b6f 563e 8145 213e
000001a0: 58b1 dbbd 2696 e6bd f669 05be 2cae 9abc
000001b0: f86c a93d 94b5 92bd 319f 8b3d bdf0 9dba
000001c0: 24fa 093d e1e9 0cbd b3bc 80bc 931c 6b3e
000001d0: e120 8abc 96ca eebd 382a 503e 36b6 623e
000001e0: 1266 2bbe 64d6 b7bd c586 1a3e a03b fb3d
000001f0: 1ace 26bd eee6 adbd b5e1 21be 1cfe 7a3e

convpool_layers.0.conv.bias f4 [128]
0.0029897064 -0.0076454296 0.016220978 -0.0071291234 -0.0011897818 0.03058149 0.0017631474 -0.0057554836
0.0042753266 -0.011007712 0.011770971 0.011631845 0.01986858 -0.008824627 0.006809198 -0.018780116
0.007210143 -0.05016365 -0.022382764 0.0050237197 0.006015201 0.006954834 0.01655286 0.014611809
0.0033457852 0.005820215 -0.022198075 -0.0069298814 -0.007623806 -0.0033163852 0.037945412 0.0007611975
0.009060277 -0.0061781127 0.0054417136 0.006833991 0.005050619 -0.0031312336 0.010220669 -0.0021620851
0.024109045 0.01976721 0.014183682 -0.011433979 0.010227585 0.00940215 -0.00825962 0.0004021036
-0.0027086267 0.008246845 0.009411948 0.00045437628 -0.010115063 0.010220237 0.008981799 -0.010222889
0.017046314 0.0017612956 0.0041899127 0.018620918 0.0102893235 -0.0076502115 -0.012767158 0.0016798759
-0.006238798 0.00016029195 -0.0019581022 0.011461257 0.019935086 0.00024735043 -0.003326741 -0.04623539
-0.008122436 -0.0092751235 0.0034965822 -0.002899907 -0.0046741148 -0.018971967 0.017796123 0.0048876093
0.0052297167 -0.028349202 -0.027038839 -0.0018662465 -0.01533829 0.0061744065 0.0009933056 0.01546043
-0.009727497 0.00022976045 -0.0056111403 0.0012596234 0.005480432 0.04821787 0.018864676 0.0056615556
0.0028640877 0.0005448306 -0.008729687 -0.015458923 0.039263655 -0.005539987 0.0056007965 0.04754342
0.017459357 0.02147572 -0.015286329 -0.0008028313 -0.009996598 0.0097999135 0.000968717 -0.008253131
-0.00070095266 0.004649879 0.008049094 0.030055296 0.0068873134 0.009121425 0.014388035 0.008485153
0.007212952 -0.010611043 0.006707163 -0.0007717546 -0.012006596 0.0049507064 -0.0055780397 0.0253265
00000000: f3ee 433b 8386 fabb dbe1 843c 6c9b e9bb
00000010: 74f2 9bba 0886 fa3c 6919 e73a 7f98 bcbb
00000020: 0a18 8c3b b159 34bc 08db 403c 7e93 3e3c
00000030: 6fc3 a23c 2b95 10bc b11f df3b c2d8 99bc
00000040: 1043 ec3b 6678 4dbd 0f5c b7bc 049e a43b
00000050: 2a1b c53b 60e5 e33b dd99 873c 5e66 6f3c
00000060: f644 5b3b 81b7 be3b bdd8 b5bc 0f14 e3bb
00000070: 1fd1 f9bb b657 59bb a66c 1b3d 198b 473a
00000080: 8e71 143c c471 cabb 6750 b23b acef df3b
00000090: aa7f a53b 6235 4dbb 9874 273c c5b1 0dbb
000000a0: 5580 c53c d8ee a13c ad62 683c 9555 3bbc
000000b0: 9a91 273c 7a0b 1a3c 5b53 07bc 6ed1 d239
000000c0: 3783 31bb c61d 073c 9234 1a3c 5a39 ee39
000000d0: a6b9 25bc c872 273c 6528 133c e77d 27bc
000000e0: b6a4 8b3c 46db e63a 894b 893b e58a 983c
000000f0: 8d94 283c a0ae fabb 582d 51bc 482f dc3a
00000100: d56e ccbb 0b14 2839 8153 00bb ffc7 3b3c
00000110: e84e a33c d0ae 8139 7405 5abb 5261 3dbd
00000120: f713 05bc b0f6 17bc ea26 653b 5e0c 3ebb
00000130: 5129 99bb 196b 9bbc 2dc9 913c 3d28 a03b
00000140: 0b5e ab3b 963c e8bc 8e80 ddbc d79c f4ba
00000150: 734d 7bbc ad52 ca3b ce31 823a be4d 7d3c
00000160: 1460 1fbc daeb 7039 a8dd b7bb f319 a53a
00000170: 3295 b33b 1a80 453d 188a 9a3c 9284 b93b
00000180: 6bb3 3b3b f6d2 0e3a f606 0fbc 6c47 7dbc
00000190: edd2 203d c788 b5bb e386 b73b e4bc 423d
000001a0: ed06 8f3c d9ed af3c 8373 7abc 1975 52ba
000001b0: c5c8 23bc d18f 203c 7ff1 7d3a 2438 07bc
000001c0: 23c0 37ba 035e 983b 59e0 033c 8636 f63c
000001d0: f9ae e13b 0872 153c cbbb 6b3c 5005 0b3c
000001e0: a05a ec3b f1d9 2dbc c3c7 db3b 934f 4aba
000001f0: 50b7 44bc 8939 a23b fdc7 b6bb 8579 cf3c

convpool_layers.0.pool.att f4 [1, 256]
-0.014715788 0.027539203 0.10369572 -0.028089596 0.028486958 -0.104615524 0.11289128 0.018915713
-0.045047335 -0.025673857 0.02682015 -0.11775574 -0.09453903 -0.08164358 -0.009355417 0.010287737
-0.011295198 0.03096403 0.20363218 0.011586011 -0.0020256832 -0.010553721 0.025460972 0.082273856
-0.037374724 -0.008514613 0.004064026 -0.013632523 -0.03233942 -6.585872e-05 -0.012204167 -0.024182307
-0.05223682 -0.016579939 -0.01507448 -0.0120507935 -0.013835645 0.059924744 0.015561619 -0.012374359
-0.08356427 -0.03003295 -0.013237435 0.061228704 -0.0694465 -0.009110462 0.061870836 -0.027795458
0.011820843 -0.0131809255 -0.029047616 -4.2285465e-06 0.070619054 -0.0043493425 0.024480302 -0.027611943
-0.018808598 -0.034093864 0.010118979 -0.0061869873 -0.008976555 -0.012421356 0.007184629 -0.0054882634
-0.0072474354 -0.0045632017 -0.12239371 -0.0064606178 -0.047123164 0.019191591 0.07501461 -0.028229693
0.05840467 -0.14771655 -0.014126706 -0.026231997 -0.05245513 -0.00948865 0.1416479 0.0076239957
-0.11069172 -0.011954262 0.05485033 -0.07742696 -0.02783548 -0.02309185 -0.008130283 0.0069554416
-0.04617533 0.023942549 -0.14591332 0.09953577 0.025631351 0.04311009 -0.007855366 -0.010019133
-0.0077396175 -0.07330452 -0.0085539445 0.0041584065 0.046450607 0.00017274411 -0.04010733 -0.051587682
-0.015758874 -0.01670054 0.028548056 -0.007915948 0.07489974 -0.007882008 -0.041852444 -0.0041811666
-0.016449364 -0.00752766 -0.00755717 -0.06905516 -0.007450566 -0.021456314 0.025301095 -0.0023056376
-0.07709501 -0.04508546 -0.13818757 -0.06531819 -0.013475503 -0.03161715 -0.052311927 -0.039060015
-0.0010403465 -0.087346 0.05343153 -0.023202714 -0.0034097452 -0.0030294193 0.009186555 0.025753409
-0.0032861445 -0.0032606027 -0.0115876915 -0.0029800246 0.04369983 0.006013414 3.7313588e-05 -0.005777021
3.884747e-05 0.007647185 -0.013177426 -0.0025614216 -0.0002594451 -1.8373074e-05 0.022322927 -0.025027664
0.00026400236 -0.0018813676 -0.04767988 -0.023007115 -0.035049085 -3.0288961e-06 0.0064954073 -0.0008637062
-0.0031539097 0.0045361216 -0.00012426327 9.2460934e-05 3.0823547e-05 0.008145931 -0.0038399785 -0.006165899
0.08614137 -0.008472543 -0.015317368 0.05317741 0.008849849 -1.6019128e-05 0.014225425 -0.018339297
-0.011954092 -0.0015255295 -0.0033443612 -4.9157232e-05 -9.38048e-05 1.0702299e-06 -0.0030802912 0.009776614
0.07380364 0.014905075 -0.007103896 -0.001270888 0.00025761503 3.6862795e-05 0.037547622 -0.0026736963
0.009468239 -1.9510326e-05 0.014519888 -0.00016036387 -0.0023949333 0.010215041 -0.003763404 -0.018659765
0.0139617 0.035198558 -0.0019612573 -0.0018201541 -0.0034744518 0.08375092 0.0070299106 0.008244987
-0.0016599516 0.005016519 0.011337574 -0.0017998595 -0.00025350557 3.540218e-05 1.2725847e-05 -0.0037955856
0.0082219215 0.06038355 0.0074281595 -0.019742442 0.00016836221 0.010868543 -2.0226567e-05 8.226711e-06
-0.0025560686 0.010482904 -2.3424327e-06 0.0020520284 -0.008633451 1.904962e-06 -0.02485913 0.009227528
0.0022342545 0.0013988091 -0.0024305973 2.4265642e-05 0.028992081 -0.0007612543 0.010078376 0.004527574
0.008697171 2.55462e-05 -0.0011556 0.025841046 0.012354827 -0.002174504 -0.11190298 0.12602429
-0.0047702696 -0.017554954 0.017197613 0.042483598 -2.1274314e-05 0.015935356 -0.0031535898 -0.08700235
00000000: 7d1a 71bc e599 e13c 6c5e d43d 271c e6bc
00000010: 7b5d e93c aa40 d6bd 8b33 e73d 20f5 9a3c
00000020: 8e83 38bd fb51 d2bc eeb5 db3c ec29 f1bd
00000030: ae9d c1bd c034 a7bd 7747 19bc e58d 283c
00000040: 7f0f 39bc 47a8 fd3c f484 503e 41d3 3d3c
00000050: 53c1 04bb 84e9 2cbc 8793 d03c 327f a83d
00000060: 3d16 19bd e080 0bbc 852b 853b f25a 5fbc
00000070: 5776 04bd a21d 8ab8 fdf3 47bc f919 c6bc
00000080: 47f6 55bd a7d2 87bc f4fa 76bc b170 45bc
00000090: e7ae 62bc a673 753d 29f6 7e3c d3bd 4abc
000000a0: be23 abbd a907 f6bc d4e1 58bc f3ca 7a3d
000000b0: f739 8ebd 0c44 15bc 466c 7d3d 4db3 e3bc
000000c0: 36ac 413c cff4 57bc 44f5 edbc f0e2 8db6
000000d0: b9a0 903d ee84 8ebb ea8a c83c 7132 e2bc
000000e0: 7d14 9abc 02a6 0bbd 13ca 253c 36bc cabb
000000f0: 6712 13bc f182 4bbc 096d eb3b e4d6 b3bb
00000100: e57b edbb e986 95bb 8ea9 fabd 97b3 d3bb
00000110: 3804 41bd af37 9d3c 43a1 993d f541 e7bc
00000120: bc39 6f3d 0243 17be b373 67bc 7ce4 d6bc
00000130: 31db 56bd 4876 1bbc 260c 113e b6d2 f93b
00000140: 57b2 e2bd cfdb 43bc bdaa 603d 0792 9ebd
00000150: 3c07 e4bc 1f2b bdbc e134 05bc 79ea e33b
00000160: 5822 3dbd 2a23 c43c 4d6a 15be 69d9 cb3d
00000170: d7f8 d13c 3594 303d cbb3 00bc 4a27 24bc
00000180: 9e9c fdbb ae20 96bd d825 0cbc 3e43 883b
00000190: fe42 3e3d a522 3539 9547 24bd 9b4d 53bd
000001a0: c118 81bc 92cf 88bc 9ddd e93c e4b1 01bc
000001b0: 0965 993d 8a23 01bc 786d 2bbd 2b02 89bb
000001c0: d1c0 86bc 97aa f6bb 23a2 f7bb cb6c 8dbd
000001d0: e123 f4bb 27c5 afbc 3e44 cf3c 2e1a 17bb
000001e0: fde3 9dbd 88ab 38bd 0b81 0dbe 8bc5 85bd
000001f0: 5bc8 5cbc fc80 01bd 0845 56bd 65fd 1fbd
00000200: 3c5c 88ba 76e2 b2bd 05db 5a3d 9e13 bebc
00000210: 0876 5fbb 3989 46bb 3483 163c d0f8 d23c
00000220: 5b5c 57bb d6af 55bb 4dda 3dbc 844c 43bb
00000230: 98fe 323d 2c0c c53b 2981 1c38 2a4d bdbb
00000240: 27f0 2238 3d95 fa3b 21e6 57bc 86dd 27bb
00000250: 2206 88b9 e01f 9ab7 92de b63c d106 cdbc
00000260: cc69 8a39 3998 f6ba fa4b 43bd 6b79 bcbc
00000270: a18f 0fbd 0a44 4bb6 6dd7 d43b 586a 62ba
00000280: d3b1 4ebb bfa3 943b ab4c 02b9 96e7 c138
00000290: 8848 0138 8376 053c 26a8 7bbb 4f0b cabb
000002a0: e36a b03d 6cd0 0abc b3f5 7abc 8ed0 593d
000002b0: f5fe 103c d160 86b7 c211 693c 4b3c 96bc
000002c0: 19db 43bc 47f4 c7ba 122d 5bbb 2d2e 4eb8
000002d0: 12b9 c4b8 d2a4 8f35 b6de 49bb 172e 203c
000002e0: 5d26 973d 6a34 743c ccc7 e8bb ed93 a6ba
000002f0: 8110 8739 209d 1a38 89cb 193d 2e39 2fbb
00000300: ac20 1b3c 1baa a3b7 d3e4 6d3c 5927 28b9
00000310: 50f4 1cbb fd5c 273c 71a3 76bb 5ddc 98bc
00000320: 9dbf 643c 5d2c 103d 7088 00bb 3d92 eeba
00000330: a1b3 63bb 9a85 ab3d 2a5b e63b fb15 073c
00000340: bc92 d9ba 9d61 a43b 3bc1 393c 43e9 ebba
00000350: f1e8 84b9 cd7c 1438 1981 5537 5cbf 78bb
00000360: 3db5 063c be54 773d eb67 f33b e7ba a1bc
00000370: 638a 3039 f911 323c 39ac a9b7 7405 0a37
00000380: b783 27bb 7cc0 2b3c b032 1db6 537b 063b
00000390: 5173 0dbc ffad ff35 60a5 cbbc 0f2f 173c
000003a0: 926c 123b 3f58 b73a a84a 1fbb 128e cb37
000003b0: cd80 ed3c e98e 47ba c61f 253c 0b5c 943b
000003c0: 947e 0e3c 0c4c d637 8077 97ba 9ab0 d33c
000003d0: e66b 4a3c 2082 0ebb 642d e5bd 830c 013e
000003e0: ec4f 9cbb 68cf 8fbc 02e2 8c3c 4803 2e3d
000003f0: 3e76 b2b7 dd8a 823c 75ac 4ebb 4a2e b2bd

convpool_layers.1.conv.weight f4 [128, 128]
-0.00039528986 7.4078125e-05 7.0247784e-06 0.0011821451 -0.00013430235 8.432166e-05 6.1861734e-05 0.00014342493
0.0011560455 0.00021208932 0.00021728071 0.00017828641 0.0003550504 -1.7540462e-05 0.00036490968 0.005205589
0.00024665386 0.017059656 -0.0076063545 0.00030730493 -0.00871432 -0.00041697524 5.652102e-05 -0.0016675749
0.011216863 0.00978999 0.00024306195 -0.0059545324 8.802435e-06 1.1341593e-06 -0.012037975 0.00042847625
4.9539987e-05 0.00028551026 0.00017663417 0.00048048084 0.0002571557 -0.0050128717 0.00037465888 -1.4513796e-06
-0.0010822963 0.00034888447 0.0006436428 6.0503185e-06 0.00710322 0.0007349945 7.39158e-06 -0.0013314708
0.00022288912 1.6982703e-07 -0.011937238 -7.866637e-07 0.0002942799 -2.2602739e-05 1.5182179e-05 0.00013691446
4.4529742e-07 -0.009972684 0.00010226459 8.095343e-08 0.00019916504 0.0047242735 2.6418397e-06 0.0021747123
-2.795029e-05 -0.0037812956 -7.685696e-06 -0.004830118 -0.012959591 -3.0729498e-06 8.062313e-05 -0.006008016
-0.001100692 1.6792354e-05 0.00466848 -0.009268687 -6.518265e-06 6.5761815e-05 7.685385e-05 1.030525e-08
-0.0043814783 -0.00011970794 -9.349386e-07 9.0240246e-05 -0.0041835154 0.0001464724 0.0031809714 0.0015478781
-1.0137142e-06 0.0048172413 0.00035215146 0.00020299174 -1.5637179e-06 -1.50434635e-05 0.00013373567 0.00034420256
-0.00021903419 6.1715604e-05 0.0032238022 -8.324237e-07 0.013655157 0.000105010506 7.420586e-05 -0.000378213
0.00019813549 0.0021920244 -0.00032783908 0.00022017116 -0.0075446297 0.0049529886 -0.0091815535 2.8320562e-07
-0.011647364 0.0050250394 -0.002742626 -3.4176503e-07 0.00017913322 -0.0036598376 -0.001280418 -0.00042967
0.0005390646 -0.0004910945 8.672872e-06 0.0027371214 0.014819377 0.00013446489 -0.008856098 -8.238985e-07
0.109873325 -0.091474846 -0.00055280625 0.00017870677 -0.059364468 -0.0015640565 -0.071992844 0.048843645
0.037843 -0.07697072 -0.0022489806 -0.07396964 -0.01107478 1.0750629e-05 -0.0046482543 -0.06298272
0.047252376 -3.9812694e-06 -0.003602433 0.14154254 -0.045963105 -0.015471123 0.090143725 0.013422979
-9.3128365e-06 0.0048384094 0.11437568 -0.06576387 -0.04476127 -3.06928e-06 0.0096291 -0.058910064
-0.028873602 0.013793733 0.0006868977 0.022693042 0.0018845523 0.0057554124 0.1380576 -0.01705547
-9.3199495e-05 0.0024404295 -0.0057041375 7.3486497e-09 1.9274298e-06 0.04769882 -0.03356416 0.07215054
0.095679544 -0.014034757 -0.034615677 -0.0063884 0.08169058 -0.00023859547 0.009696145 0.026990218
0.011770601 -0.008477513 0.084599115 -1.7559731e-08 -0.03676817 -0.029043058 -7.303352e-07 4.0919753e-05
4.035744e-07 -0.001136499 -8.660993e-08 -0.014985263 -0.013788379 -1.1558051e-06 -0.032632187 -0.0049728327
1.7204385e-07 -7.2469743e-07 -0.014796182 -0.005196865 -0.005164309 -0.043117583 -0.06222647 -0.015633576
-0.0064001083 -0.035309568 0.0045921053 0.039473653 -1.1147288e-06 -0.011159234 0.045220908 0.064151086
0.12079148 0.06649303 0.15006825 0.0009448849 3.1116283e-06 -0.00445502 -0.043590095 -0.089393474
-0.046970855 -0.062391773 -0.0060409163 -8.6961805e-08 -0.006854291 -2.093872e-05 -0.086388454 -0.115846775
0.16431797 0.009897696 3.5599726e-06 -3.592229e-07 -2.904978e-06 -0.0028863866 0.0011204433 -0.016323272
1.1483922e-05 -2.2489112e-07 -0.014268954 -0.05817515 0.046734367 -0.0018804974 0.004289949 0.066381305
0.098190375 0.063003525 -4.3165933e-06 0.10484346 -0.052550502 -0.0976125 0.07469024 -4.0654954e-06
00000000: e83e cfb9 645a 9b38 63b6 eb36 35f2 9a3a
00000010: 83d3 0cb9 d9d5 b038 c4bb 8138 5664 1639
00000020: 7386 973a 4b64 5e39 d9d5 6339 65f2 3a39
00000030: 0f26 ba39 db23 93b7 5951 bf39 a593 aa3b
00000040: 5251 8139 b1c0 8b3c ba3e f9bb c51d a139
00000050: 82c6 0ebc 789d dab9 fc10 6d38 8792 daba
00000060: efc6 373c 3266 203c 72de 7e39 3d1e c3bb
00000070: 2cae 1337 6b39 9835 ed3a 45bc 1ca5 e039
00000080: 28c9 4f38 8ab0 9539 e036 3939 0ce9 fb39
00000090: dbd2 8639 0443 a4bb dd6d c439 06cd c2b5
000000a0: d6db 8dba 7bea b639 23ba 283a d703 cb36
000000b0: 21c2 e83b a5ac 403a 3005 f836 bf84 aeba
000000c0: 58b7 6939 b359 3634 6894 43bc 1e2b 53b5
000000d0: 9449 9a39 039b bdb7 f6b6 7e37 b290 0f39
000000e0: 3611 ef34 7864 23bc e276 d638 9ed8 ad33
000000f0: f5d6 5039 14ce 9a3b 764a 3136 9e85 0e3b
00000100: ca76 eab7 9dcf 77bb d0f1 00b7 f745 9ebb
00000110: 7754 54bc e038 4eb6 3714 a938 e4de c4bb
00000120: 1845 90ba 4edd 8c37 0cfa 983b b1db 17bc
00000130: 78b7 dab6 9be9 8938 992c a138 f80a 3132
00000140: 8192 8fbb b60b fbb8 7ef8 7ab5 5d3f bd38
00000150: df15 89bb 6396 1939 d877 503b 2ce2 ca3a
00000160: f40e 88b5 f3d9 9d3b f8a0 b839 2eda 5439
00000170: f0e0 d1b5 2f63 7cb7 653b 0c39 1676 b439
00000180: 8bac 65b9 506d 8138 6d46 533b b973 5fb5
00000190: e1b9 5f3c 1639 dc38 f89e 9b38 e44a c6b9
000001a0: 97c2 4f39 11a8 0f3b d1e1 abb9 bfdd 6639
000001b0: f138 f7bb ae4c a23b 3a6e 16bc 7c0b 9834
000001c0: 96d4 3ebc 16a9 a43b a1bd 33bb d47b b7b4
000001d0: b5d5 3b39 e3d9 6fbb b3d3 a7ba 5545 e1b9
000001e0: 0350 0d3a cbbc 00ba b481 1137 4761 333b
000001f0: f9cc 723c 25ff 0c39 2b19 11bc e029 5db5
00000200: 4405 e13d 2a57 bbbd 33ea 10ba 3c63 3b39
00000210: 2828 73bd 0701 cdba fc70 93bd 4610 483d
00000220: 4301 1b3d d3a2 9dbd a263 13bb 657d 97bd
00000230: fe72 35bc 9a5d 3437 6250 98bb 16fd 80bd
00000240: b58b 413d d896 85b6 cc16 6cbb 87f0 103e
00000250: cf43 3cbd 987a 7dbc 469d b83d 0eec 5b3c
00000260: 543e 1cb7 858b 9e3b cc3d ea3d 35af 86bd
00000270: 9857 37bd d4f9 4db6 5fc3 1d3c ae4b 71bd
00000280: 5588 ecbc 1cff 613c ed10 343a c2e6 b93c
00000290: 1503 f73a e697 bc3b f95e 0d3e eab7 8bbc
000002a0: 1974 c3b8 9def 1f3b c6e9 babb 687f fc31
000002b0: fe58 0136 d65f 433d 937a 09bd aac3 933d
000002c0: a3f3 c33d 0af2 65bc 2bc9 0dbd c955 d1bb
000002d0: 644d a73d 7c2f 7ab9 94dc 1e3c 971a dd3c
000002e0: 7bd9 403c 44e5 0abc 4d42 ad3d 42d6 96b2
000002f0: 389a 16bd b5eb edbc 410c 44b5 40a1 2b38
00000300: d8aa d834 94f6 94ba 50fe b9b3 c084 75bc
00000310: a7e8 61bc 2921 9bb5 54a9 05bd 25f3 a2bb
00000320: 0ebb 3834 d488 42b5 af6b 72bc 774a aabb
00000330: 5d39 a9bb 109c 30bd 2fe1 7ebd fc11 80bc
00000340: 00b8 d1bb c4a0 10bd 5f79 963b 20af 213d
00000350: ca9d 95b5 38d5 36bc 8f39 393d a561 833d
00000360: 8661 f73d 7f2d 883d 7eab 193e 27b2 773a
00000370: 5ed1 5036 6bfb 91bb 878b 32bd ed13 b7bd
00000380: 8364 40bd 848e 7fbd e1f2 c5bb c2bf bab3
00000390: f699 e0bb 8fa5 afb7 6eec b0bd 1341 edbd
000003a0: f842 283e f229 223c dde7 6e36 38db c0b4
000003b0: 24f3 42b6 8829 3dbb d7db 923a 62b8 85bc
000003c0: 12ab 4037 9a79 71b4 55c8 69bc 1149 6ebd
000003d0: 896c 3f3d 067b f6ba b392 8c3b ecf2 873d
000003e0: 0918 c93d fe07 813d 41d7 90b6 2bb8 d63d
000003f0: 323f 57bd 10e9 c7bd 32f7 983d 576a 88b6

convpool_layers.1.conv.bias f4 [128]
-0.015139608 -0.016025871 0.0 -0.0026054608 -0.017769072 -0.0024197386 -0.022737814 -0.0029336289
0.00045397773 -0.0043331734 -0.0024353897 -0.0037008203 -0.0043688877 1.221377e-06 0.006674214 -0.012589976
-0.0068685776 0.0 -0.047553852 -0.009383133 0.00012126613 -0.012023313 -0.0059289327 -0.0062075225
0.0 0.016439207 -0.017259622 -0.0045271674 -0.0047065727 -1.7820415e-06 -6.956731e-05 -0.01488252
0.004023419 -0.012921655 0.0042962236 -0.014018702 0.002332813 0.0 -0.0019486941 -0.008793602
-0.0107379025 -0.0062470534 0.008250807 0.00011361212 -0.013873113 -0.016168755 -0.009598774 -0.002402845
-0.008687431 0.0 0.004943967 0.0 -0.024251994 -0.0012223497 0.0 -0.023243247
0.0 -0.005420957 -0.01185081 0.0 -0.006654466 -0.011543387 0.0 -0.0013615958
-0.00019927695 -0.0025974207 0.0 -0.009682702 0.02296652 0.0 -0.0009206647 -0.0040231855
-0.003368563 0.0 -0.014368008 -0.0022501913 0.000115803545 -0.034943387 -0.007974243 0.0
-0.0012066194 0.013722703 0.0 -0.010101145 0.0 -0.009993641 -0.019166267 -0.009254234
-0.0023474048 -0.014937729 -0.0032983369 0.0 0.0 -0.0008400011 -0.0046944586 -0.012729564
4.996749e-05 -0.009368288 -0.036005855 0.0 -0.00064369163 0.0023543965 -0.003174427 0.026746789
-0.005712784 0.013460473 -0.0046650656 0.0 -0.0025886358 0.0074416017 -0.012991429 0.0
4.2669526e-05 0.0 0.0072486782 -0.028753195 -0.017640056 0.0 -0.0061405017 -0.01501206
-0.011781964 -0.010040955 -0.004920348 -0.009158857 -0.010681588 -0.016959984 -0.0073172585 -0.01034265
00000000: 1e0c 78bc b048 83bc 0000 0000 61c0 2abb
00000010: 7290 91bc 7a94 1ebb a744 babc 2042 40bb
00000020: dc03 ee39 4bfd 8dbb 0f9b 1fbb 7689 72bb
00000030: e328 8fbb 32ee a335 5db3 da3b 3046 4ebc
00000040: ce11 e1bb 0000 0000 d4c7 42bd b6bb 19bc
00000050: 4250 fe38 6efd 44bc 7e47 c2bb 7968 cbbb
00000060: 0000 0000 84ab 863c 0d64 8dbc a258 94bb
00000070: 9839 9abb 7b2e efb5 aae4 91b8 d0d5 73bc
00000080: e3d6 833b 59b5 53bc 56c7 8c3b b3ae 65bc
00000090: 1ce2 183b 0000 0000 536b ffba 0a13 10bc
000000a0: 07ee 2fbc 15b4 ccbb 652e 073c 0b43 ee38
000000b0: 0e4c 63bc 5674 84bc 2d44 1dbc 0d79 1dbb
000000c0: ba55 0ebc 0000 0000 0001 a23b 0000 0000
000000d0: 1eac c6bc 4037 a0ba 0000 0000 9f68 bebc
000000e0: 0000 0000 49a2 b1bb e629 42bc 0000 0000
000000f0: b50d dabb 7920 3dbc 0000 0000 9377 b2ba
00000100: 00f5 50b9 7d39 2abb 0000 0000 32a4 1ebc
00000110: 4924 bc3c 0000 0000 c358 71ba edd4 83bb
00000120: 1cc3 5cbb 0000 0000 cb67 6bbc f277 13bb
00000130: 8edb f238 cc20 0fbd 66a6 02bc 0000 0000
00000140: 6e27 9eba 30d5 603c 0000 0000 467f 25bc
00000150: 0000 0000 5ebc 23bc 9302 9dbc 129f 17bc
00000160: ebd6 19bb 60bd 74bc e928 58bb 0000 0000
00000170: 0000 0000 8533 5cba f9d3 99bb a98f 50bc
00000180: 2f94 5138 737d 19bc e07a 13bd 0000 0000
00000190: 6abd 28ba 384c 1a3b 0c0a 50bb 151c db3c
000001a0: 4e32 bbbb 5189 5c3c 68dd 98bb 0000 0000
000001b0: 1aa6 29bb aed8 f33b 01da 54bc 0000 0000
000001c0: 0ef8 3238 0000 0000 5286 ed3b d28b ebbc
000001d0: e181 90bc 0000 0000 4336 c9bb 25f5 75bc
000001e0: 2409 41bc d182 24bc df3a a1bb 080f 16bc
000001f0: d401 2fbc aaef 8abc 9dc5 efbb 3874 29bc

lin1.weight f4 [128, 256]
-0.0069850488 -0.0074628913 -0.051807195 -0.0059934026 -0.05608708 0.042924725 0.008971294 0.013556607
0.010957383 -0.014348815 -0.007055278 -0.007185343 -0.040751554 -0.012755829 -0.002732875 0.015861066
-0.0019365547 0.004524107 0.014640461 -0.017481687 0.034078985 0.030156884 0.035593178 -0.02777828
-0.0046157595 0.002875978 -0.047018144 0.014844255 -0.0014481725 -0.0003207495 -0.015827905 -0.07158613
-0.003137595 -0.060035303 -0.003282352 -0.06739767 -0.009422938 -0.001932868 0.008696083 -0.0017698393
-0.02453113 -0.031327024 -0.008531071 0.03301561 0.05056292 -0.01791033 -0.045083124 -0.04647301
-0.05087224 -0.0045267763 -0.011576333 0.00026956157 -0.06495895 -0.0010289444 -0.008560377 -0.056873996
0.012250892 -0.044255298 0.0238016 -0.005554762 -0.06033446 -0.051452715 -0.049853835 -0.0032231784
-0.0017743916 -0.0010304418 -0.0043099057 -0.03370929 -0.0018926588 0.033248845 -0.0061599077 -0.04691588
0.007938636 0.041413102 0.0044414382 -0.06288847 -0.017678477 0.014594395 0.04696614 -0.061785005
-0.0054774354 -0.031345285 -0.036402036 -0.0074476567 -0.004054434 0.002251068 -0.023033509 -0.0052057994
-0.0551798 0.016755836 -0.022390956 0.024665486 -0.0071092886 -0.026028525 0.0068973014 0.023645565
-0.00836933 0.011620791 0.0015696362 0.014602354 -0.0036581538 -8.79944e-05 0.042393662 0.05064018
-0.057358373 -0.006591673 -0.0074172365 -0.0019720024 -0.023140052 -0.004598949 -0.067500874 -0.008653955
-0.032772824 -0.0026130087 -0.0014252353 -0.0006645798 0.0012257026 -0.0073370547 -0.042232502 0.021067832
-0.0626136 -0.0050175097 -0.037655834 0.023889124 -0.02478811 -0.06136868 -0.025113877 0.0427332
0.0059191776 -0.0436688 0.025066791 0.023543254 0.05215929 0.041789234 0.062305927 -0.04068193
0.022148551 0.022241112 -0.034879293 0.035825115 0.0640674 -0.039070524 -0.016535874 -0.0048502344
0.011512852 0.026893122 -0.01661108 -0.04326636 -0.00092764624 0.028907677 0.05063478 0.034345582
-0.024622265 0.022282768 0.0644934 0.056887463 -0.0070601576 -0.0008500175 0.00082311616 0.025918534
-0.020445343 0.038511466 -0.0011959564 0.04313669 -0.042873453 -0.051137667 -0.014877181 -0.0066535813
-0.015926024 0.059170622 -0.033775378 -0.04276679 0.053651832 -0.038451497 -0.039466824 0.062260672
0.0628357 0.012780567 0.042917952 0.00015054943 -0.009811054 -0.00040897966 -0.0025174879 0.051192284
0.062576726 0.06648879 0.030097371 0.012955769 -0.012351105 0.028962016 -0.03347191 -0.014378318
-0.004476627 0.0030146248 0.0012364555 -0.023764184 0.017655753 0.040185213 0.0010502851 0.027216816
0.0052743284 -0.005652471 0.066269055 0.012064057 0.06263014 -0.0016017146 -0.035547003 0.042080496
0.018756649 -0.03448703 -0.011104089 0.03166317 -0.010308894 0.005478427 -0.019431163 0.029029243
0.05925771 0.010379674 0.047561392 -0.004297891 -0.031728473 -0.033118468 -0.008738732 -0.0076516275
-0.009628388 0.053767756 0.019654708 -0.014449179 0.033406224 -0.00094741635 -0.025559966 0.04524897
0.04974446 -0.030334687 -0.02646862 -0.004566935 0.042731866 -0.03140633 0.02453747 -0.0055856146
-0.03480913 -0.008773678 -0.0066153156 -0.01995486 0.06435547 -0.02216404 -0.012412437 0.048012767
-0.010311708 -0.023077393 0.0154055385 -0.039640263 0.021242533 0.0055231676 0.029550446 0.022520285
00000000: d6e2 e4bb 458b f4bb c833 54bd 4e64 c4bb
00000010: 91bb 65bd d6d1 2f3d 56fc 123c 881c 5e3c
00000020: 9886 333c 4b17 6bbc f62f e7bb 0773 ebbb
00000030: 1aeb 26bd d3fd 50bc 091a 33bb 11ef 813c
00000040: fed3 fdba f63e 943b 8bde 6f3c c135 8fbc
00000050: 6896 0b3d 920b f73c 27ca 113d 478f e3bc
00000060: cc3f 97bb e77a 3c3b 1996 40bd 5135 733c
00000070: 9bd0 bdba 452a a8b9 86a9 81bc c09b 92bd
00000080: 1ca0 4dbb 94e7 75bd ba1c 57bb ca07 8abd
00000090: ab62 1abc 4a58 fdba 047a 0e3c f4f9 e7ba
000000a0: 82f5 c8bc c450 00bd e8c5 0bbc 603b 073d
000000b0: 101b 4f3d afb8 92bc 15a9 38bd 7c5a 3ebd
000000c0: 695f 50bd 5a55 94bb a9aa 3dbc f153 8d39
000000d0: 3309 85bd a5dd 86ba d340 0cbc b5f4 68bd
000000e0: f7b7 483c 0b45 35bd 93fb c23c b904 b6bb
000000f0: 4421 77bd 15c0 52bd 8933 4cbd f63b 53bb
00000100: b492 e8ba e40f 87ba 1c3a 8dbb c112 0abd
00000110: 1713 f8ba f12f 083d 0dd9 c9bb de2a 40bd
00000120: 0d11 023c c9a0 293d 7c89 913b accb 80bd
00000130: 74d2 90bc 541d 6f3c 915f 403d 4612 7dbd
00000140: 0f7c b3bb ea63 00bd 4d1a 15bd 790b f4bb
00000150: 0fdb 84bb a786 133b c5b0 bcbc 6995 aabb
00000160: 3704 62bd 8943 893c 3d6d b7bc 460f ca3c
00000170: 09f5 e8bb c639 d5bc c202 e23b 58b4 c13c
00000180: 841f 09bc 2165 3e3c 40bc cd3a b63e 6f3c
00000190: a3bd 6fbb a289 b8b8 faa4 2d3d 146c 4f3d
000001a0: 9df0 6abd f6fe d7bb 4a0c f3bb b63c 01bb
000001b0: 3590 bdbc c8b2 96bb e63d 8abd 51c9 0dbc
000001c0: cc3c 06bd 033f 2bbb f6ce baba 3237 2eba
000001d0: c1a7 a03a ad6b f0bb fdfb 2cbd 7296 ac3c
000001e0: 8f3b 80bd ec69 a4bb 013d 1abd 20b3 c33c
000001f0: 6f10 cbbc ba5d 7bbd 9ebb cdbc 0209 2f3d
00000200: a9f5 c13b 0ede 32bd df58 cd3c c8dd c03c
00000210: fba4 553d 302b 2b3d 8034 7f3d 18a2 26bd
00000220: e170 b53c fe32 b63c 97dd 0ebd 5bbd 123d
00000230: c535 833d 6a08 20bd 3e76 87bc b7ee 9ebb
00000240: 67a0 3c3c f74e dc3c f613 88bc 1138 31bd
00000250: 492d 73ba cbcf ec3c 6a66 4f3d f4ad 0c3d
00000260: a2b4 c9bc 5a8a b63c 1e15 843d d402 693d
00000270: e558 e7bb b5d3 5eba 64c6 573a 1b53 d43c
00000280: fe7c a7bc 33be 1d3d a3c1 9cba 19b0 303d
00000290: 139c 2fbd bb75 51bd 6bbf 73bc 4906 dabb
000002a0: 4b77 82bc e55c 723d 0d58 0abd 3b2c 2fbd
000002b0: 06c2 5b3d 517f 1dbd f7a7 21bd 0c05 7f3d
000002c0: 01b0 803d 9565 513c bcca 2f3d cedc 1d39
000002d0: 8bbe 20bc 526c d6b9 70fc 24bb 00af 513d
000002e0: 3a28 803d 462b 883d c38e f63c 6f44 543c
000002f0: 4a5c 4abc c041 ed3c d719 09bd 0993 6bbc
00000300: abb0 92bb 0391 453b 9010 a23a 1bad c2bc
00000310: cca2 903c 4099 243d b8a9 893a cdf5 de3c
00000320: 46d4 ac3b 5d38 b9bb 12b8 873d 53a8 453c
00000330: 3b44 803d a0f0 d1ba bc99 11bd 995c 2c3d
00000340: 8ba7 993c 4642 0dbd eded 35bc 3db1 013d
00000350: a3e6 28bc 6084 b33b 1a2e 9fbc bcce ed3c
00000360: 36b8 723d 820f 2a3c bccf 423d 53d5 8cbb
00000370: b7f5 01bd 3ba7 07bd e62c 0fbc 81ba fabb
00000380: 63c0 1dbc 943b 5c3d e902 a13c 40bc 6cbc
00000390: f7d4 083d 095c 78ba 2263 d1bc fc56 393d
000003a0: d9c0 4b3d 7380 f8bc b8d4 d8bc 3aa6 95bb
000003b0: 9c07 2f3d eda3 00bd ce02 c93c 8807 b7bb
000003c0: 0594 0ebd 79bf 0fbc 4ac5 d8bb 6078 a3bc
000003d0: cdcc 833d 5c91 b5bc 895d 4bbc 09a9 443d
000003e0: 70f2 28bc cd0c bdbc 8367 7c3c d45d 22bd
000003f0: d204 ae3c b0fb b43b c713 f23c 767c b83c

lin1.bias f4 [128]
0.050187986 -0.0094817495 -0.047571782 -0.0027372 0.007475596 0.0058813277 4.5558256e-05 -0.011100051
0.015996624 0.037654147 -0.00040853414 6.0141366e-07 -0.00017707667 0.030177446 -0.0037113447 -0.04424812
-0.008410034 0.00010563635 0.044311836 0.06521875 0.038680486 -4.094377e-06 0.05208596 -0.012487573
7.6496704e-05 -0.009454674 -0.0042078914 5.253921e-05 -0.0146701215 -0.00022438422 -0.018541927 -0.0026198504
-0.00018897762 -0.0022117666 -0.0066367122 0.048340637 0.009535343 -0.05714925 -0.009113222 0.050950408
-0.00038408337 0.00025732382 -0.055969484 0.0011297081 -0.005591804 0.027542975 0.018161967 -0.0006555026
0.048725907 3.5332712e-05 -0.026823275 -0.012240698 7.3087836e-07 0.040569283 -0.042467106 -0.0144389225
-0.0032374035 -0.00029819 0.06261643 -0.0017353649 0.061685655 -0.0039929496 -6.2255835e-06 -0.010375334
4.8982897e-06 0.0039568553 -0.021355756 -0.00019463923 -0.009739841 0.041186497 -0.011259541 -0.005306725
-0.020739615 -0.025512237 -0.033860862 -0.044751335 -0.0013457736 -0.00037802395 -3.5777064e-06 -6.90064e-07
-0.0001197119 -0.023539897 -0.0060767815 -0.010102916 -0.023193218 -0.017936347 -0.0024598236 0.03786068
0.048879288 0.040275354 0.006092251 0.047972213 -0.04854129 3.7198755e-05 -0.05399735 -0.0063407263
-0.049694464 -3.1564375e-07 -0.0034418153 -0.00049172435 -0.010731166 -0.010755786 -8.1388695e-05 4.4719003e-05
-9.338371e-05 -0.020692583 0.0378243 -7.5616554e-05 0.05178407 0.023454884 -0.004133752 -0.00014628732
-0.0040655965 0.030988833 -0.011364106 -0.0023651358 1.5731272e-06 -0.015159416 0.0003033063 0.040853325
-0.0014234292 -0.024076477 -0.024256859 -0.00045141391 -2.0821639e-07 0.036036376 -3.748703e-06 -0.008873278
00000000: eb91 4d3d 5759 1bbc a1da 42bd 9862 33bb
00000010: d8f5 f43b 27b8 c03b ce15 3f38 fddc 35bc
00000020: 5a0b 833c 3c3b 1a3d 8630 d6b9 d570 2135
00000030: a8ad 39b9 b136 f73c 083a 73bb 843d 35bd
00000040: 3dca 09bc 1589 dd38 5480 353d 6891 853d
00000050: 6e6f 1e3d 6e62 89b6 1658 553d ad98 4cbc
00000060: db6c a038 c7e7 1abc 5ae2 89bb 8c5d 5c38
00000070: f35a 70bc ae48 6bb9 3de5 97bc ccb1 2bbb
00000080: 4b28 46b9 49f3 10bb c778 d9bb d500 463d
00000090: 213a 1c3c 5515 6abd a04f 15bc 60b1 503d
000000a0: cc5e c9b9 6be9 8639 4240 65bd b712 943a
000000b0: 743b b7bb cea1 e13c 68c8 943c 09d6 2bba
000000c0: d194 473d 3632 1438 7cbc dbbc 358d 48bc
000000d0: 9431 4435 fa2b 263d fdf1 2dbd 3b91 6cbc
000000e0: 9e2a 54bb 6256 9cb9 0b3d 803d 2f75 e3ba
000000f0: 19aa 7c3d 4ad7 82bb 5be5 d0b6 4efd 29bc
00000100: fd5b a436 82a8 813b 44f2 aebc 1218 4cb9
00000110: db93 1fbc 2cb3 283d f079 38bc 09e4 adbb
00000120: 20e6 a9bc 0aff d0bc b0b1 0abd 2d4d 37bd
00000130: ab64 b0ba 8431 c6b9 8718 70b6 d63c 39b5
00000140: d60d fbb8 bed6 c0bc bd1f c7bb b386 25bc
00000150: b4ff bdbc 3fef 92bc fe34 21bb cd13 1b3d
00000160: a635 483d c5f7 243d 81a1 c73b 837e 443d
00000170: 3bd3 46bd dc05 1c38 532c 5dbd dec5 cfbb
00000180: 6c8c 4bbd bf75 a9b4 1490 61bb 10e7 00ba
00000190: c6d1 2fbc 0939 30bc 39af aab8 aa90 3b38
000001a0: ffd6 c3b8 7e83 a9bc a7ed 1a3d 5494 9eb8
000001b0: 881b 543d 7524 c03c 6d74 87bb b464 19b9
000001c0: b238 85bb 4bdc fd3c 8430 3abc 6500 1bbb
000001d0: 3d24 d335 335f 78bc 1505 9f39 d155 273d
000001e0: 5c92 baba 083c c5bc 52b6 c6bc c0ab ecb9
000001f0: 1692 5fb4 e19a 133d 3a92 7bb6 3a61 11bc

lin2.weight f4 [64, 128]
0.02365172 -0.010124867 0.06331677 -2.481225e-05 0.010477364 0.018597798 -9.4717825e-06 -0.006052591
-0.014283611 0.06610023 -0.023325473 0.0033511368 1.9354161e-08 0.014312435 -0.007132985 -0.032250185
-0.0058702603 -3.296611e-05 0.027026266 -0.04741738 -0.0615485 0.00025894417 -0.042390324 -0.017090553
-4.381537e-06 -0.00013833187 0.07213608 -3.7506423e-05 -0.028439526 -0.0034216628 -0.008716544 0.018985756
0.006041287 0.0050546792 0.017868483 0.022131601 0.020384891 0.009034349 0.011576339 0.018873341
0.0044611483 -0.0011853304 -0.0023031943 0.0013566484 -0.0041455473 -0.039359454 0.04059183 -0.00039292546
0.05310186 -5.935387e-05 -0.04300407 -0.011161935 0.00023420533 -0.028991552 0.04561619 -0.03986264
0.00019651005 -0.0004287409 0.05197769 0.0010970184 0.019237489 0.0026409386 -6.0513416e-06 -0.007300879
1.098292e-06 -8.330375e-06 -0.027463559 -7.5486093e-07 0.015197885 -0.0024919498 -0.002973054 -0.0051700394
0.077058524 0.056688327 0.044602934 0.0032284113 0.030398067 -4.203942e-06 -1.2416807e-05 0.0014242422
-0.00013437783 -0.06568872 8.998575e-05 0.008374143 -0.030519666 -0.014872447 0.051525917 0.021425731
-0.043507036 -0.03866323 -0.046281587 0.008054249 -0.06849354 4.952078e-06 0.054347485 -0.019539502
0.05550762 1.277668e-05 0.00086631207 7.68448e-05 0.011835546 -0.019991372 -1.4935798e-05 6.403761e-05
-0.0049472065 -0.08125202 0.038967796 -0.00040511 -0.0044678054 -0.043277264 -0.012439324 1.0313903e-05
0.011758417 0.031790804 -0.010247585 1.2335569e-05 -2.9944815e-06 0.04576582 -0.00017528202 0.011538702
-0.0014686439 -0.053549465 0.0044525843 0.00031540546 2.531421e-06 0.07779167 1.1846738e-06 0.035097633
-0.029347058 0.048838466 -0.015074473 -1.6625114e-07 -0.020790499 0.015520637 -4.0460123e-05 -0.0043465905
0.010517285 0.045983948 0.037953924 0.01256843 -2.1663496e-05 0.050221387 0.00026389665 -0.0103807915
-0.016672883 2.2418121e-06 0.048452802 -0.045273334 -0.00876379 4.0030136e-06 -0.06766909 3.1120042e-05
-1.1604159e-06 1.0550856e-05 0.0007594039 -7.065448e-05 -0.07247851 -0.0048906547 0.077010274 0.015367821
-0.005377918 -0.0074726664 -0.011581759 0.018826928 0.027000284 0.008935303 0.0111219045 0.010435663
-0.0021025697 0.00070138415 0.048111007 -0.006049732 0.0072357664 0.07131324 -0.0001057376 0.0016859868
0.025077902 -0.00013542858 -0.0061260005 0.00432931 0.023685753 0.021075463 -0.005052758 0.030076101
-0.0013197215 -0.00056946825 -0.047828924 -0.011909643 -0.07097691 -0.0026054885 -2.7966772e-07 -0.017775621
-1.1367217e-05 -1.2786515e-07 0.020319557 0.00026399046 0.0049826535 -0.04581918 0.0077454792 0.0061503504
0.058452047 0.03446364 -0.0684071 0.052441344 -0.009546718 -0.0001914305 -7.445456e-09 -0.0052927965
0.0002331683 -0.06501496 -0.00041114856 -5.9206445e-07 0.009246513 0.008450973 -0.058717996 -0.004445942
-0.045078125 0.04730725 -0.030618433 0.03768008 0.0035540499 3.7905385e-05 -0.03325295 -0.025351651
-0.038668394 8.5350456e-07 0.0039458564 -7.237703e-05 0.054777466 -0.0253554 -0.00021059815 0.00016491211
3.1172942e-06 0.02446449 -0.01893043 4.4364824e-06 -0.004146615 0.04069863 0.0020928585 6.890943e-05
-0.015392062 -0.03229967 0.010899008 -3.6447404e-05 -1.1000355e-06 0.04066913 -4.5487127e-07 -0.023189984
0.019282546 0.004661247 0.002344405 -0.00038141684 3.4440757e-07 -0.07130253 1.0303755e-05 0.009891038
00000000: 40c1 c13c c5e2 25bc 39ac 813d e723 d0b7
00000010: 40a9 2b3c 695a 983c ffe8 1eb7 d054 c6bb
00000020: cf05 6abc 8f5f 873d 1015 bfbc bf9e 5b3b
00000030: 4040 a632 b47e 6a3c d1bb e9bb c518 04bd
00000040: 505b c0bb 1745 0ab8 3066 dd3c ba38 42bd
00000050: 481a 7cbd e6c2 8739 7aa1 2dbd 7d01 8cbc
00000060: 1e05 93b6 2e0d 11b9 15bc 933d 3750 1db8
00000070: 02fa e8bc fa3d 60bb d6cf 0ebc 0488 9b3c
00000080: fdf5 c53b b9a1 a53b ed60 923c 554d b53c
00000090: 37fe a63c ce04 143c afaa 3d3c 449c 9a3c
000000a0: d32e 923b 175d 9bba 30f1 16bb 91d1 b13a
000000b0: 5fd7 87bb 6137 21bd 9e43 263d 9001 ceb9
000000c0: 5681 593d bcf2 78b8 0925 30bd 8ce0 36bc
000000d0: 0495 7539 b17f edbc 0bd8 3a3d 0247 23bd
000000e0: 440e 4e39 a1c8 e0b9 8fe6 543d d4c9 8f3a
000000f0: f097 9d3c 9913 2d3b a10c cbb6 363c efbb
00000100: 0769 9335 b0c2 0bb7 42fb e0bc a6a1 4ab5
00000110: 8d00 793c fb4f 23bb 92d7 42bb 6f69 a9bb
00000120: dcd0 9d3d 0532 683d 91b1 363d c193 533b
00000130: 5e05 f93c 960f 8db6 c851 50b7 a3ad ba3a
00000140: c6e7 0cb9 cf87 86bd bbb6 bc38 b433 093c
00000150: 6104 fabc 90ab 73bc d70c 533d 0485 af3c
00000160: 6f34 32bd 565d 1ebd c391 3dbd f8f5 033c
00000170: 5746 8cbd 072a a636 789b 5e3d 4e11 a0bc
00000180: f55b 633d 6c5b 5637 3819 633a bd27 a138
00000190: e1e9 413c f2c4 a3bc c494 7ab7 ee4b 8638
000001a0: 2d1c a2bb 7667 a6bd b29c 1f3d f264 d4b9
000001b0: ab66 92bb 8043 31bd 4ece 4bbc e009 2d37
000001c0: 60a6 403c 1337 023d 7de5 27bc def4 4e37
000001d0: cdf4 48b6 f174 3b3d e9cb 37b9 d30c 3d3c
000001e0: 837f c0ba af56 5bbd fce6 913b 015d a539
000001f0: 7be1 2936 3d51 9f3d 1501 9f35 89c2 0f3d
00000200: 3e69 f0bc d80a 483d ecfa 76bc c482 32b4
00000210: d650 aabc 454a 7e3c bab3 29b8 d86d 8ebb
00000220: b150 2c3c aa59 3c3d 9375 1b3d d1eb 4d3c
00000230: 01ba b5b7 f1b4 4d3d 9c5b 8a39 3214 2abc
00000240: 9295 88bc 0a72 1636 7276 463d 8870 39bd
00000250: 0096 0fbc a051 8636 1896 8abd e486 0238
00000260: 96bf 9bb5 9503 3137 bc12 473a 562c 94b8
00000270: 9d6f 94bd c941 a0bb 90b7 9d3d 50c9 7b3c
00000280: 3f39 b0bb 45dd f4bb 6bc1 3dbc ee3a 9a3c
00000290: b32f dd3c 6165 123c a638 363c 58fa 2a3c
000002a0: 44cb 09bb 18dd 373a 0c10 453d d53c c6bb
000002b0: 021a ed3b ad0c 923d 71bf ddb8 54fc dc3a
000002c0: 2c70 cd3c d501 0eb9 9ebc c8bb e2dc 8d3b
000002d0: a008 c23c 73a6 ac3c 9b91 a5bb 2862 f63c
000002e0: 81fa acba 5e48 15ba 43e8 43bd aa20 43bc
000002f0: 585c 91bd d8c0 2abb 3d25 96b4 2e9e 91bc
00000300: d3b5 3eb7 4e4b 09b4 3375 a63c 3368 8a39
00000310: 8745 a33b e4ac 3bbd cacd fd3b e188 c93b
00000320: 6a6b 6f3d bf29 0d3d 0619 8cbd bccc 563d
00000330: d669 1cbc bcba 48b9 ecd2 ffb1 326f adbb
00000340: a47e 7439 9026 85bd 6d8f d7b9 5cee 1eb5
00000350: b07e 173c f375 0a3c 4882 70bd 44af 91bb
00000360: d7a3 38bd 3fc5 413d 82d3 fabc 6d56 1a3d
00000370: 10eb 683b 99fc 1e38 3f34 08bd 44ae cfbc
00000380: c062 1ebd 631c 6535 3e4c 813b 1fc9 97b8
00000390: 565e 603d 21b6 cfbc 03d4 5cb9 42ec 2c39
000003a0: b532 5136 c169 c83c fd13 9bbc 18dd 9436
000003b0: 54e0 87bb 9bb3 263d 5728 093b 7883 9038
000003c0: fd2e 7cbc a94c 04bd c191 323c 1adf 18b8
000003d0: efa4 93b5 ac94 263d 0835 f4b4 ecf8 bdbc
000003e0: 6ef6 9d3c 60bd 983b 97a4 193b e7f8 c7b9
000003f0: 04e7 b834 1007 92bd 4ade 2c37 050e 223c

lin2.bias f4 [64]
-0.037782364 -0.046870217 -0.009715621 0.0006041654 -0.012270198 -6.5800336e-06 -0.05416262 0.020357369
-0.08782876 0.091507666 -0.055683296 0.04354361 0.0863452 -0.0011396472 -0.0345724 -0.0028689513
0.0031642509 -0.013559755 0.01964398 0.00039093822 0.06270699 0.038067304 -1.5004126e-06 0.057920758
-0.00012543629 0.037075322 -0.043209292 -0.049375128 0.002234987 0.06828846 0.016858926 -0.018644532
0.04657054 0.06396009 0.066680826 0.06678075 0.05607261 -0.05137681 0.013859028 0.0012509754
0.07903825 -0.028770555 0.07584447 -0.0025759477 0.086161435 0.00038632442 -0.062042635 -0.0013751811
-0.0034136 0.05942628 0.061567787 0.08237035 0.080164395 -0.057643272 0.00026792492 0.08414196
-0.007945414 0.075022325 0.045447446 -0.0012014292 0.050156385 -0.049114347 0.024881328 -0.013172223
00000000: aec1 1abd fcfa 3fbd 452e 1fbc db60 1e3a
00000010: f108 49bc 0fca dcb6 a0d9 5dbd 7fc4 a63c
00000020: 91df b3bd 5f68 bb3d 2b14 64bd c95a 323d
00000030: c1d5 b03d 3760 95ba ca9b 0dbd 0405 3cbb
00000040: 525f 4f3b bc29 5ebc 69ec a03c d7f6 cc39
00000050: 866c 803d 76ec 1b3d c961 c9b5 513e 6d3d
00000060: 8c87 03b9 4bdc 173d 3afc 30bd 933d 4abd
00000070: dc78 123b d2da 8b3d bb1b 8a3c 6bbc 98bc
00000080: c0c0 3e3d 82fd 823d f58f 883d 59c4 883d
00000090: 65ac 653d 7d70 52bd fa10 633c c5f7 a33a
000000a0: cede a13d 3ab0 ebbc 5854 9b3d 3bd1 28bb
000000b0: 6875 b03d 968b ca39 6b20 7ebd 6c3f b4ba
000000c0: b4b6 5fbb f968 733d 812e 7c3d c9b1 a83d
000000d0: 3b2d a43d 5a1b 6cbd 4678 8c39 9f52 ac3d
000000e0: 7b2d 02bc 4ea5 993d 1a27 3a3d 4679 9dba
000000f0: c870 4d3d 202c 49bd edd3 cb3c 4fd0 57bc

lin3.weight f4 [2, 64]
0.0885087 -0.12983935 0.020432217 0.002499015 -0.021942262 0.0019425419 0.10061206 -0.07203532
-0.056048706 -0.04742955 0.05038338 -0.10500121 -0.12842743 -0.00047303142 -0.029914102 0.009055295
0.01956173 -0.019245073 0.00965111 3.4609711e-06 -0.09917771 -0.07478504 -7.041009e-05 -0.05376452
-0.0028374451 0.017722668 0.10213436 0.07037217 0.0736706 -0.100410484 -0.11287808 0.093173504
0.07547594 -0.097640745 -0.098821245 -0.16321923 -0.027217045 0.041820925 0.015835956 1.7103305e-06
0.031630225 -0.08407666 0.019831186 -0.024700936 -0.13329586 -0.041935842 0.056327023 0.0027950122
-0.018932575 -0.11776683 -0.003866928 0.021821998 -0.105817914 -0.03427057 -0.0007593458 -0.046818685
-0.014536189 0.06975468 -0.090765335 -0.032106142 0.01652817 0.13676785 0.113707475 0.01901013
0.0522353 0.013739167 -0.10284196 0.024435183 -0.018938078 -0.0019990238 0.05013309 0.08691311
0.11644239 0.07949214 -0.056476723 -0.114391625 0.017802168 0.00012537741 -0.13125171 -0.005181911
0.010770159 0.043335035 -0.01810252 0.0069692056 0.11425988 -0.08040762 0.00044800562 0.005466445
-0.00070230843 0.011747844 0.027483307 0.107261 0.05129041 0.034506276 -0.113736525 -0.01998701
0.021186255 0.03303191 0.110754326 -0.040925007 0.00057353603 -0.09567713 0.034253646 -0.006386418
-0.056307968 -0.07627364 -0.116022594 0.009941991 0.00859358 0.0084429495 -0.071909934 -0.0017305901
-0.030978875 0.070648886 0.077782385 0.14589047 0.18102999 0.12998079 0.011951872 0.1629748
0.0054154205 -0.014882094 0.044591896 -0.022320513 -0.011337872 -0.13082297 0.1248151 -0.009256247
00000000: 0d44 b53d 9bf4 04be 7761 a73c 84c6 233b
00000010: 42c0 b3bc e49c fe3a b20d ce3d 4187 93bd
00000020: 5493 65bd 7d45 42bd ce5e 4e3d e00a d7bd
00000030: 7b82 03be 3401 f8b9 6b0e f5bc a95c 143c
00000040: ec3f a03c d8a7 9dbc b01f 1e3c 0843 6836
00000050: af1d cbbd e628 99bd 21a9 93b8 2f38 5cbd
00000060: 6ef4 39bb 212f 913c d22b d13d 491f 903d
00000070: 9de0 963d 03a4 cdbd 9f2c e7bd c0d1 be3d
00000080: 2193 9a3d dff7 c7bd cb62 cabd f122 27be
00000090: 48f6 debc 6b4c 2b3d 68ba 813c 828e e535
000000a0: b28e 013d 6230 acbd 0375 a23c 9e59 cabc
000000b0: b67e 08be ebc4 2bbd 2ab7 663d 862c 373b
000000c0: 7d18 9bbc bc2f f1bd 496c 7dbb 0cc4 b23c
000000d0: 10b7 d8bd 4c5f 0cbd d60e 47ba f3c4 3fbd
000000e0: 3229 6ebc 8bdb 8e3d 2de3 b9bd bb81 03bd
000000f0: 1666 873c df0c 0c3e 77df e83d 22bb 9b3c
00000100: aff4 553d 3e1a 613c ce9e d2bd 4b2c c83c
00000110: 0724 9bbc 0e02 03bb 5b58 4d3d 80ff b13d
00000120: 5979 ee3d c6cc a23d 2354 67bd 2846 eabd
00000130: dad5 913c be77 0339 d966 06be 05cd a9bb
00000140: 5275 303c 1480 313d bc4b 94bc ef5d e43b
00000150: 1501 ea3d c0ac a4bd 4ce2 ea39 dd1f b33b
00000160: 1f1b 38ba 077a 403c ac24 e13c a8ab db3d
00000170: e515 523d 7456 0d3d b2ee e8bd ccbb a3bc
00000180: cc8e ad3c 784c 073d 2ad3 e23d fba0 27bd
00000190: 5a59 163a 5ff2 c3bd 8d4d 0c3d 2845 d1bb
000001a0: 2fa3 66bd 5b35 9cbd 419d edbd bce3 223c
000001b0: 16cc 0c3c 4c54 0a3c 8445 93bd f8d4 e2ba
000001c0: 69c7 fdbc 5db0 903d 5f4c 9f3d 5064 153e
000001d0: ed5f 393e af19 053e c9d1 433c dee2 263e
000001e0: d773 b13b 07d4 73bc fea5 363d 82d9 b6bc
000001f0: 7bc2 39bc 75f6 05be 0f9f ff3d 84a7 17bc

lin3.bias f4 [2]
0.08111431 -0.08009265
00000000: 421f a63d 9e07 a4bd
