models/new/#CONV=2_#POOL=1_Hidden=128_PoolR=0.8_RANDS=777.pth (torch, 238270 bytes, 11 tensors)

convpool_layers.0.conv.weight f4 [1, 128]
000000 1c 21 46 3e 6e 15 1c 3d 31 2d 53 3d 45 60 22 be
       0.19348568 0.038106374 0.05155677 -0.15857036
000010 e6 b9 27 3d 87 ce 2f 3e f3 81 4c 3d 8d 2a b4 bc
       0.04094877 0.17168628 0.049928617 -0.021992946
000020 40 69 de 3d 0b 30 50 3d 31 75 a2 3d 82 8b 62 bd
       0.108599186 0.050827067 0.07932509 -0.055308826
000030 86 78 04 be 04 fe 4b bc c3 0c 9a bc 1b 3a e6 3c
       -0.12936601 -0.012450699 -0.018804913 0.028103879
000040 1e 86 ee bd 06 1b d8 bd 7d dd bd 3d 79 00 75 3e
       -0.116466746 -0.10552029 0.09270761 0.23925962
000050 4f 52 4d 3e 11 44 c9 bd 45 14 06 be 8d 36 80 bc
       0.2005093 -0.09827436 -0.1309367 -0.015651012
000060 2f 29 bd bb e6 56 38 3e 05 73 ca bd 81 dc f6 bd
       -0.0057727317 0.18001899 -0.098852195 -0.120537765
000070 b3 b4 00 be b2 9f b4 3d f5 da 10 3d ad 32 c3 bd
       -0.12568931 0.08819522 0.035365064 -0.0953115
000080 6f 7e 4b 3e c0 64 df bc b8 78 ed 3d ea 5f 34 be
       0.1987245 -0.027269721 0.11595291 -0.17614713
000090 8f be 01 be 19 cd 19 be 02 b8 dd 3d 84 ff 53 3d
       -0.12670349 -0.15019645 0.10826112 0.05175735
0000a0 24 56 16 be ee 25 2e be fd ee 4d 3e 16 b9 d5 bc
       -0.14681298 -0.17006657 0.20110698 -0.026089232
0000b0 f4 77 82 3d 61 35 63 bd da 00 8a 3d a5 83 35 3e
       0.063705355 -0.055470828 0.06738444 0.17726
0000c0 89 44 79 3d 2d c9 8c 3d 13 e7 ce 3c 77 83 07 bd
       0.060856376 0.06874309 0.02525667 -0.03308436
0000d0 d8 b9 d5 3d d2 b6 93 bd d5 ea 56 bd 50 bf 0f bd
       0.104358375 -0.072126046 -0.052470047 -0.03509456
0000e0 9a 09 3a 3e 3c c2 f8 3d 3c fd 4c 3c 54 47 47 be
       0.18167725 0.12146422 0.012511548 -0.19460803
0000f0 2b eb 31 bd 09 06 32 bd 19 71 03 be 79 96 2b 3e
       -0.043437164 -0.043462787 -0.12836112 0.1675662
000100 c9 42 88 3d fe 7f 01 be b2 1a 8d bd 22 8e 90 3d
       0.06653363 -0.12646481 -0.06889857 0.0705836
000110 09 12 f8 3c 36 b3 7c 3e fd 9f 17 3e ab 11 1c 3e
       0.030282037 0.24677739 0.14807124 0.15241115
000120 dc 10 91 bc 26 f5 5d 3e 66 82 37 3d b6 cb cd bd
       -0.017708234 0.21675548 0.044802092 -0.100486204
000130 aa a4 01 be 71 77 e5 bc 23 aa af bd 27 20 1e bd
       -0.1266047 -0.028011056 -0.08577373 -0.03860488
000140 11 27 8a 3c a8 b0 19 3e 24 db d8 3d 64 bc 28 bd
       0.016864331 0.15008795 0.10588673 -0.04119529
000150 f3 65 23 3e 07 8f fa 3c 53 2d 13 3d 7d 0d 2c bd
       0.1595686 0.030585779 0.035931896 -0.04200505
000160 67 f6 29 3e e2 96 17 3e 88 f1 e7 37 3c 94 ff 3d
       0.16597901 0.14803651 2.7649818e-05 0.12479445
000170 2e a9 66 3e 3a 9c 6e bd fe 4e 24 3e d0 34 3a be
       0.22525474 -0.058254458 0.16045758 -0.18184209
000180 81 eb 3b bb 92 7a 3a 3e 47 9a df 3c bf ad 00 3e
       -0.0028674307 0.1821082 0.027295245 0.12566279
000190 cf f7 f7 bd 98 a7 52 3e 4f 8e 08 be 9e 75 e0 bc
       -0.121078126 0.20571744 -0.13335536 -0.027399834
0001a0 08 71 68 bc a3 ae 2d 3c f3 6c 07 3e 9c c3 1d be
       -0.014187105 0.010600719 0.13225155 -0.1540665
0001b0 48 93 23 3e 8b 70 46 3e 2c eb 43 3d 44 e3 bc bd
       0.15974152 0.19378869 0.0478317 -0.09223035
0001c0 b6 78 72 3d d3 8d 24 bd f9 a8 9e 3d 3b aa 41 3e
       0.05919715 -0.040174317 0.07747073 0.18912594
0001d0 f8 b6 1b be 61 33 df bd 0d 88 ac bd a6 7d 10 3e
       -0.15206516 -0.108984716 -0.08424387 0.14110431
0001e0 9d 94 4c bd b6 74 aa bd 7a ce d1 3d d9 72 da 3b
       -0.049946416 -0.08323042 0.102444604 0.006666523
0001f0 ea 5a 01 3e ec 9a db bd 93 eb bd bd 2a c3 15 be
       0.12632337 -0.107229084 -0.09273448 -0.1462523

convpool_layers.0.conv.bias f4 [128]
000000 b0 c4 67 bb f3 cb c0 bb 05 41 27 bc 70 26 c1 3b
       -0.0035365038 -0.0058836876 -0.010208373 0.0058944747
000010 59 10 59 3b 2e 69 c8 3c 02 16 cf 3a c8 c2 e7 3a
       0.0033121316 0.024464216 0.0015799406 0.0017681951
000020 c9 8c 0a bc 61 76 a0 bc 11 d3 cd bb da 1a b9 3a
       -0.008456417 -0.019587697 -0.0062812646 0.0014122382
000030 7f 43 86 bc a8 14 dd bb 58 bb 06 3b 7c c5 82 bc
       -0.016389607 -0.006746847 0.0020558443 -0.015963309
000040 9a 05 4d 3c de 62 52 3c 10 7b 64 3b de e3 04 bc
       0.012513543 0.012840955 0.003486339 -0.008110968
000050 a3 89 4e 3c 43 0a 16 3c 50 78 d0 bb c1 60 10 bb
       0.012606057 0.00915772 -0.0063619986 -0.0022030326
000060 70 30 ac bb e7 5b cf bb 9f 91 9a bb 14 5a 58 bb
       -0.0052547976 -0.0063280943 -0.0047170664 -0.0033012675
000070 51 dc 23 3c b3 42 9c bc d5 e0 43 3c d0 dd a6 3b
       0.010001258 -0.019074773 0.01195546 0.00509236
000080 fd c3 0c bc 66 31 1d ba bd 1f f9 bb 05 93 79 3b
       -0.008591649 -0.00059964356 -0.0076026605 0.0038082015
000090 8c 86 6d 3b bb 13 51 3b 28 2a 39 bc 0b c2 a5 bb
       0.0036243526 0.003190263 -0.011301555 -0.005058532
0000a0 a4 03 48 bc 0d 54 12 3b b3 dd 2e 3c c1 51 fc bb
       -0.012207899 0.002232793 0.010672974 -0.0077001755
0000b0 a9 0c 59 bc e7 e7 70 3c 06 87 a1 bc 17 e0 1f bc
       -0.013247647 0.014703727 -0.019717705 -0.009758017
0000c0 20 37 1c bc e8 2e d4 bc ba 7c 42 3b 73 f3 14 3c
       -0.009534627 -0.025901273 0.0029676394 0.009091246
0000d0 4e f2 5c bc 6b 07 79 ba ce 90 12 3a 38 77 0c ba
       -0.013485504 -0.00094997016 0.00055910356 -0.0005358341
0000e0 4e 02 74 bc 1e 70 31 bc 86 c6 75 bc 6f b1 ff bb
       -0.014893128 -0.0108299535 -0.015000945 -0.007803134
0000f0 7f 46 0c 3b f1 da d8 3b 41 39 90 bb c7 45 45 3b
       0.0021404324 0.0066178967 -0.0044013564 0.0030101405
000100 86 f6 c6 3b 88 1c fb 3b 94 2f fd 3b 40 aa c9 ba
       0.0060718684 0.0076633133 0.007726619 -0.0015385821
000110 8f 11 c3 ba 8f 13 57 bb 43 21 09 bc cb 3c 05 bb
       -0.0014882552 -0.0032818054 -0.008369747 -0.0020330425
000120 b6 24 fd bb cd 8e ba bb 59 c7 fc bc 10 b3 3b 3b
       -0.0077253236 -0.0056932927 -0.030856775 0.0028640665
000130 ca 44 c7 bb 42 db e4 3a 4c f0 29 bc e2 08 7f 3b
       -0.0060811983 0.0017460363 -0.010372233 0.0038915207
000140 c0 c1 92 bb 14 36 d4 bb 3b 63 19 bc 8b ea 2b bb
       -0.004478663 -0.006476173 -0.009362037 -0.0026232328
000150 2f 49 6a 3c dc 9d d8 bb 6c 93 24 bc 50 10 76 3b
       0.014299675 -0.006610615 -0.010044914 0.0037546344
000160 7e 6e 45 bc b3 17 8a 3b b0 ec 3e bb ec 44 3a bb
       -0.012050269 0.004214251 -0.0029132776 -0.0028422428
000170 f0 67 99 3b 9d 17 e2 3b ce 38 7e 3c 99 52 4a 3c
       0.00468158 0.0068997876 0.015516473 0.012348794
000180 90 72 7e b9 40 b6 2b 3c 73 6c e4 3b 94 c1 ea b6
       -0.00024266005 0.0104804635 0.006970936 -6.996279e-06
000190 52 bb e1 bb 61 b8 a4 bb 81 bb 31 bc ac 53 8b ba
       -0.0068887854 -0.0050268625 -0.010847927 -0.0010629795
0001a0 a0 9d 12 39 66 e3 b6 bc 2e 97 1e bc 18 23 8b bb
       0.00013982365 -0.022325229 -0.009679599 -0.004246127
0001b0 d1 75 f6 3b da ae c5 3c ee 87 35 bc 0c 92 31 bb
       0.007521369 0.024131227 -0.011079771 -0.0027095107
0001c0 d2 1c 3b 3b 83 9c 10 bb 99 28 02 bc 74 8c d9 3a
       0.0028551114 -0.0022065945 -0.00794425 0.0016597644
0001d0 1b 4b f3 ba 5d d7 38 3c 33 4f ff 3b 3c 26 d7 3b
       -0.0018561812 0.011281815 0.0077914237 0.006565837
0001e0 e1 de 11 3b ba 8d 29 3c de d2 fd bb 46 6f 7d bc
       0.002225809 0.010348732 -0.0077460846 -0.015468424
0001f0 54 8e 1b bc 05 54 85 3a a9 59 32 bb 7c 6a 2d 3b
       -0.009494383 0.0010172134 -0.0027214086 0.0026461175

convpool_layers.0.pool.att f4 [1, 256]
000000 ab 8c 17 3d 62 5d ca 3b 2d ce 68 bc 62 8c 61 bd
       0.036999386 0.006175683 -0.014209312 -0.05506552
000010 7f 65 8f bb cb e0 94 3c bb f9 a1 bd c8 71 4b bc
       -0.004376113 0.018173596 -0.079089604 -0.012417264
000020 23 c5 30 3e 3b b3 c4 3d 0e 72 d1 3d 95 46 c5 bc
       0.17262702 0.09604498 0.10226832 -0.024081508
000030 19 a1 29 3d ce f4 ff 3c 8e 91 2a bb 59 28 3c 3c
       0.0414134 0.031244662 -0.0026026699 0.011484229
000040 85 51 84 bd f0 3d b5 bc 79 bc ab 3d 98 8b 28 3c
       -0.06460861 -0.02212426 0.08385558 0.010287188
000050 08 7c 0b be 66 42 81 3b ec cf 8b bc b0 d2 6f bb
       -0.13621533 0.003944683 -0.017066918 -0.0036594085
000060 3c 1d 24 3a 5c 04 2b bd 88 1b 1b 38 48 d9 d4 bc
       0.000626046 -0.041752204 3.698052e-05 -0.025982514
000070 af c6 57 bc 5c c4 90 bd 23 eb 77 bd be 07 56 bd
       -0.013169928 -0.070687026 -0.06052698 -0.052253477
000080 36 45 53 3d a4 0f a3 bb 94 59 be 3d 89 2c 0e be
       0.051579677 -0.0049762297 0.092944294 -0.13884176
000090 33 a0 16 3a ff 2e b8 3c c1 ea 57 3c b8 22 43 bd
       0.00057459174 0.022483347 0.013178528 -0.047640532
0000a0 de 1f 85 bc ec 3c af bd 16 5c 7e 3d b2 a1 ca 3c
       -0.016250547 -0.08556542 0.06209954 0.024735305
0000b0 a8 7d 61 3d 47 53 a8 3c ab 96 0e bd 9d f0 18 3c
       0.055051476 0.020547522 -0.034811657 0.00933471
0000c0 7b 40 5e 3d 83 be a5 3d 13 19 59 bc 85 f8 d5 bb
       0.054260712 0.08092978 -0.013250607 -0.00652987
0000d0 a2 f6 14 3d f9 3a 1b 3d 09 d1 a9 bd b1 d7 a8 3c
       0.03636802 0.037898038 -0.082918234 0.020610662
0000e0 18 24 86 bd 25 f6 06 3e 91 70 e9 bb 49 89 56 bd
       -0.06549853 0.13179834 -0.0071240147 -0.05237702
0000f0 04 b0 10 bc ea ad 0c bc 56 3e 26 3a 81 38 b7 3d
       -0.008831028 -0.008586386 0.0006341686 0.08946324
000100 58 1b 84 3a f0 1a e0 bc a9 6a 11 bc 3d bb 92 bd
       0.001007895 -0.027356595 -0.008875527 -0.07164619
000110 7b 6d 48 bc af 85 d6 3c 49 87 cb bd 56 76 8b bc
       -0.012233133 0.026186792 -0.09937913 -0.0170242
000120 c7 92 5a bb df a5 3a bc 1f 00 69 bc 8c 40 81 3d
       -0.0033351646 -0.011392086 -0.01422122 0.063111395
000130 78 10 51 bd 69 96 b0 bb 61 94 f5 3d fe eb 86 bd
       -0.051041096 -0.005389024 0.11991192 -0.06587981
000140 42 be 8c 3b 8e b8 4e bd f0 07 9b 3d 56 68 1c bc
       0.0042951414 -0.050468974 0.07569873 -0.00954636
000150 e4 23 9e 3d 29 cc 44 bd fd 3f 0e 3e 89 8f 0c bc
       0.07721689 -0.048046265 0.13891597 -0.008579143
000160 7a ba 22 3d 7b 86 9e 3d 2e 9e 0e 3d d2 79 86 3d
       0.03972862 0.07740494 0.03481882 0.06566204
000170 87 30 97 3d 70 1d 29 bc c1 55 38 3b 60 4c a8 3c
       0.07382303 -0.01032196 0.0028127285 0.020544231
000180 3e 6c 06 3e 6f cb 88 3c 09 07 90 3d 8f fc 30 3d
       0.13127229 0.016698567 0.07032592 0.04320961
000190 8d 32 d5 bc fa 1a 32 3d ac 59 b7 bc d4 ad c7 bb
       -0.026025081 0.043482758 -0.022381626 -0.00609372
0001a0 5d a9 03 be 35 12 91 bd 12 9c bb bd 78 b6 d3 bd
       -0.12857576 -0.07083551 -0.091606274 -0.103375375
0001b0 d7 29 10 be 89 56 e0 3c cf 73 22 3d 23 02 9a 3d
       -0.1407846 0.027385013 0.039661225 0.07519939
0001c0 3d c9 b5 bd ee 71 32 3c a5 70 ae bd a4 f1 bd 3d
       -0.08876274 0.010891421 -0.08517579 0.09274605
0001d0 fc fa 6e ba fd 6f 3d bd 2d 69 ab 3c 94 3f 06 be
       -0.0009116379 -0.04624938 0.020924175 -0.1311019
0001e0 17 a6 44 3c 06 b3 d4 bc 0d ae 9e bd f0 e0 0b 3e
       0.0120024895 -0.025964271 -0.07748041 0.13660026
0001f0 17 62 a1 bc a4 61 31 3b b0 c9 dd ba 8d 55 c1 bc
       -0.019700093 0.0027066255 -0.001692107 -0.023600364
000200 f1 aa 81 3c 61 26 e5 3c 29 33 37 bc ef d3 4f bc
       0.015828582 0.027972402 -0.011181631 -0.012684806
000210 d2 05 8e bd 20 85 06 bc e9 c0 bf bc 7b 9a 29 bb
       -0.06934704 -0.00821045 -0.023407416 -0.002587943
000220 5b 0a 60 3d bd 8b 11 bd 0b e2 3c bc 66 d7 bd bb
       0.054697376 -0.035533655 -0.011528502 -0.0057934998
000230 44 c2 c9 3c 87 6d c1 3d 84 5d 37 bd 42 9b dd 3c
       0.024628766 0.09444719 -0.044766918 0.027051572
000240 4a 2f 1f bd 05 9b 05 bc ee 75 cd bc 31 93 c6 3c
       -0.038863458 -0.008154635 -0.025080647 0.024240108
000250 c1 06 40 bd 58 85 17 bc e8 f9 cf bc cf 72 ae 3d
       -0.04688144 -0.0092481 -0.02538772 0.08517992
000260 b2 a5 a1 ba 25 9a 9a 3a a0 6c 30 bd 24 ba 1d bc
       -0.0012332706 0.0011795206 -0.043072343 -0.009626899
000270 c0 5c 32 bc 45 ad 0a 3c 05 1d 26 bc a4 cd b9 bd
       -0.010886371 0.008464162 -0.010138755 -0.09072426
000280 1d 1d 8e 3c 40 86 81 ba 59 4d dd bd 0a 26 40 bc
       0.017347867 -0.0009881929 -0.108057685 -0.011727819
000290 5b e0 97 3d 1d e1 4c bc c1 18 45 3c 3a 60 ae bd
       0.07415839 -0.012504843 0.012029828 -0.085144475
0002a0 1c da 28 bc 45 61 9b bb 22 03 80 bd 44 c1 1c 3a
       -0.010305908 -0.00474182 -0.062505975 0.00059797266
0002b0 ef 21 17 3d 01 96 ed bc ff df 2f bc 9a 53 53 bc
       0.036897596 -0.029002191 -0.010734557 -0.01289835
0002c0 ba 71 6d ba a2 0d ae bd 90 57 d6 3d e4 75 06 bd
       -0.0009057779 -0.08498694 0.1046592 -0.032827273
0002d0 d0 cc ec 3c 32 50 69 3d c3 85 a4 bb c3 0c 2d 3d
       0.028906256 0.056961246 -0.0050208285 0.0422485
0002e0 f0 05 78 bc 2d 9e e6 bd 07 fc 1a bc b8 03 8f bc
       -0.015138134 -0.112606384 -0.009459502 -0.017457828
0002f0 db e7 74 bb 6b c9 6d bd 95 0f 37 bc 38 c7 dc bd
       -0.0037369642 -0.058053415 -0.011173149 -0.107801855
000300 65 e7 08 be 59 91 36 bc 30 63 e8 bb b4 95 26 bc
       -0.1336952 -0.011143052 -0.007091902 -0.010167528
000310 d6 d5 ce bb 44 e5 c6 bc 56 65 b4 bd 99 ba 68 3c
       -0.0063121123 -0.024279244 -0.08808391 0.014204645
000320 d0 fd 6e bd 7d 00 35 bd b5 6d 07 3e d7 26 21 bc
       -0.058347523 -0.04418992 0.13225444 -0.00983592
000330 6c ed b1 38 6e 0e b3 3c 66 f6 02 bc ac de 9c 3b
       8.484241e-05 0.021857467 -0.007993316 0.0047872867
000340 4c 1b f1 bc a8 c5 24 3d 8c 66 5b bc 98 a0 4a 3d
       -0.029431961 0.040227562 -0.013391148 0.04946956
000350 05 29 aa bb 64 11 4f bd 97 92 96 3a 33 a1 80 bd
       -0.005192878 -0.050553694 0.0011487779 -0.06280746
000360 95 c9 32 bd f8 9f 1f bd 3c 77 7c 38 2a 37 8a bc
       -0.043649275 -0.038970917 6.0192528e-05 -0.016872007
000370 9a 1c ce bc 32 90 55 bb 19 39 36 bc 3d a3 92 bd
       -0.025160123 -0.0032587168 -0.011122012 -0.071600415
000380 b4 de 22 bc 9e 6c 93 bb 42 a9 55 bd 70 78 9b bc
       -0.009940792 -0.004499032 -0.05216337 -0.018978328
000390 bb 5f 1c bc 61 9e e4 bb 2f 25 16 bc 68 47 79 bd
       -0.009544308 -0.006976888 -0.009164139 -0.060859114
0003a0 8b 61 d5 ba f5 80 05 bc a9 b4 88 bd ad 76 37 bc
       -0.001627968 -0.0081484215 -0.06675083 -0.011197728
0003b0 eb 65 1f bd ed 38 23 3d 4f 65 9a bc a1 20 1a be
       -0.038915556 0.03984921 -0.018847136 -0.1505151
0003c0 5d 4e b6 3d 46 e3 36 bb 82 15 79 3d bd e0 d5 bc
       0.08901665 -0.0027906462 0.060811527 -0.02610814
0003d0 90 ed a9 37 73 fe 19 bc 4a 67 bf 39 2a 06 7d bc
       2.0256994e-05 -0.009399044 0.00036507315 -0.015443364
0003e0 81 75 e2 3d 0d ec 73 3a c3 d9 76 bc 55 66 21 bc
       0.11057568 0.00093048887 -0.015066567 -0.009851058
0003f0 24 00 83 bd 82 21 f3 bd 79 30 f3 3b be 0a 45 bc
       -0.06396511 -0.118716255 0.00742155 -0.012026487

convpool_layers.1.conv.weight f4 [128, 128]
000000 1e 5f b1 3d 4e a8 ea bb d7 9a 13 bc 9d 2b da 3d
       0.0866072 -0.0071611768 -0.009009085 0.1065285
000010 fe bb 06 b7 c7 57 54 b9 43 d6 01 bc f5 28 e0 bc
       -8.030793e-06 -0.00020250595 -0.007924619 -0.02736328
000020 ae c2 e3 bc bf 01 cb 38 2b b2 86 3d f0 23 ff 3a
       -0.027802791 9.6801195e-05 0.065769516 0.0019465666
000030 19 8f e0 3d 85 b4 8a bc 31 1b 1e 3d 3b de 8e bd
       0.10964794 -0.016931782 0.03860015 -0.06975981
000040 f8 4f 94 bd 06 3d c7 b7 cc 9e 0c bd e3 1b c6 3d
       -0.07241815 -2.3751065e-05 -0.034331128 0.09673288
000050 57 d9 89 bd 62 ba c7 3d 9a 0c 27 bd 66 e3 25 ba
       -0.067309074 0.097523466 -0.040783502 -0.00063281355
000060 12 c6 a1 3d 73 76 01 3e b6 3c a5 38 5b f1 56 bc
       0.07899107 0.12642841 7.8791214e-05 -0.013119067
000070 fb 39 8e bd c0 5b cd 3c 2c 03 a4 bc f9 a4 a9 3d
       -0.06944653 0.025068164 -0.020021044 0.08283419
000080 2a 6f b4 bb 2f 93 b0 3d 59 34 b5 3d 8a c2 a6 b8
       -0.005506416 0.08621823 0.08847875 -7.9517326e-05
000090 57 96 c0 3d 5f b6 5e 3d 9b 5b 45 bd c1 ef 80 bd
       0.09403675 0.05437314 -0.048183065 -0.062957294
0000a0 73 36 1b 3d 4f e1 f7 3d 21 f0 80 bc b9 0e 2f bb
       0.037893724 0.12103521 -0.015739502 -0.0026711656
0000b0 05 63 ab 39 3a bc 72 bd 47 b1 94 bc ad ba 00 3e
       0.00032689437 -0.059261538 -0.018150939 0.12571211
0000c0 de f2 b5 3d 2a 1d e5 b7 0f 49 d4 3d 4a 7c 07 bd
       0.08884214 -2.7312508e-05 0.10365497 -0.033077516
0000d0 01 06 e4 bd 77 a1 18 b7 89 f2 85 3d 73 5a 38 3d
       -0.11133958 -9.0975e-06 0.065404005 0.045008134
0000e0 2c 3d 26 39 9e d5 09 bd e0 a0 e2 bd 99 2e cd 3d
       0.00015853782 -0.033650987 -0.11065841 0.100186534
0000f0 b4 cd dd 38 3e 31 bc bb 73 b9 9a bc ad da 4a bc
       0.000105764164 -0.005743175 -0.018887257 -0.012381238
000100 93 c5 db bc 98 53 6d bb f0 99 6c 3d 37 93 d9 bc
       -0.02682761 -0.0036213156 0.057763994 -0.026559455
000110 16 df 47 bc e2 13 a4 3b 5d ce 61 3c e0 70 63 b8
       -0.012199184 0.005007253 0.013782111 -5.422614e-05
000120 06 82 ca 3d 6f 3e a5 3a 7a 12 04 3a 7c c9 75 bd
       0.09888081 0.0012607108 0.00050381536 -0.060006604
000130 44 fe bd bc 9f 44 89 bd 2a 1d 2b 3e 62 b7 07 3d
       -0.023192532 -0.067025416 0.16710344 0.03313387
000140 04 f7 56 bd 76 81 33 3d 14 f6 a7 bd c1 92 b8 3a
       -0.052481666 0.043824635 -0.082012326 0.0014081822
000150 39 60 84 b9 35 66 09 b8 83 3e 6e 3d f6 9a 60 bc
       -0.00025248693 -3.2758533e-05 0.058165085 -0.013708821
000160 c0 ba 5f 3d 23 87 f2 bc 6b fc e7 38 d3 a3 45 3d
       0.054621458 -0.029605454 0.00011061955 0.048251938
000170 38 5f 9e 3d 47 c1 cc 3d 48 5b 26 bc e5 f7 41 bd
       0.07733005 0.09997802 -0.010153599 -0.04735555
000180 a5 6b 07 bc de 2c 72 3d 92 a0 fb 38 49 15 56 b9
       -0.008265411 0.05912482 0.00011998521 -0.0002041656
000190 97 da 8d 3d d2 13 26 3d 3f 8b 55 3d b8 fa d1 3d
       0.06926458 0.040546246 0.05213475 0.10252899
0001a0 a0 cf d1 bb 76 91 e0 3d c2 99 60 3c 02 85 ac 3c
       -0.0064029247 0.109652445 0.013708534 0.021059517
0001b0 22 e1 f4 3a a9 98 ed 3d 7c 0d 0e 3e 5c 45 f5 3c
       0.0018682817 0.11601383 0.13872331 0.0299403
0001c0 c3 40 13 3d eb c6 47 3b 98 56 b9 3d a0 4b 9f b8
       0.035950433 0.0030483555 0.090497196 -7.595797e-05
0001d0 90 dd af 3d ad 03 12 bc 4c b1 d6 3d f3 e5 84 3d
       0.085871816 -0.008912009 0.104830354 0.06489172
0001e0 f9 27 b0 bd a0 f0 8c 3a 76 94 8d bd e5 20 d2 ba
       -0.08601374 0.0010752864 -0.06913082 -0.0016031532
0001f0 f8 8b 18 bc 7d 97 84 bd 3f 48 22 3d ac c8 bd 3d
       -0.009310715 -0.064742066 0.03961968 0.09266791
000200 c0 b2 4e bc f2 60 a3 3b b8 f9 c8 3b 99 5f 10 3d
       -0.0126158595 0.004985922 0.0061332844 0.03524742
000210 87 8f bb bc 70 94 e1 b8 e2 91 89 39 41 8a 7f 37
       -0.022895588 -0.00010756485 0.00026239367 1.5231374e-05
000220 fb e2 0d bd 39 a1 b2 38 1e 09 c5 b8 7a 33 93 3d
       -0.034640294 8.5177315e-05 -9.39539e-05 0.07187553
000230 e7 26 72 bd fb a3 77 3d cf 7b 15 3d 26 25 0e b7
       -0.05911913 0.06045912 0.036495026 -8.472509e-06
000240 64 9a b8 bc 4b 21 1c 3d 2b 49 6e 3c d5 27 df bc
       -0.022534557 0.03811769 0.014543812 -0.027240673
000250 6d da 7f 3d e7 71 b9 bd 54 8e 79 ba be ec 3d 3d
       0.062464166 -0.09054928 -0.0009519805 0.046368353
000260 ab 62 4f bd e3 16 76 bc 00 3a cf b9 8f 50 b4 3c
       -0.050631206 -0.015020105 -0.0003952533 0.02201107
000270 c1 a9 83 3c 9e a4 1f 3c 1a aa 46 b8 68 b6 c8 3b
       0.016072156 0.009743838 -4.7365298e-05 0.00612526
000280 49 1c c0 3c b3 af 0f bd 45 b7 c3 3d 48 1f 93 3c
       0.023450987 -0.03507967 0.0955644 0.017959252
000290 71 10 16 3c 78 52 4e 37 1e 84 4a 3d d2 29 62 3d
       0.009159193 1.2297758e-05 0.049442403 0.055215664
0002a0 ff 2e 51 b8 df 5d bf 3d 63 c3 28 3d 7b 3c 16 3c
       -4.987325e-05 0.09344076 0.04120196 0.009169693
0002b0 0b 56 97 b9 2c 60 b2 3c f0 b8 90 bd 68 26 a1 3d
       -0.0002886507 0.021774374 -0.07066524 0.078686535
0002c0 e5 bf 82 bd bf 07 20 39 f5 32 9f bd c2 b8 8c bb
       -0.06384257 0.00015261675 -0.07773391 -0.004294486
0002d0 46 f0 80 3c b5 d8 c3 bc 00 76 1b 3d cc fe 98 ba
       0.015739571 -0.023907045 0.03795433 -0.0011672615
0002e0 f5 0a d8 b7 4b c4 f3 38 75 57 9a 3c e2 36 ff ba
       -2.5754309e-05 0.00011623705 0.01884053 -0.0019471312
0002f0 1b 80 39 3d 48 dd 19 bd 5e 0f 9b 3c 7b ea 53 3b
       0.045288187 -0.037564546 0.018928226 0.0032335806
000300 c6 fc c1 3d 06 39 bd 38 28 42 14 bd a6 49 20 bd
       0.09472041 9.022844e-05 -0.036195904 -0.039132737
000310 31 9f 82 3d b0 7f 04 3d fe 7f f3 bc b1 e6 a7 3c
       0.063780196 0.032348335 -0.029724117 0.020495744
000320 46 db 42 bd 89 b2 04 3d 3f cc 71 38 f3 ee bc 3b
       -0.047572397 0.032396827 5.7649097e-05 0.0057657897
000330 01 9f 85 bc 87 e9 6e 3d 0f 0a ce 3b 7c cb 98 3c
       -0.01631117 0.058328178 0.00628782 0.018651716
000340 29 ff 89 b9 75 a3 98 3d f8 2c 41 3d fd 05 90 bd
       -0.00026320785 0.07453052 0.047162026 -0.07032392
000350 1c b5 bf bc fb 06 2c 3d f1 9f 96 3d 43 b3 94 3d
       -0.02340179 0.041998845 0.07354725 0.07260754
000360 d4 4d a2 bc 4e 5f 7c 39 c6 79 ca b8 c1 8e f7 3c
       -0.019812502 0.00024068097 -9.654793e-05 0.030219438
000370 28 bb 51 3d 00 8a 24 3d cb f1 66 38 64 5f a6 bd
       0.051203877 0.04017067 5.506146e-05 -0.08123663
000380 0c 33 a4 b8 47 ee 97 bd f9 7c 0e bc d8 4e b9 3c
       -7.8296376e-05 -0.07418495 -0.008696788 0.022620603
000390 22 5f 36 bc ca 9c 63 3b 93 18 12 3d 27 9f 8b 3c
       -0.01113108 0.0034730905 0.035667967 0.017043663
0003a0 34 07 9e bb 43 93 aa 3c ea 4d 07 3a 0d 2b 83 bd
       -0.004822636 0.020822173 0.00051614514 -0.06404696
0003b0 c1 7a 51 bd 90 6a 76 3c 70 b6 8d bd 36 a3 01 bd
       -0.051142458 0.015040055 -0.06919563 -0.03164979
0003c0 7c f6 84 bb be 13 2c 3d 50 4b 1a 3d b7 57 ba 38
       -0.0040577035 0.042011015 0.03766948 8.885509e-05
0003d0 64 70 ce 3d 9d 95 2e 3b bc f4 63 3d cb 05 ab bc
       0.100800306 0.002663947 0.05565332 -0.020876786
0003e0 22 56 3c 3d d3 83 89 3d 7d 55 6f 3d 7a 42 0f bd
       0.04598058 0.067145966 0.058431137 -0.034975506
0003f0 5c 03 25 3d e6 82 84 bd a9 5a ba 38 55 1a 01 3d
       0.040286407 -0.064702794 8.886058e-05 0.031519253

convpool_layers.1.conv.bias f4 [128]
000000 fb 2f ce bb 00 00 00 00 f6 93 b5 bb 8f e0 ff bb
       -0.006292341 0.0 -0.00554132 -0.007808752
000010 cb cc 8f 39 6f db 22 39 50 89 41 bc ab af 60 3b
       0.00027427668 0.0001553127 -0.011812523 0.0034284394
000020 f3 c5 bc bc 00 00 00 00 00 00 00 00 00 00 00 00
       -0.023043608 0.0 0.0 0.0
000030 c6 2b e4 bb fa 2c 78 bc ca a4 ba bb 00 00 00 00
       -0.006963226 -0.015147442 -0.005695914 0.0
000040 37 e1 01 bb 00 00 00 00 19 c6 98 bc 07 6d 91 bc
       -0.0019818076 0.0 -0.018649148 -0.017752184
000050 6a 0d 8c bc 32 de 47 bc 14 0a 52 bc 00 00 00 00
       -0.01709624 -0.012198972 -0.012819786 0.0
000060 46 66 8e bc a1 64 50 bc 12 9a b0 bb 19 00 79 bc
       -0.017382752 -0.012719304 -0.0053894604 -0.015197777
000070 3c 6b 3f 3b b3 ff 9d bc 67 b8 58 bc 71 c6 a3 bc
       0.0029208204 -0.019286966 -0.013227559 -0.019992085
000080 05 ba 38 bc 3e 79 03 bc 7c f8 29 bc 4a 02 85 3a
       -0.011274819 -0.008024512 -0.010374185 0.0010147777
000090 3d a7 ce bb 00 00 00 00 00 00 00 00 0a 47 79 bc
       -0.0063065575 0.0 0.0 -0.015214691
0000a0 85 63 49 bc 31 3b ba bc 2b ac 81 bc 21 24 14 bc
       -0.012291794 -0.022733303 -0.015829166 -0.009041817
0000b0 80 cf 14 bc 49 ba 9c bb eb 05 75 bc c8 d2 16 bc
       -0.009082675 -0.004782949 -0.014955024 -0.009205528
0000c0 8a b1 7d bc 00 00 00 00 b5 8e b6 3b c0 56 ea 38
       -0.015484223 0.0 0.005571211 0.00011174148
0000d0 32 96 8b bc 00 00 00 00 dd 0a da bb 4b 4d 4b bc
       -0.017039392 0.0 -0.006654127 -0.012408565
0000e0 14 e3 52 38 22 27 34 bc 99 9c 4b bc f4 44 df bb
       5.0279385e-05 -0.010995658 -0.0124274725 -0.00681364
0000f0 ac c6 e9 3a 4b d7 11 3b 71 d9 87 bb 03 5f 66 bc
       0.0017835698 0.0022253569 -0.004145794 -0.0140607385
000100 b6 2c a2 bb f3 e1 9a 3b 62 d8 92 3b f0 33 44 bb
       -0.0049491776 0.0047266423 0.0044813612 -0.0029938184
000110 11 42 4b bc 99 fd 36 bc d8 ed f8 bc c5 db d6 bb
       -0.012405888 -0.011168861 -0.03038685 -0.0065569603
000120 9f 9f 11 bc 59 99 1e bc 00 00 00 00 94 59 83 bc
       -0.008888154 -0.009680116 0.0 -0.016033925
000130 fd 6e c1 bb fb 1a 71 bc bd 46 21 bc ab 58 c3 bc
       -0.0059031234 -0.014715905 -0.0098435255 -0.023845991
000140 00 00 00 00 cb 13 2f bc ea 55 25 bc 3f f4 f2 b9
       0.0 -0.010685871 -0.010091284 -0.00046339814
000150 00 00 00 00 0d 8b c4 bb 8d 32 e3 bb 00 00 00 00
       0.0 -0.0059980215 -0.0069335164 0.0
000160 1b dc 92 3b 7d 95 97 bc 00 00 00 00 df be 82 bc
       0.004481805 -0.018503899 0.0 -0.015960155
000170 34 6a 37 ba 2d c3 de bb 00 00 00 00 de 82 fd bb
       -0.00069967215 -0.006798169 0.0 -0.007736548
000180 c4 32 8a 3b 04 b6 e0 ba 74 04 66 bc 00 00 00 00
       0.0042174775 -0.0017144089 -0.014039148 0.0
000190 4d f2 5f bc 03 b7 e6 bc 09 99 a5 ba 25 e6 16 bc
       -0.013668609 -0.028163439 -0.0012634109 -0.009210144
0001a0 7e 52 07 bc 35 8c c3 bc c9 c3 bb b8 34 6a 5e b9
       -0.008259414 -0.023870567 -8.953323e-05 -0.00021211134
0001b0 21 4b 94 bc 54 b6 20 ba 54 7a 2f bc 60 5e 6a bb
       -0.01810223 -0.00061306846 -0.010710318 -0.0035761818
0001c0 25 81 75 3b 54 4c ae bc 60 68 90 bc d0 4f 25 bc
       0.003746101 -0.02127663 -0.017627895 -0.01008983
0001d0 9a 13 3b bc 0a 86 34 bc 1d 7a 3b bc ff e4 57 bc
       -0.011418248 -0.0110182855 -0.011442688 -0.0131771555
0001e0 ed 47 eb bb 43 20 4e bc 6a b7 84 bc 7a 8f 5c bc
       -0.007180205 -0.012580934 -0.01620074 -0.013461942
0001f0 74 c8 cc bc 1d c8 d0 bb 00 00 00 00 64 95 47 bc
       -0.024997927 -0.0063715116 0.0 -0.012181614

lin1.weight f4 [128, 256]
000000 46 c3 28 bd 6e db 97 b9 ca 7e a2 3c fb a9 38 3c
       -0.041201852 -0.00028964452 0.019835848 0.011270995
000010 23 bc db 39 66 11 62 3b c4 30 39 3c 02 44 1c 3a
       0.00041911108 0.0034495234 0.011303131 0.00059610617
000020 0c d0 fb 3c 38 47 e6 bc 02 e7 e8 3c a6 c3 9c 39
       0.030738853 -0.028110132 0.028430466 0.00029900408
000030 e4 11 e4 3b 77 98 de bb f9 3a 37 ba a3 6a 57 bb
       0.0069601405 -0.0067930776 -0.00069896836 -0.0032869957
000040 34 47 aa 3a 00 32 22 3a e4 df 03 bd 65 a9 88 bc
       0.0012991191 0.000618726 -0.03219594 -0.016682336
000050 1b 99 93 bc e8 a6 41 ba ca 20 0f 3b 3a 02 66 b9
       -0.018017342 -0.00073872367 0.0021839612 -0.00021935339
000060 6a 6e 08 bb 3d e9 1a bd ec 79 d9 3a 38 34 95 3b
       -0.0020817765 -0.03782009 0.0016592122 0.004553344
000070 72 1d dd 3a 1a bc a6 3b 08 9a 57 3c 41 4b 52 3c
       0.0016869737 0.0050883414 0.0131592825 0.012835325
000080 33 31 82 3b e5 5c aa bc cd ef 95 bb 3f 97 86 3b
       0.00397315 -0.020796249 -0.0045757056 0.0041073854
000090 97 d5 88 bb db 20 3f 3b eb d9 d2 3c 35 8c 15 bd
       -0.0041758525 0.002916387 0.025738677 -0.036510665
0000a0 e7 73 2e bb 10 1b b8 bb b4 33 3a 3d d9 a7 37 b9
       -0.0026619376 -0.0056184605 0.045459464 -0.00017514768
0000b0 b9 f2 6d bc fd 7f 08 b9 8c 31 ac 3c 3e aa 04 3d
       -0.014523202 -0.0001301765 0.02101972 0.032388918
0000c0 6a 32 ae 3c dc f0 a9 3a 58 8b 6d bc d1 50 ef b8
       0.021264274 0.0012965458 -0.014498554 -0.00011411461
0000d0 4b e2 cb 3c a4 e5 0e 39 65 e8 4c 3a 59 5b c6 3b
       0.024888178 0.00013627723 0.0007816612 0.00605337
0000e0 93 0b d7 3c 9b e0 ab 3c ba 60 d9 b9 86 a6 6a bc
       0.026250636 0.020981124 -0.00041461532 -0.014321929
0000f0 e7 e1 ee 3a 68 a7 c1 b8 79 63 9f 3a ef 15 9c 3c
       0.0018225283 -9.234139e-05 0.0012160382 0.019053428
000100 c4 fa 1b 3d 01 32 38 3b 96 b5 ee b8 a7 8e 9d bc
       0.038080946 0.0028105977 -0.000113825474 -0.019233061
000110 b1 64 a8 3c 45 15 43 3a 91 4b 86 3a f1 ad 21 bd
       0.020555826 0.0007441829 0.0010245909 -0.039472524
000120 9e f8 7b b8 b9 93 d9 bc 0c 5d d0 3b c2 6b 8e 3b
       -6.0074606e-05 -0.026559697 0.0063587483 0.004346342
000130 43 70 c0 bb f4 ed de b9 c2 9d 63 bb 71 7f e5 b9
       -0.0058727576 -0.00042520429 -0.0034731482 -0.00043773235
000140 ae 7b b1 bc 75 ed d5 bc af 8b 9e bc e0 d0 6b b9
       -0.02166542 -0.026114205 -0.019353716 -0.00022489158
000150 f9 35 0c bd 62 0c ad 3b 31 e3 4d 3c 35 3f 83 b9
       -0.03423116 0.005281017 0.012566374 -0.0002503336
000160 eb 25 47 bc b7 bc 3f bd 7e 32 05 3a 6b a9 9c bc
       -0.012155036 -0.046810832 0.0005081071 -0.019123754
000170 a4 2f 1a bd 97 b3 b6 bb 10 9c ae b8 49 e6 35 ba
       -0.03764309 -0.005575608 -8.3260355e-05 -0.0006938917
000180 cd a3 dd 38 22 a8 f0 bc 15 46 56 ba fd 88 a9 bc
       0.000105686115 -0.029377047 -0.0008173895 -0.020695204
000190 9c d8 60 bc 29 50 e9 3c 86 fb 8f 3b 98 c6 41 b9
       -0.013723519 0.028480606 0.0043939976 -0.00018479896
0001a0 3f eb 22 3a 32 5b 20 bc 8e b8 07 bd ea 3b 38 3b
       0.0006214864 -0.009787368 -0.03313499 0.0028111883
0001b0 e2 4e d9 bc 41 5c 1d 3d a8 1b a0 bc b9 80 bb 3a
       -0.026526872 0.03841806 -0.019544438 0.001430533
0001c0 f5 0e 82 bc 97 7c 44 3c d2 9b f7 bb a6 6b 16 bd
       -0.015876273 0.011992595 -0.007556417 -0.036723755
0001d0 1e 7a e4 3b 7d 5e c8 3a 36 8f 70 3a ec 56 ec 3c
       0.0069725653 0.0015286949 0.00091766135 0.028850041
0001e0 80 b7 13 3b 56 92 36 bc 8a 30 97 bc 12 85 e0 ba
       0.0022539794 -0.011143288 -0.018455762 -0.0017129502
0001f0 ff ce 14 3d 1a 3a 1c 3b 65 4d 4f 3a 3b ab 3c 3c
       0.03633022 0.0023838342 0.0007907956 0.011515434
000200 bb 93 13 3d ee 59 92 bc 87 04 85 38 e4 9c b5 3c
       0.03602956 -0.017865147 6.3427775e-05 0.022169538
000210 6d eb a0 bc c2 01 33 3d 69 e5 58 bb f9 8b 07 3b
       -0.01964351 0.04370285 -0.0033095723 0.0020682795
000220 0e e2 36 bd a3 0f 17 3c 24 d0 25 bc b6 6c 53 3c
       -0.044649176 0.009220037 -0.010120425 0.012904337
000230 a1 23 3b bc 7b a2 00 3d c7 3a 1d 3a ff f4 63 3c
       -0.011422069 0.031404953 0.0005997833 0.013913392
000240 68 b6 af 3c 2f a4 80 bb 1d 7b 16 bd 57 7c 4c 3d
       0.021449283 -0.003925822 -0.036738504 0.049923267
000250 40 a4 53 bd 3a cb 2b bd dc ef f4 3c b0 96 7a 3b
       -0.051670313 -0.04194186 0.02989953 0.003823679
000260 6d d7 8b bb 7d 82 8b bc 96 2a e8 3c d2 50 0f 3b
       -0.004267624 -0.017029995 0.028340619 0.002186824
000270 76 01 83 3c 83 76 01 3c 2e e7 df 3b 00 a1 eb bc
       0.015991908 0.007901791 0.0068329787 -0.028763294
000280 cc da 11 bb 67 3c 20 3d ce fb 92 bc 3c 19 be 3c
       -0.0022255657 0.039120104 -0.017942335 0.023205392
000290 df 72 ec bc 7e e5 49 3d be b7 42 bd 87 86 2c bd
       -0.028863369 0.049291126 -0.04753851 -0.042120483
0002a0 b8 54 09 3d c0 bf c6 bc 80 76 2c bd d8 ff 24 bc
       0.03352806 -0.024261355 -0.042105198 -0.0100707635
0002b0 be 91 1f bd 71 85 c8 bc a4 7e 6d 3c ed ef 2f bc
       -0.03895735 -0.024477692 0.0144955255 -0.010738355
0002c0 75 9a c6 3c 02 eb d7 bc 3e ca 17 bb e7 dd 3a 3c
       0.024243573 -0.026357178 -0.0023161317 0.011405445
0002d0 89 86 29 bd 36 c4 05 3d bf 97 f2 3c f7 a1 ca 3c
       -0.04138807 0.032657824 0.029613374 0.024735434
0002e0 58 ca 38 3d e7 07 17 bd d0 92 79 bb 9c 2b 8f 3c
       0.045114845 -0.03687277 -0.0038081892 0.01747685
0002f0 3a 59 40 bb 54 36 91 bb b5 2c 02 bd 39 7f 14 bc
       -0.0029350058 -0.0044315252 -0.031780917 -0.009063535
000300 95 89 c1 bc 0b 4a ef bc 15 53 30 bc 1b ce b8 3c
       -0.023625175 -0.029210111 -0.010761996 0.022559216
000310 0c a8 8d 3c fe 8e 3f bd 35 bd 3e 3d 8f 7b 78 bc
       0.017292045 -0.046767227 0.04656716 -0.015166177
000320 d8 e6 5b bc cc f6 29 3d 76 8c 93 bc 59 00 94 3b
       -0.013421737 0.04149513 -0.018011313 0.004516643
000330 59 6e 21 3d 91 5e 52 bb 5e b1 25 3d 34 48 ba 39
       0.039411876 -0.0032099823 0.040452354 0.0003553048
000340 ed c6 46 3c a5 39 9a bc 97 1b 85 3c b5 68 cd 3a
       0.012132389 -0.018826315 0.016248507 0.0015671464
000350 49 b5 08 3c 05 f2 76 bc aa 89 f5 bb c2 99 fc 3b
       0.008344003 -0.01507235 -0.0074932175 0.007708759
000360 87 57 d1 bb 8a 6b e4 3c 6a e8 89 38 f4 f9 57 bd
       -0.006388608 0.02788331 6.5759596e-05 -0.05272861
000370 48 58 c1 3c 24 1a e9 3a 71 45 37 3d 8c 68 e7 3c
       0.023601666 0.001778428 0.04474396 0.028248094
000380 86 5a 0c 3c cf 37 3b 3d 79 49 26 b9 d4 3e db 3c
       0.008566504 0.04570752 -0.00015858364 0.026763357
000390 1d 0c 34 3d 4d 7b 2a bd db c3 df bc e1 55 bd 3c
       0.043956865 -0.041621495 -0.02731507 0.02311224
0003a0 5c 89 c7 bb 44 86 43 3c e4 16 4f bc 4d 65 0d bd
       -0.0060893726 0.011933867 -0.012639735 -0.034520436
0003b0 0e a9 6b bc 68 98 0f bd 2f e2 06 bd 5e 6d 22 3d
       -0.0143835675 -0.035057455 -0.03293055 0.039655082
0003c0 3b db 70 bc 51 32 db 3a 19 d6 f0 3c 2b 5c d3 bc
       -0.014700706 0.001672337 0.029398965 -0.025800785
0003d0 06 42 96 3c 19 27 60 3b f1 90 5b 3b f6 b0 8a bc
       0.01834203 0.0034202992 0.003350314 -0.016930085
0003e0 80 81 92 bc 7c 75 29 39 0c 58 5d 3c 3d 47 4c 3c
       -0.017884016 0.00016160862 0.013509762 0.012468156
0003f0 21 ed a8 bb 46 d1 b0 bc 23 8c ff 3c c1 05 cd bc
       -0.005155221 -0.021584164 0.031194752 -0.025027158

lin1.bias f4 [128]
000000 0a 87 cb 3c 45 5a 79 3d 5c b5 1e 3c ed 99 6a bb
       0.024844665 0.060877103 0.009686794 -0.0035797313
000010 f5 03 51 3d b8 98 ce bb 55 5f 9f ba 3a 30 99 bb
       0.051029164 -0.0063048266 -0.0012159148 -0.0046749385
000020 e3 56 a5 3c 41 db 80 39 26 e1 10 ba 43 e4 e3 bc
       0.020183032 0.0002457742 -0.0005526714 -0.027818805
000030 8d 2d bb 3b be a9 08 3c 2c fc ea bb 7d aa c3 39
       0.005712217 0.008341251 -0.0071711745 0.00037320322
000040 49 70 5a 3d 8d ea cb 3b f9 8f 40 39 83 fb 06 ba
       0.05332974 0.006223029 0.00018364181 -0.00051491725
000050 b2 8e 3d bb 2f 1f 67 bc 0c 32 a9 bb 39 50 8c 3c
       -0.0028924164 -0.014106556 -0.0051634368 0.017128097
000060 8d ef 23 bc 1e a3 f6 39 f8 71 35 3d 14 da 61 b8
       -0.010005844 0.00047042308 0.044298142 -5.384728e-05
000070 47 1f 2b bd dd b9 61 3d 35 6f 40 3d a5 75 89 38
       -0.041777875 0.055108894 0.046981055 6.554582e-05
000080 bf 20 85 3c 70 c6 9c bc 63 17 50 bd dc 78 89 3d
       0.016250966 -0.019137591 -0.050803553 0.06712505
000090 16 27 c0 b9 65 aa d1 bb 85 56 3f bc 8c 0b d2 3b
       -0.00036650215 -0.0063984864 -0.011678343 0.006410068
0000a0 f4 9e 95 bc 0e 14 91 bb b8 e9 c1 ba ba 75 ab ba
       -0.018264271 -0.0044274395 -0.0014794385 -0.001308135
0000b0 50 fc 99 37 e1 9e a6 3c 2f 0e d6 b8 4b 2a 98 bc
       1.8356513e-05 0.020339431 -0.00010206957 -0.018574854
0000c0 c3 d0 16 3d 98 03 e4 3c 04 40 b2 3c 8e 7e d6 b9
       0.036820184 0.027833745 0.02175904 -0.0004091155
0000d0 f2 9d 1a bc 4f 5e 40 bc 72 14 1f 3a d5 af f0 3c
       -0.009437071 -0.011741235 0.0006068415 0.029380718
0000e0 94 2b 09 3b 8e 99 ea bb 32 68 e4 39 2a a5 23 ba
       0.0020930516 -0.0071594184 0.0004356518 -0.0006242568
0000f0 a4 7e 2e bd ca a5 88 bd f5 05 a6 3c e7 60 02 3b
       -0.042601243 -0.06672247 0.020266512 0.0019894184
000100 ea db 04 3d 5a ad dd b8 65 d2 61 39 4c 0b ae ba
       0.03243629 -0.000105703904 0.0002153605 -0.0013278513
000110 2b e7 02 bd 4c 4f 0d b9 07 6e d5 3a c4 28 b8 3c
       -0.03195874 -0.00013476348 0.0016283401 0.022480376
000120 f9 e1 ee 3c 7f ff 35 3c 82 f8 d9 3c 53 b5 05 bd
       0.029160487 0.011108278 0.026607756 -0.032643627
000130 5e 61 ca 3c 86 f8 c2 39 50 8c f0 b9 84 16 b3 bc
       0.024704631 0.00037187728 -0.00045880908 -0.021861322
000140 3e 33 21 3c a0 d6 10 ba e3 a9 51 3d b2 24 6a 3b
       0.009838877 -0.00055251457 0.051187407 0.0035727439
000150 56 ae dd b6 72 45 58 3d 58 bd 03 bc 78 c4 9f bc
       -6.6066086e-06 0.052800603 -0.008040749 -0.019502863
000160 16 52 0e 3d db 12 a8 bb 39 13 e3 3b de 2d df 39
       0.034746252 -0.005129201 0.0069297818 0.00042568048
000170 3c 55 50 3d 1b 06 f8 bc e7 4d 3f bd 61 ce bd 3b
       0.050862536 -0.030276349 -0.046705153 0.0057924245
000180 12 80 72 bb 7b 46 10 bd dc ad 95 3c 8a 0b 85 3c
       -0.0037002605 -0.035223465 0.01827138 0.016240854
000190 44 d5 2d 3d 2c 7d 69 39 15 f0 0c bd 64 0a de b8
       0.042439714 0.00022267242 -0.034408648 -0.0001058772
0001a0 9c 34 2e bb 75 76 1d 3d d8 e1 57 3c ea 37 67 3d
       -0.002658165 0.038443048 0.013176404 0.05644981
0001b0 05 2f a0 39 74 35 e7 bc e2 e9 30 bd 00 ad 6c 3c
       0.0003055261 -0.02822373 -0.043191798 0.014445543
0001c0 ef 4c 0e 3c 82 59 3b bc 57 74 fb b9 f0 02 04 3c
       0.008685335 -0.011434915 -0.0004796113 0.008057341
0001d0 33 72 77 3d c3 b6 1d bd 9e e6 4c bd 8d 09 88 3c
       0.060411643 -0.038504373 -0.05002462 0.016606117
0001e0 92 88 d6 39 43 a7 e3 bb e3 a5 27 3c e8 a2 c6 37
       0.00040919014 -0.0069474294 0.010232422 2.3679298e-05
0001f0 97 31 98 3c 4b 1b ea 3c b2 50 a4 b9 e5 1f 2b b9
       0.018578334 0.028577467 -0.0003134064 -0.00016319712

lin2.weight f4 [64, 128]
000000 c6 d9 21 3d 63 d8 23 3d 2d 38 d7 bb ef 3f bb 38
       0.039514326 0.040001284 -0.006567976 8.9287634e-05
000010 be 32 e7 ba 3f 6a 78 bb 24 a7 0e bc 9f fa 83 bb
       -0.0017639024 -0.0037905124 -0.008706842 -0.004027679
000020 91 5e 9b 3d 02 de 99 ba c5 34 4c 3c 53 71 1f 3c
       0.075863965 -0.0011739137 0.012463753 0.009731608
000030 74 6e 97 bb 87 42 9f 3c 69 c0 3a bb f7 3c 26 39
       -0.0046213213 0.019440902 -0.0028496033 0.00015853705
000040 89 4b 37 bd 2e 3a 80 3c 0d 97 0f b9 48 0c 82 3b
       -0.04474977 0.015652742 -0.00013693814 0.003968749
000050 87 f9 09 3c 16 a0 30 bd 4e 23 9e bb 54 5f a0 3d
       0.008421308 -0.04312142 -0.004825986 0.078306824
000060 c5 a7 00 3b e6 54 95 39 aa 27 ad bc ea 1d aa 39
       0.0019631248 0.0002848275 -0.021137077 0.00032447214
000070 bf 2c 91 bc 70 2d 90 3d 70 f1 9b 3d c1 28 a7 ba
       -0.017721532 0.070399165 0.0761441 -0.0012753234
000080 bc d2 3d 39 26 cc 0f bd ef b1 0d bc e9 a2 65 bd
       0.00018102949 -0.0351068 -0.00864838 -0.056063566
000090 f9 e8 eb 3b df ce c3 bc 9e c4 a1 3d 0c 54 18 bd
       0.0071994034 -0.023902355 0.0789883 -0.03718953
0000a0 a9 3f 29 3c 89 6f 73 bb 64 58 26 bb 4e c9 88 39
       0.010330119 -0.0037145338 -0.0025382275 0.00026089925
0000b0 12 ac 56 bc e7 45 c9 3b a7 6b 38 bc 1e 87 d3 39
       -0.013102548 0.006142366 -0.011256135 0.00040345726
0000c0 53 a9 1e 3d 6c 79 a8 3a f5 f8 78 37 98 8e 0e ba
       0.0387357 0.0012853569 1.4839917e-05 -0.0005438118
0000d0 13 ad 70 3d ce 6a 1e b8 0b 9e 86 bc 3e af 5d 3d
       0.058758806 -3.7769605e-05 -0.016432783 0.054122202
0000e0 1b 4a 92 3c e0 f1 ca 3b e5 08 48 3c 35 e9 04 3b
       0.017857602 0.0061933845 0.012209152 0.0020280604
0000f0 03 8a 8e bc ee 30 5e bd 5a 9c 1c ba 0c 2d 63 b7
       -0.017399793 -0.05424588 -0.0005974226 -1.3540743e-05
000100 59 11 80 3d d2 b4 34 3c f8 bb 96 b9 56 66 d9 3b
       0.06253309 0.011029439 -0.00028750277 0.006634514
000110 03 45 81 3d c7 89 1a 3c 54 04 52 3b 0a 3a a8 3c
       0.06311991 0.009432263 0.0032046037 0.020535488
000120 f3 8d f3 bc df c6 2f bd dc 82 08 b9 0e 77 f9 3b
       -0.029730773 -0.042914268 -0.0001301872 0.0076130694
000130 dd 77 39 3b 77 09 ec bb 20 22 ee ba 42 a7 5e bc
       0.0028300204 -0.0072032767 -0.0018168129 -0.013589682
000140 60 7f 2e 39 58 43 ab b9 e7 4e e6 3b a3 2c 7e 39
       0.00016641384 -0.00032665837 0.007028449 0.00024239956
000150 79 dc eb 37 47 07 70 bd 1b bb e7 bc 0c 3b 99 b9
       2.8116849e-05 -0.05860069 -0.028287461 -0.00029226427
000160 5e 90 34 3c 7f 76 87 39 d6 15 1e b9 6b bd f7 b7
       0.011020748 0.00025837493 -0.00015076189 -2.95329e-05
000170 4b b7 49 bc f5 8a f1 ba 57 b6 0e bc fa 68 01 bd
       -0.012311767 -0.0018428253 -0.008710465 -0.031594254
000180 c5 d3 a0 bc 67 59 18 ba 89 2f 56 bd 25 32 71 bd
       -0.01963223 -0.0005811662 -0.052291427 -0.058885712
000190 c6 e1 95 ba ea 8e 9c b7 15 ef 58 3c 18 fe 81 b8
       -0.0011435084 -1.8663199e-05 0.013240595 -6.198528e-05
0001a0 be 7d 98 38 94 7c f2 bc 49 bd ac 3c 08 43 a2 3d
       7.271346e-05 -0.02960042 0.021086352 0.079229414
0001b0 83 1d 03 bc dd c8 92 bd b8 76 04 3c 03 97 f6 39
       -0.008002642 -0.07167218 0.008084945 0.0004703329
0001c0 59 bc 7b bd 05 e9 e7 3b d8 60 51 b8 e5 a8 09 3d
       -0.06145892 0.0070773386 -4.9919676e-05 0.033608336
0001d0 8e 4f 53 bd 04 2c 59 bc 08 68 c5 bb ca e3 b4 3c
       -0.05158954 -0.013255123 -0.0060243644 0.022081275
0001e0 fc aa f5 b9 bc d7 02 bd c4 d4 0e 3c 12 95 eb 3b
       -0.00046857435 -0.03194402 0.008717719 0.0071894014
0001f0 82 2e 7c bb 4c 93 1d 3d bb 59 fc b9 52 a0 a1 38
       -0.003847987 0.03847055 -0.0004813204 7.70694e-05
000200 4c c6 07 3d e9 de 9b 3d 83 2e ec 3b c6 1f 8a bc
       0.033148095 0.07610876 0.007207693 -0.016860854
000210 6d f4 b6 3c 38 d5 b5 3b c9 f5 15 bc 57 a4 8f 3b
       0.022333348 0.0055490993 -0.009152838 0.0043836045
000220 34 8b 69 3d d3 cc fe 3a 31 89 17 bb ec 55 90 3d
       0.05701752 0.0019439704 -0.0023122544 0.07047638
000230 f1 f6 80 3c f0 d2 7d 3d 54 05 83 3c 09 bf 3c 3a
       0.01574275 0.061968744 0.015993752 0.00072000973
000240 85 dc c1 3c 41 b4 10 bd df c0 0c bb 2b f6 c0 3c
       0.023664722 -0.035328154 -0.0021477265 0.023554882
000250 e8 83 1a b8 d2 3b b5 3c 69 76 14 bb 90 0f 21 3c
       -3.683931e-05 0.022123251 -0.0022653586 0.009830371
000260 ee b8 76 3d 4a f9 d0 3b 7c 8f 11 bd bc 80 25 3a
       0.060234956 0.006377374 -0.035537228 0.00063134334
000270 30 90 bb bc 72 bb 98 bc de 5e 6e 3d c1 2b 07 ba
       -0.022895902 -0.018644068 0.05819594 -0.0005156361
000280 1e c2 72 bd 5a 98 0a bb 72 92 e4 bc 75 03 a5 3d
       -0.059267156 -0.0021147938 -0.027901862 0.080573
000290 26 08 00 bc c5 1e dd 3a 60 45 2a bc 8e 7b 85 3d
       -0.007814443 0.0016870132 -0.010392517 0.06517707
0002a0 0b 78 e5 bd 59 b4 f4 bc 42 e8 46 3c 23 89 41 b9
       -0.11204537 -0.029871153 0.0121403355 -0.00018457002
0002b0 b8 f9 7c b9 01 93 31 3d 8f c7 4d 3c 43 bb 70 3b
       -0.0002412562 0.043353084 0.0125597855 0.003673271
0002c0 c8 c9 8d bd 31 a6 cc 3c ae 9a 69 bb d3 e2 8e 3a
       -0.06923252 0.02498159 -0.0035645175 0.0010901339
0002d0 2e 3f c6 bc df b0 56 bc e9 7b 42 3c 78 98 90 bd
       -0.024200048 -0.013103693 0.011870363 -0.07060331
0002e0 7c 99 44 bd fa d7 2e bb 30 08 39 3b 3a 29 80 bc
       -0.047997937 -0.0026679025 0.002823364 -0.015644658
0002f0 85 17 bd bd ba 67 30 bd a9 02 9f ba d2 10 b3 bb
       -0.092330016 -0.04306767 -0.001213153 -0.0054646516
000300 52 d0 a8 3c 68 d1 96 b7 86 4f 82 39 16 c1 75 3b
       0.020607147 -1.7978906e-05 0.00024854782 0.0037499121
000310 7b 8d 14 bd fd 31 ce b9 56 1d 85 3c 8b 2b e9 3b
       -0.03626774 -0.00039328626 0.01624934 0.0071157864
000320 f7 2d 08 3d ac c7 4e 3d 57 c9 a4 3d 5d 3c 2a 3d
       0.03324696 0.05048339 0.08046215 0.041561473
000330 0b 97 4c 3d 8e 7c 8d b9 fc 1c aa 3c a2 2d 04 3d
       0.049948733 -0.00026986416 0.020765774 0.03227008
000340 3c 51 94 3c 27 55 40 3a 09 54 e8 bd 0a a4 5f bb
       0.018105142 0.00073369074 -0.113441534 -0.0034124875
000350 a0 9b c7 39 34 25 0c bd 0c 8a 1d bc c1 c0 c6 ba
       0.00038072187 -0.034215167 -0.0096154325 -0.0015163646
000360 c9 88 95 3d bd be c7 bb 32 80 94 3a 62 a5 e2 38
       0.0730148 -0.006095736 0.0011329709 0.00010807325
000370 24 91 fc 3c 15 27 a8 3d 8c 0c 88 bd bc ef b7 3d
       0.030830927 0.08210579 -0.06643018 0.089812726
000380 b6 25 42 bc 17 dd bd bc 20 29 ad bd 25 44 20 3b
       -0.011849811 -0.023176713 -0.084551096 0.002445468
000390 ef 62 87 3d 76 7b d0 3b f4 64 ab bd ec 05 5c bc
       0.06610667 0.006362374 -0.08368865 -0.013429146
0003a0 5d 00 82 b7 32 76 20 bc dd 24 c2 3d 21 ee 71 bc
       -1.5497377e-05 -0.009793805 0.09479687 -0.014766247
0003b0 90 57 8a b9 4c e6 67 3d 9b a8 32 3d da a4 88 3c
       -0.0002638665 0.056616113 0.043617826 0.01668017
0003c0 07 04 43 bd b3 78 3f bc e6 9a d0 b8 1f 5d b1 3c
       -0.047611263 -0.011686492 -9.947065e-05 0.021650849
0003d0 f9 b8 ae 3d 74 42 e5 3a b3 50 4f bc df 4e 9c bc
       0.085313745 0.0017491118 -0.012653518 -0.019080577
0003e0 1e d5 97 39 d5 8e c6 bb 67 f9 8d 3c 64 f8 f0 bb
       0.0002895975 -0.0060595074 0.017330838 -0.007353829
0003f0 88 af 87 bd b2 e3 98 bd 54 00 8c bc 98 c1 a2 38
       -0.06625277 -0.074653044 -0.01709 7.7608216e-05

lin2.bias f4 [64]
000000 99 77 28 3d c6 2c 9d 3d d4 22 15 bc 36 80 d7 bb
       0.041129682 0.076745555 -0.009102542 -0.006576563
000010 9e b4 74 3d df 18 3d 3d 5e 5e 1d ba 89 42 a4 b8
       0.059742562 0.046166297 -0.00060031365 -7.8325225e-05
000020 fa 8e 50 3d 55 fd 1f bd 5b 8f a8 3d 10 69 39 bd
       0.050917603 -0.039059956 0.08230468 -0.04526621
000030 44 bc 89 3d 05 0b d3 bc 25 93 58 3d 82 87 cc bc
       0.06725362 -0.02576209 0.052874703 -0.024966959
000040 70 5d cf 3d 9e 62 91 3c 6b 15 52 bb e8 c7 a0 3c
       0.10125244 0.01774722 -0.0032056223 0.019626573
000050 fd 97 62 3d b4 48 6c 3d 2c 69 6f bc 4f 0a 1f 3b
       0.05532073 0.057686523 -0.014612477 0.002426762
000060 90 61 4d bc 9d d7 85 bc 20 ee 82 bd 51 d6 19 bd
       -0.012535468 -0.016338164 -0.06393075 -0.037557904
000070 c3 60 88 bd a0 d1 05 3d 7e 60 e3 3c f0 9d 38 bb
       -0.06659081 0.032670617 0.027755972 -0.002817031
000080 ff a2 b1 3d 72 7b 94 3d 75 f6 84 bc af 2b a9 3d
       0.08673667 0.07250108 -0.016230801 0.08260285
000090 3a d4 10 ba 2a 84 97 3d a2 29 8e 3d e3 41 55 b9
       -0.0005524788 0.07398255 0.069415346 -0.00020337808
0000a0 eb 34 12 bd 65 72 8e 3b ee 99 e9 bc 12 f4 86 3d
       -0.035694998 0.004347133 -0.028515782 0.065895215
0000b0 aa f2 96 b8 37 7e 3e bc fb ff 60 bc 68 b7 a1 3d
       -7.197757e-05 -0.011626772 -0.0137329055 0.0789631
0000c0 0c 44 1d 3d ae 18 7b bd 16 4d da b9 e6 b1 33 3d
       0.038394973 -0.061302833 -0.00041637634 0.04387083
0000d0 12 5e ea 3c 8f 1f 7a 3d c9 78 c9 3b 88 c0 41 3d
       0.02860931 0.061065253 0.006148432 0.047302753
0000e0 3f 49 cd b7 2a 2e 30 bd ca 3b 8b b8 e4 b0 c3 bc
       -2.4472012e-05 -0.043012775 -6.639173e-05 -0.023888059
0000f0 af 75 28 bd 8d 43 1d bd 9e 47 f5 bc 96 19 c1 bb
       -0.041127857 -0.0383945 -0.029941376 -0.0058929427

lin3.weight f4 [2, 64]
000000 7e 4b 14 bd 8a 87 c6 3d 4e 86 a4 bc 6a 12 4f 37
       -0.036204807 0.09693821 -0.020083573 1.2342449e-05
000010 52 1f b4 3b 99 f6 df 3d e4 b3 2a 3d 0d 36 ae b9
       0.0054968977 0.10935707 0.041675463 -0.00033228137
000020 0e c8 15 be f7 98 d1 3d 3b 00 14 be d2 31 fc bc
       -0.14627096 0.10234254 -0.14453213 -0.030785475
000030 b9 c6 8b 3d 02 77 96 3b 5b 59 52 bd 26 f4 50 bd
       0.06825013 0.0045918236 -0.051354747 -0.051014088
000040 4b 81 02 3e 72 b1 f1 3d 07 67 ff bb a2 ed a0 bc
       0.12744634 0.11801423 -0.0077942642 -0.019644562
000050 8c 64 03 be 38 de 0f 3b 16 43 4e 3d 12 ff 7e bc
       -0.12831324 0.002195252 0.050356947 -0.015563743
000060 e5 06 08 bd ed fd c9 3d 70 fc aa bd b0 d7 2f bd
       -0.0332097 0.098628856 -0.0834893 -0.042930305
000070 c9 03 3a bd a5 44 8e bc aa ab c9 3d 4f 9f b9 3c
       -0.045413766 -0.017366717 0.098471954 0.022658972
000080 99 02 f0 3d 48 cb a1 3d 04 18 92 bd 8a c5 54 3c
       0.117192455 0.07900101 -0.07133487 0.01298655
000090 fb 21 01 3d 99 7d e5 bd 66 1d 95 bd aa f8 90 b9
       0.031526547 -0.112055965 -0.07280998 -0.0002765109
0000a0 bc e3 4d bb a8 64 86 3a 06 23 53 3d 77 9e dd bd
       -0.0031416258 0.0010253387 0.051547073 -0.108212404
0000b0 66 74 cf 39 b7 ee 92 bc a1 91 83 3c 99 3f 0b be
       0.0003956884 -0.017936094 0.016060652 -0.1359848
0000c0 35 71 97 3d 36 99 7e bd 18 29 49 ba 8f 75 f8 bd
       0.073946394 -0.062157832 -0.0007673665 -0.121317975
0000d0 57 78 25 bd 1a a9 10 be f6 7e c2 bd 50 a3 7c 3d
       -0.04039797 -0.14127007 -0.09496872 0.061679184
0000e0 dd be 7b bc ef 8d 84 3d e9 72 3f 3d 9f 61 7b 3c
       -0.01536533 0.06472384 0.046740446 0.015343099
0000f0 00 15 ad bd e7 83 c0 bd d4 35 25 bd 45 99 1b bb
       -0.08451271 -0.094001584 -0.040334538 -0.0023742479
000100 39 68 b8 3d b3 5b 75 bd a7 17 07 bd f1 d5 c4 bc
       0.09004254 -0.059901904 -0.03298154 -0.024027796
000110 f9 b3 08 3e 37 05 b8 bd d7 55 40 3d 5e c2 50 bb
       0.13349904 -0.0898537 0.046956863 -0.0031854133
000120 17 86 91 bd f7 5d 71 3d 01 b5 78 3d 19 da de 3d
       -0.07105654 0.058927502 0.060719494 0.108814426
000130 2f 1c 2c 3c 1e 4b af 3d e9 d6 29 3d 51 ac a6 bd
       0.010504766 0.08559249 0.04146472 -0.081383355
000140 b2 45 6c 3d 6a 4c 8d bd 27 47 d6 3c ec 47 74 bc
       0.057683654 -0.068993405 0.026156975 -0.014909726
000150 65 c6 5a bd 38 48 07 be 56 c7 09 3e 6b ea 0a 3d
       -0.05341186 -0.13211143 0.13454947 0.033914965
000160 cc 65 7c 39 c2 bf 06 3c 81 41 04 3e e7 c3 bb 3d
       0.00024070515 0.00822443 0.12915613 0.09168225
000170 59 53 df bd c1 27 82 bc d4 e0 b4 3c 33 a5 61 3b
       -0.10904569 -0.015888097 0.022079863 0.0034430742
000180 a4 9b a3 bc 02 f7 3a bc 78 b7 89 bd 1c e0 90 bc
       -0.019971676 -0.01141143 -0.06724447 -0.017684989
000190 29 5e e5 b9 fa a1 8c bc 7e fa c7 bd 50 91 14 3a
       -0.00043748438 -0.01716708 -0.097645745 0.0005667405
0001a0 6f b3 0f bc 8d e6 95 bc 88 33 26 3c b1 c9 0e 3d
       -0.008770808 -0.018298412 0.010144122 0.034860317
0001b0 e9 dc 7e bc e1 dc 22 ba d8 02 0c 3e 19 9c b3 3d
       -0.015555599 -0.0006212723 0.1367296 0.08770008
0001c0 f1 b8 58 3d 2d 31 d9 bc e8 a2 fd b9 7f 32 b7 bc
       0.05291075 -0.026512707 -0.00048377295 -0.022362946
0001d0 be e3 aa 3d dc 63 ac 3d 5d 65 e3 bc 4b 51 bd bd
       0.083442196 0.08417484 -0.027758295 -0.09244021
0001e0 06 ad 4c bd 27 13 de 3c 8c 4a 35 b8 c6 e5 43 3b
       -0.049969696 0.027108742 -4.322319e-05 0.0029891594
0001f0 50 a2 10 3c 9b 36 67 3d d2 e5 bf 3d 07 66 b5 3c
       0.008827761 0.05644856 0.093700066 0.022143377

lin3.bias f4 [2]
000000 a0 a1 32 bb c2 c2 75 bc
       -0.002725698 -0.015000047
