models/new/#CONV=2_#POOL=1_Hidden=256_PoolR=0.7_RANDS=777.pth (torch, 930302 bytes, 11 tensors)

convpool_layers.0.conv.weight f4 [1, 256]
00000000: 693c 46bd 19b5 f93d 1d0c 27bd b094 19bd
00000010: e269 f03d 0877 e8bd 2b5b 9bbb a645 45bd
00000020: d9be cf3d 2034 16bd 330f 6b3d 1d99 6c3d
00000030: 8ab6 94bd 4e54 f5bd 84be a4bd 8baa 22bd
00000040: 35b3 d23d 3814 0b3e e6b2 11bb 16e6 70bd
00000050: a726 183e f474 d2bb 053a 87bb b0f3 e23d
00000060: f024 9fbc db94 193e 3fcc c8bd 1209 6fbd
00000070: 342b 81bb f6bc 783d b9b2 34bc f000 a73c
00000080: 9e94 9cbd 65c5 cfbb 815a c7bb ab31 113e
00000090: 198c aa3d 73ed a7bd 559d cabd d941 e7bd
000000a0: 6c1e 2b3d c056 bc3d aadf 07bd 5ca3 ec3d
000000b0: 5913 083d 04ba c53d 62a1 c93d b730 b53d
000000c0: e152 da3b 86c9 833c 0737 c4bd be8b 723c
000000d0: c22e 35bc f34a 9e3d 15f7 b73d 52a9 04bd
000000e0: 9d9f 8e3d 8547 97bd fd04 0c3e cd2a bd3c
000000f0: 6f86 21bd 2440 f3bd cc7d d83d bb96 94bd
00000100: 3ba2 5c3d 30b7 1b3e 37a9 9bbd b689 ef3d
00000110: 60b8 f7bc c343 df3a 351e 56bd 564b 123e
00000120: 74c3 2a3e f92e f13d 3096 ac3c 6afb 57bb
00000130: 18b9 e73a a1c3 213e 7f98 aebd 4b05 77bc
00000140: 73dc abbd 8f3d 08bc 0063 cd3b 5089 593d
00000150: 31cf 9a3c b569 853d fea6 30bc 27f0 eebc
00000160: 38cb a4bd 715e ebbd 144d 0abc e20a af3d
00000170: 51e3 c6bd 1f53 853d 8dca a13d 18e8 8dbd
00000180: b7eb 0a3e 3cb4 aa3d 4900 bebc 558f 0e3e
00000190: 136b 003e a874 c23d 9b29 0bbd 249a 723c
000001a0: 48fb e5bd ff88 ebbd 001c a53c 7b6e d5bd
000001b0: 5e4b d5bb 1664 8dbd 08c2 283e cc5d bebd
000001c0: f33f 203e e60b 5b3d 3025 c6bd 3d38 883d
000001d0: 5b79 e6bc 4616 923c 54c0 7c3c 8c69 a9bd
000001e0: c977 3e3d d671 a13d 9e19 fcbd e0bb 50bd
000001f0: a457 993d 6186 e0bd 8240 903d 28de 1e3e
00000200: 44ef 193c 20e0 f1bd 4d8d adbd a9e9 9b3c
00000210: 95b4 f83b cca2 0e3e 7dc5 a93d b5ef 6cbd
00000220: 71ed 8f3d 4162 3b3e 9c94 0c3e 629f 40bd
00000230: 2c71 acbd dad1 043e 921d f93d 9e71 00be
00000240: 17f6 ab3d 8589 a1bd 5e9d 853d 40f0 56bd
00000250: 7e6c 5abd bc17 d1bd edc0 39bd 1557 80bc
00000260: 1ebb cabd 7e3d 443d 1713 873d 9021 d53c
00000270: 5d44 13bd d26b 6abc 5d79 bebd 28c9 3e3d
00000280: b6f2 7a3c 5d6c 01bd f312 8bbd efb5 27bd
00000290: 1c28 01be bc17 b2bd bd89 083e 970f f53d
000002a0: 5388 cebc c221 833c ac67 0abd c42c 02be
000002b0: e8ca cdbc 75c5 0c3e 3b0d 90bb c912 963c
000002c0: 2ca1 c53d 4f02 023e a40a 053d 170f 203e
000002d0: 11ca 54bd eafe e5bd 61eb d23d 43f0 f13d
000002e0: 6330 5abd 1cbc dabc 00a8 0ebb ebe1 88bd
000002f0: f40d 193e 80b7 98bd 111d 733d 0a5d d63d
00000300: 9a12 a63d 72d4 8c3d 9906 023d a57a 70bd
00000310: b9a1 aebd c244 dbba c4da a43d 1d86 49bd
00000320: 1ff8 ca3d 2fd8 b9ba 225d 003d 5d69 30bc
00000330: c475 4c3d e451 c3bd f511 9c3d a369 61bd
00000340: 3044 553c 191f 9ebd 6ecb 893d 20d0 d3bd
00000350: 0fea 19bd 2c24 ae3d a616 a7bd 30d9 d0ba
00000360: 1e48 bb3d 4f52 0c3e 1cb3 d13c f738 0fbd
00000370: dadd 9f3b f4b1 003c 85fb 69bd 1e38 223e
00000380: b22f 35bd d73d 2f3d 8d9d 39bd f0c7 89bc
00000390: 1007 adbd 4da2 103e 7ac2 0b3e 47ea 8eba
000003a0: de78 15bd e37c 993d cd54 5fbd cf6c c5bd
000003b0: af40 ac3d e880 233e ee66 0fbd 4f59 c43d
000003c0: d8f4 c83d 588b 913c d2fe 7cb9 324f 7f3d
000003d0: 99a7 fd3c c650 6dbd a61b c3bd 4ad7 8abd
000003e0: 32a3 d4bd 39f3 803c 937c a1bd cd35 efbd
000003f0: b8b0 5dbc bf4c 073e 2ca0 083e 2b66 fc3d
-0.048397455 0.12192745 -0.040783037 -0.037495315 0.117389455 -0.113508284 -0.0047410927 -0.048162125
0.10143823 -0.036670804 0.057387542 0.057763208 -0.07261379 -0.119789705 -0.080441505 -0.039713424
0.10288087 0.13581932 -0.0022231876 -0.058813177 0.14858495 -0.0064226333 -0.0041267895 0.11081636
-0.019426793 0.1499819 -0.09804582 -0.05835826 -0.003941918 0.060727082 -0.011028939 0.02038619
-0.07645534 -0.00634067 -0.006083787 0.14179103 0.08327503 -0.08199587 -0.0989329 -0.11291856
0.04177706 0.09196234 -0.033172287 0.11554596 0.033221576 0.0965462 0.098452345 0.08847182
0.006662712 0.016087305 -0.09580808 0.014803825 -0.011058511 0.07729139 0.08982674 -0.03238804
0.069640376 -0.07386688 0.13673778 0.023091698 -0.039434846 -0.11877468 0.10570869 -0.07255312
0.053865653 0.15206599 -0.076006345 0.11696188 -0.030239284 0.0017033744 -0.0522749 0.14286551
0.16676122 0.117765374 0.021067709 -0.003295625 0.0017679064 0.15797283 -0.0852518 -0.015076946
-0.08391657 -0.008315458 0.0062679052 0.053109467 0.018897625 0.06514303 -0.010782002 -0.029167248
-0.080465734 -0.11492623 -0.008441228 0.085469976 -0.09711326 0.06509995 0.078999616 -0.06929034
0.1356648 0.08335158 -0.023193495 0.13921864 0.12540846 0.09494907 -0.033975225 0.014807258
-0.11229569 -0.11500739 0.020154953 -0.10421463 -0.0065092286 -0.069038555 0.16480267 -0.09295234
0.15649395 0.053478144 -0.09675062 0.066513516 -0.028134039 0.017832886 0.015426714 -0.082720846
0.046500955 0.078830406 -0.123095736 -0.05096042 0.07487419 -0.10963131 0.07043554 0.15514433
0.009395424 -0.118103266 -0.084742166 0.019032316 0.0075898864 0.1392929 0.08289621 -0.05784579
0.0702771 0.182992 0.13728565 -0.047027 -0.08420023 0.12970677 0.12163843 -0.12543342
0.08396547 -0.07887558 0.06524156 -0.052475214 -0.053326122 -0.10209605 -0.045350004 -0.015666524
-0.09898971 0.047910206 0.06595438 0.02601698 -0.03595387 -0.014307933 -0.09300492 0.046578556
0.015316656 -0.031597484 -0.06790724 -0.04094499 -0.12612957 -0.08695933 0.13333793 0.11965864
-0.025211489 0.016007308 -0.033790275 -0.12712389 -0.025121167 0.13747199 -0.0043961084 0.018319504
0.09649882 0.12696193 0.03248085 0.15630756 -0.051950518 -0.112302616 0.10298801 0.118134044
-0.0532688 -0.026701026 -0.0021767616 -0.066837154 0.14946729 -0.07456875 0.05935389 0.104669645
0.08109017 0.06876458 0.031744573 -0.058710713 -0.0852694 -0.0016728865 0.08049539 -0.049200166
0.099106066 -0.0014178808 0.03133882 -0.010767308 0.049916998 -0.09537104 0.076206125 -0.055032384
0.013016745 -0.07720775 0.06728254 -0.10342431 -0.03757673 0.08502993 -0.08158617 -0.0015933868
0.09144615 0.13703273 0.025598101 -0.034966435 0.0048787417 0.007854927 -0.057124633 0.1584172
-0.04423494 0.042783584 -0.045316268 -0.01681897 -0.08448613 0.14124413 0.13648406 -0.001090356
-0.03649222 0.074945234 -0.05452423 -0.09639894 0.08410775 0.15967143 -0.03501027 0.09587347
0.09812325 0.01776664 -0.00024127521 0.062331386 0.030963706 -0.05793836 -0.09526758 -0.067793444
-0.103826895 0.015740978 -0.07885089 -0.116801836 -0.013530903 0.1321287 0.1334235 0.123241745

convpool_layers.0.conv.bias f4 [256]
00000000: d517 4b3b d1ae 533c 0064 c5bb a795 62bb
00000010: cc60 ed3b ae47 aebb 4aa5 3cbb 1ea0 72bb
00000020: 2829 023b 9795 dc3a 6ae9 f9bb f389 c6bb
00000030: fecd 873b 0e05 ae3b 3e21 123c 83b0 adbb
00000040: 75d0 383b e253 333b 5d60 13bc 8d30 bf3b
00000050: fda7 b6ba c882 95ba 4d66 4cba 0c9f fd3a
00000060: 8876 623b 731e 763c 61ae 703b a906 9b3b
00000070: a8a0 e9bb 6d80 d3bb 9925 81ba 898f 61bc
00000080: 517f 10bb 8977 8bbb 4e9b 74bb 3666 7ebb
00000090: 077e 14bc 47ec b33b a27e 273c ddf9 bb3a
000000a0: 7e44 863b e607 ca3b 2353 b1bb de02 92bb
000000b0: 2cd9 2f3b 0307 973a 1a1a 9fbb 8256 3dba
000000c0: c17a 0fbc 0c08 f43b 6d9e d8bb 788e 47bc
000000d0: c901 c8ba eb73 94bb d8a3 b4bb 5ca1 5c3b
000000e0: 99d4 f2ba 2077 893b d047 2d3c f342 59bb
000000f0: 1f15 023b df3e a93b aaf7 a63b afd9 343c
00000100: b618 cd3b 0c86 313c 4af7 d7bb 651d bbbb
00000110: 5d9e e33a ec20 d4bc 9aae e63b 7e5a e2b9
00000120: ebed 3cbb 0f62 513b 7b6e 123c 14e1 9abb
00000130: 1abc b63b 7b7c b6bb aa95 a7ba 3a0a 8d3b
00000140: c1f2 f93a 8408 afbb 6e3d 29bc da8e f9ba
00000150: 3716 b8bb a235 3738 1d2b cebb 61b7 ec3b
00000160: 5048 0f3c 8f2e 0f3b 1c82 ed3a 4247 58bb
00000170: a883 85bb 69ff 9d3b 034f 953b a88e b93b
00000180: e81b af3a 1ff7 3d3c 567c 453b 0c3b ddbb
00000190: 32d8 a03b 263f a5bb 31d6 3c3b 945e 9bbb
000001a0: 56e1 e63b b8d7 a73b 5900 2bbc 4184 e2bb
000001b0: 5561 8dbb ccd5 f9bb 9d84 313c e3af d73b
000001c0: ee81 1a3c 39ac 093c dbb2 223c e519 383c
000001d0: 9d46 d93b 2554 41bc b6fd 02bc cdcd f9bb
000001e0: 3978 10b9 ec50 133b ae37 9ebb 761b 5e3b
000001f0: ebfd d63b 614e cf3b c8bc 583c f1df a43b
00000200: 0b2f acbb 8d2c 063c e7c1 413c 6487 28bc
00000210: a507 89bb ff44 4bbb 17bf 1cbc cb3c 4b3b
00000220: 9cc6 49ba 1b33 f83b 8aad 5b3c 4d73 b43b
00000230: 7050 aaba dabe f03b 8dff 6eba be6c 293b
00000240: 1661 1e3c 141d 4d3a 66b4 423b 0f60 683b
00000250: 044f 4a3b 768d 063c cfc3 4ebc 83a8 473b
00000260: d9ba a6b9 5099 523b 64a2 523c 38b8 9fbc
00000270: a725 093c 3192 18bc 8bd7 f83b 47e4 b8bb
00000280: 1fcc 85bc e743 a63b e7e1 103b d283 c03b
00000290: e627 5ab9 d461 b93b 4b38 923a a577 003c
000002a0: 2537 a43b 6042 69bc bb31 49bc f7d1 473b
000002b0: 27cf e83a e69c 043c 141c 40bb 0b75 31bb
000002c0: 07ae f73b e5af 063c 38d9 f73b 1224 8e3c
000002d0: 964e 0d3a 0a8c 123c d74e 463a 88b5 af3b
000002e0: 3232 a43b 8bf3 ba3a 43d5 ddba 02d7 953b
000002f0: 88e1 083c 1c1c 663c 946f 1bbb 3586 e6bb
00000300: d2e5 e3ba bf00 6a3a 023d f0ba 7778 ccbb
00000310: 3dae c73b e555 9aba 1fe6 353c 648c 31bb
00000320: 6131 a0ba 376e cfbb 10d2 98ba fa3d ddba
00000330: 118e aebc 67d7 9c3b e3a5 82bb 2e21 ca3b
00000340: 0ffd a6bb e674 073c 34c9 a73b 96dc 1d3c
00000350: cfbe 61b9 32d8 433c 743f 013c 4bfa d1bb
00000360: 5cd8 b23b e35b 3e3c 6097 d1bb 6c54 1eba
00000370: 6f33 dfbb 2004 bbbb 201b 233b 6b58 b73b
00000380: 133c e8bb 0e74 4c3c 724e 6abb 544a 663b
00000390: aba8 ab3b 4cf4 643a 034a 6fba 312f 81bb
000003a0: 890e 863b e9c2 c3bb e4db 823b a404 7cbb
000003b0: 5cc4 ba39 fcb0 29bc 46b3 d83b de46 6fbb
000003c0: f468 00bc c8b2 393b ac12 d8ba 9504 a3bc
000003d0: 5d47 263c db54 003c 589e 273c 3f9f 1d3b
000003e0: 9c1c 1cbb fe26 1bbb f0ca 0e3b 208e 693b
000003f0: 8898 25bb 6932 3a3c 224a 763c 6ee1 4d3c
0.0030989547 0.012920097 -0.006023884 -0.0034574063 0.007244205 -0.0053186035 -0.0028785043 -0.0037021707
0.0019860957 0.0016829249 -0.007626702 -0.0060589253 0.004144429 0.005310661 0.008919058 -0.005300583
0.0028200422 0.002736323 -0.008995143 0.005834645 -0.0013935562 -0.0011406774 -0.00077972264 0.0019349768
0.0034555513 0.015021908 0.0036725032 0.0047310186 -0.0071297474 -0.0064545185 -0.0009853124 -0.013767132
-0.0022048543 -0.004256193 -0.0037324014 -0.0038818247 -0.00906325 0.005490813 0.010223063 0.0014341433
0.0040975204 0.0061654923 -0.005411522 -0.004455908 0.0026832325 0.0011522475 -0.0048554065 -0.00072226685
-0.008757294 0.0074472483 -0.0066106827 -0.012179963 -0.0015259321 -0.00453042 -0.0055126958 0.0033665514
-0.0018526494 0.004195109 0.010576203 -0.0033151477 0.0019849015 0.0051649655 0.005095442 0.011038228
0.0062590493 0.010835182 -0.0065907585 -0.005710291 0.0017365922 -0.025894605 0.007039857 -0.000431735
-0.0028828334 0.0031949317 0.008937473 -0.0047265384 0.0055766227 -0.0055690384 -0.0012785692 0.0043041976
0.0019069539 -0.0053415913 -0.010329587 -0.0019039765 -0.0056178826 4.368055e-05 -0.0062917606 0.007224009
0.008745268 0.002184782 0.0018120441 -0.0033001457 -0.0040745325 0.004821707 0.004556538 0.005662758
0.0013359757 0.011594563 0.0030133924 -0.0067514237 0.004908585 -0.0050429283 0.0028814191 -0.004741499
0.007045905 0.005122151 -0.010437095 -0.0069127386 -0.0043145814 -0.0076243635 0.01083484 0.0065822466
0.009430392 0.0084028775 0.009930338 0.0112366425 0.006630732 -0.011799847 -0.00799506 -0.0076234103
-0.00013777697 0.0022478653 -0.004828415 0.003389088 0.006561031 0.006326482 0.013228603 0.0050315787
-0.0052546314 0.008189333 0.011826015 -0.010286186 -0.0041818195 -0.0031016467 -0.009567044 0.0031011577
-0.00076971366 0.0075744516 0.013408074 0.005506909 -0.0012993943 0.00734697 -0.00091170595 0.002585217
0.009666702 0.00078244624 0.0029709577 0.0035457646 0.003086985 0.008212438 -0.012619927 0.003046543
-0.000318012 0.0032134838 0.0128561 -0.019497022 0.008370793 -0.0093121985 0.007594054 -0.005642447
-0.016332684 0.0050740126 0.0022107305 0.005875089 -0.00020804963 0.005657414 0.0011155693 0.0078410255
0.0050114566 -0.014237016 -0.012279923 0.003049014 0.0017761932 0.008094048 -0.002931361 -0.002707782
0.0075585875 0.008220647 0.0075637363 0.017351184 0.00053904334 0.008944521 0.00075648486 0.0053622164
0.0050108666 0.0014263255 -0.0016924519 0.00457275 0.008354552 0.014044788 -0.0023717629 -0.0070350417
-0.0017387217 0.0008926503 -0.0018328729 -0.0062399465 0.006093769 -0.0011774866 0.011102228 -0.0027091736
-0.0012221747 -0.0063302773 -0.0011659283 -0.0016879432 -0.021307977 0.00478642 -0.0039870604 0.006168506
-0.005096085 0.008267617 0.005120421 0.009635111 -0.00021528754 0.0119534 0.007888664 -0.006408011
0.005457921 0.011618587 -0.006396219 -0.00060398015 -0.0068115513 -0.005707279 0.0024887994 0.005595257
-0.0070872395 0.0124788415 -0.0035752323 0.0035139518 0.0052386126 0.0008733913 -0.0009128155 -0.003942393
0.004091088 -0.005974163 0.003993498 -0.0038454914 0.00035622984 -0.010357138 0.006613168 -0.0036510746
-0.007837523 0.0028335322 -0.0016485057 -0.019899646 0.01014885 0.007832731 0.010230623 0.0024051217
-0.0023820763 -0.0023674364 0.002178844 0.0035637692 -0.0025267918 0.011364558 0.015032323 0.012565954

convpool_layers.0.pool.att f4 [1, 512]
00000000: d27b 213d 73b3 cb3d 44bd 1a3d 1ab5 823d
00000010: fa64 24bd e6ac 8d3b 14db 693c 63e7 cf3c
00000020: 9247 82bd ac12 78bc 76ca 6ebc c3aa 10ba
00000030: eddf 84bc 22d5 53bd c110 4b3d c1c4 eabd
00000040: bb27 88bd ca2f bd3c d473 e3bb 6fed ccbc
00000050: c7c0 af3c bb13 113a 6054 0d3a ad86 813c
00000060: b75f 8e3b b4d1 3fbd 22c4 67bd 7aa4 a0ba
00000070: 9e2b 8fba 9dd3 a4bd ae7e 4c3a b880 6dbc
00000080: d0a4 4c3d 3ee7 32bc c35c 803a d8fe f53c
00000090: 3600 053d dcab bcbc 79c6 f5bc d9ed 803d
000000a0: 579b 503a 3403 703d 5ff7 7f3d 9ae8 a5bd
000000b0: 89f0 793d 4b57 193b 402e 45bd 8ae2 83bd
000000c0: 079a e7bb 337e af3b 59ec 3c3d 0132 19bc
000000d0: 35a6 2539 cbc0 b13c b655 f4bc 9297 0e3c
000000e0: 7c89 f639 3eaf 41bc dd0d a1bc 1379 3e3d
000000f0: 6daa 58bc cc0b 6cbc eb11 903c 01a0 20bd
00000100: 6434 523d ec2d 1bbd 760e 2bba 1c84 48bd
00000110: 2d69 8d3c 3d8e db3a d3a9 043c 9bcf 9ebd
00000120: 2051 75bd fac5 4ebd 9c4b 3bbd b67c 66b9
00000130: 8185 53ba 3fa9 52bd 4dd8 b73d b10d 45bc
00000140: a333 113d 3f95 cd3c 9005 773d d067 36bd
00000150: f18d 3b3d 1c17 01bd eb2f 83bd baa5 f6bb
00000160: 6c73 d2bc fad5 813d a922 c03a 2929 edbc
00000170: 0ec3 a3bc abcc 16bb 0b32 e9bc 98bc ffba
00000180: bf9f a43d 9e03 4fbd fb8a d6bc bb0d 113d
00000190: d133 f9bd 856a 213d 2bdc fdb9 215a d0ba
000001a0: 1dc7 723c f1ee 41bd 5b11 4f3b 0eb3 fe3b
000001b0: 32f6 2bbc 8297 e23c 73cf f2bc ba56 e6bb
000001c0: de6f 1c3d 0dd2 933b 3761 a43d 67de dabc
000001d0: 3feb 81bd 14d2 02bc 1aa2 443b e25d 8a3c
000001e0: 55a6 ffbc d6a1 acbc 5cb9 6d3c 4d7d 50bc
000001f0: 7505 223c b48c bbbb aab0 9d3d 92db 8fbd
00000200: 839a ebba 3cc2 8ebb fd2c 06be 9665 d73d
00000210: 01a7 ccbc 5a18 323d c275 9c3c fdb0 02bc
00000220: 50a5 7ebd 3592 7a3d 6244 b03c 6ec8 8a3c
00000230: b6a4 6bba 27b0 5cbd ac09 d33b 2d2b fa3d
00000240: a5b8 1c3d 4022 313c 4e11 5cbc 1cc5 3bbb
00000250: a1bb 083d 08ff 40bb 64fa 803c ab92 8e3b
00000260: a669 403d dd81 733c 9207 b43c 1a2f d0bb
00000270: 4c54 35bb 0172 723a f824 52bc 4726 1ebc
00000280: dfe8 f3bb 300f 8cbc ce4d 3f3d 740b 39ba
00000290: ae4e eebb 25fd 2b3c d2e0 14bd 0e7b f0bb
000002a0: 392f 953a 9b3a 46bc d5d8 413c d777 1abc
000002b0: 230c 883b db2b ab3d 33f7 123a 85aa 413c
000002c0: 8447 a33d 2eef 603d b965 efbc 7998 62bd
000002d0: e2f0 cebb 9cb6 c8bc 6d8f bebc 5c29 07bd
000002e0: 4442 c3bb 5cc7 2f3d 0a82 3eba 3fb0 5ebc
000002f0: 9c56 623c cee7 3bbd 977c f33d 4ee6 9fbc
00000300: 03c8 10be 6722 213d 4b5b 00bd 95a3 cbba
00000310: 2b8e e1bb b53c ea3b 9b95 903c a0de 9b3d
00000320: 5cf1 43bc 362d 3c3a ddee 0cbc 90f5 93ba
00000330: 30d8 c93c 2cad f93b 19d2 36bd c8f8 b5bc
00000340: c6d0 cd3c 8624 3c3d 8b8d 283d 00b2 84bc
00000350: e33c caba 4993 21bd f77e 2b3d 2878 05ba
00000360: fba1 8cbc 5b32 a83c df6d 903d 69c4 3f3d
00000370: a261 e6b8 767a 06bc a585 ec3a 4eac b7bd
00000380: af63 8d3d 682e 15bd 56be 573c aaf1 183c
00000390: 614b 9c3c 2648 ccbc 1feb 5f3d 8695 7a3c
000003a0: e09a 1538 7524 873c 807a 593c 1448 cdbc
000003b0: 826d 573d 5462 2f3c d2a1 6439 1638 cbbc
000003c0: e2b4 953b ce0c 213c b652 783a 78aa 223d
000003d0: ac0b 823b 96f6 4fbd d122 a4bc 1ebb 6abc
000003e0: 355c 7dbb 2c26 33bb 05bb cc3c c742 29bc
000003f0: dffe cb3a 0cd3 5cbd a9b8 1abd f0f6 77bd
0.039424725 0.099463366 0.037778154 0.06382199 -0.04013536 0.0043235896 0.014273424 0.025378888
-0.06361307 -0.0151411705 -0.014574638 -0.00055186095 -0.016220057 -0.05171693 0.049576525 -0.11463309
-0.06648203 0.023094077 -0.006941298 -0.02501556 0.021454228 0.0005534251 0.0005391296 0.015811289
0.004344906 -0.046830848 -0.05658353 -0.0012256049 -0.0010923033 -0.080481745 0.0007800859 -0.014496021
0.049961865 -0.01091939 0.000979327 0.030028746 0.032470904 -0.023031168 -0.030001866 0.06295366
0.0007957718 0.058596805 0.06249177 -0.08101006 0.061020408 0.0023397978 -0.04813981 -0.06439693
-0.007067922 0.0053556203 0.046123836 -0.009350301 0.00015797543 0.021698376 -0.029826026 0.008703129
0.0004702321 -0.011821566 -0.01965993 0.046502184 -0.013224226 -0.0144071095 0.017586669 -0.03921509
0.051319495 -0.03788559 -0.0006525287 -0.048954114 0.017262066 0.0016750764 0.00809713 -0.07754441
-0.05989182 -0.050481774 -0.045726404 -0.00021980968 -0.0008068905 -0.051430937 0.08976803 -0.01202719
0.035449635 0.02509558 0.06030804 -0.044532597 0.045789663 -0.03151618 -0.06405624 -0.0075270804
-0.025689803 0.06339641 0.0014658767 -0.02895029 -0.01999047 -0.0023010175 -0.028466245 -0.0019511161
0.08038282 -0.05054056 -0.026189318 0.035413485 -0.12168086 0.039408226 -0.00048419958 -0.0015896001
0.01481798 -0.047347013 0.0031596038 0.00777281 -0.010495709 0.027660135 -0.029639935 -0.0070293816
0.038192622 0.004511124 0.08026355 -0.026717378 -0.06343698 -0.007984657 0.0030003847 0.01689047
-0.031207243 -0.021073263 0.014509525 -0.0127251865 0.009888996 -0.00572356 0.076997116 -0.070243016
-0.0017975125 -0.0043566506 -0.13103099 0.10517423 -0.024981977 0.043480255 0.01909912 -0.007976768
-0.062169373 0.06117459 0.021516982 0.016941275 -0.00089890824 -0.05387893 0.006440362 0.122152664
0.03826203 0.0108113885 -0.01343186 -0.0028651422 0.033382062 -0.0029448885 0.015744396 0.0043509803
0.046975754 0.014862505 0.021976266 -0.006353271 -0.0027668653 0.0009248555 -0.012826197 -0.009652681
-0.007443532 -0.017097086 0.04670506 -0.00070588966 -0.007272563 0.010497366 -0.036347218 -0.007338888
0.0011381871 -0.012098934 0.011831482 -0.009427986 0.0041518374 0.08357974 0.00056062936 0.01182044
0.07972625 0.0549156 -0.02922331 -0.05532119 -0.0063153366 -0.024501137 -0.02326175 -0.032998428
-0.005958827 0.042914733 -0.0007267302 -0.013591825 0.013814595 -0.045875363 0.11888998 -0.019518998
-0.14138798 0.03933945 -0.031337064 -0.0015536422 -0.006883403 0.00714835 0.017649462 0.07610822
-0.0119594 0.0007178368 -0.008601871 -0.0011288393 0.024639219 0.0076195206 -0.04463396 -0.022213355
0.025123965 0.04593327 0.04115061 -0.016198158 -0.0015429523 -0.039447103 0.04186913 -0.0005091452
-0.017167082 0.020531824 0.07052206 0.04681817 -0.0001098544 -0.008207908 0.00180452 -0.089684114
0.06903779 -0.03642121 0.013167938 0.009334961 0.019078912 -0.024936747 0.05466759 0.015294438
3.5668607e-05 0.016496876 0.013273835 -0.025058784 0.05259467 0.010704596 0.00021804057 -0.024807017
0.004568682 0.009829713 0.0009472774 0.039713353 0.0039686766 -0.050772272 -0.020036133 -0.014326839
-0.0038659696 -0.0027335985 0.024991522 -0.010330862 0.0015563628 -0.053912207 -0.037773762 -0.060538232

convpool_layers.1.conv.weight f4 [256, 256]
00000000: af24 97bb 5e6f 1abb 1b0a d5bb 1dc6 20bc
00000010: 567c b439 d748 d93b 583b 69bc 5c38 7738
00000020: c58c ab3c 7b38 833a 348b 46ba 2088 943c
00000030: a02d 2b3d 821d ed39 dbc3 713c b8ba 47bc
00000040: 1738 e739 7aaf 643c 1372 a2bc 480c 0338
00000050: f04f 91bb 1751 f3bc f2bd 6038 ab73 32bb
00000060: 2394 c13a 5f6f bcbc 9604 04bd bb6b eaba
00000070: 0880 0ebb 1eaa 803c 70fa afbb 5c0e c2b8
00000080: fd81 aaba 38e1 87bc d246 a438 1dba fa3c
00000090: ecb8 f73a ad76 fdbc ee24 a73c df40 f73a
000000a0: 983c f73c b896 46bc a402 5abc b034 3b3a
000000b0: b71a 73bb 81e8 ee3a b66d 4dbb 2a1b ccba
000000c0: 6f84 f53c 408f 28bc 2062 a139 d54f 07bd
000000d0: f5d2 c6ba 67ad 73bb 9e48 70bb 0706 20bd
000000e0: 1769 f4ba e473 053b 5c7c 853c 1f3a 853c
000000f0: c89e 183a 6fdf 92bc 209a 4cb7 e75a 33ba
00000100: eed0 e13a b29b 6bbc 92f6 42bc c6be b6ba
00000110: d20f b9b9 8292 44bc a213 4c3b fc02 edb8
00000120: e47e 933c e775 203c d4d0 413a 72c0 3b3c
00000130: 3ae2 dbbc d6a0 aa3a d26d bfbc 2784 28b9
00000140: 57b8 fd3c c1bf 213d 129b 0a3b b3fe 173d
00000150: 21c6 f1bb 64e9 dfb9 8786 643a 69b2 ea3a
00000160: 7037 39b9 0d04 02bb 56f1 253b 6db3 37bc
00000170: 87af 323a 921e 04bd 2963 b5bc 41ca 3ebc
00000180: d8f2 a0ba 40f4 febc 0c5c d9b8 70af 0d3a
00000190: dcb8 c33a faef 1bbd 7faa 283a cc2f 0a3d
000001a0: baaf 06bb b7e6 07bd bb76 fd38 58ef 1a3b
000001b0: ec7a db3c c041 093b e018 733a 41b6 ab3a
000001c0: 4945 a33a 611c 28b9 6554 023a 04ce 0c3d
000001d0: 440e 413c 438d 15bc f1c0 c0ba 40ea 363b
000001e0: 0f64 093c d62c 213d 8714 7f39 7fec a13a
000001f0: 468d 56bc a39c 1abd 965e a33c eee3 0338
00000200: 00d1 57bb 2235 233b f0a8 83bc a487 4dbb
00000210: 8977 093d 7f8d 04bb 6ec5 b13a badd 043a
00000220: 502c 7f3a e634 273d 6cc6 773b 9048 e1bb
00000230: 3d1a 083b 7d1a ffbb 9024 4f3a 75ac f537
00000240: 275f c6bc c147 01bd ff30 10ba 193b a8ba
00000250: a44c 1f3a 23bd 7d3a d162 04bd 7cd6 cabc
00000260: 2308 5fbc dca2 12bd 1c3e 473b f0e5 98bc
00000270: 90a8 3b3b 12c3 293d f6a0 5abc f602 02bd
00000280: 41f6 143b ee57 94bc 99d2 4d3a 0e17 0bbb
00000290: 832a 933a 27fc c0bc b42f e2bc 631c aa3c
000002a0: 04f6 5e3a c33f 51bb 59e4 e13b fc0e 603a
000002b0: ed73 233d fc7c b33a fe78 543c 9d5d 12bd
000002c0: ab5a 053d 34ef a43b 0651 d33a ba48 8d3b
000002d0: 3666 70bb ab7f 233a 48cb bfbc 06c3 cd3c
000002e0: d2a0 853c 1378 403a 2af1 8339 7af1 b6bb
000002f0: 177a a439 324b 043b b7cc 5239 1617 4439
00000300: 8e25 3b3c 97fc 00bd 0b28 9bbb 9671 9a3c
00000310: aacd bb3a 5cd4 3239 e9a0 223d e0a5 503a
00000320: 2da7 9bbc 9e20 2d3a b950 b239 f5ed c13c
00000330: 0491 063a b2db faba 2778 de39 fae9 a23c
00000340: fb4e bcbc a85c c43a 0b30 32b8 2248 7fbc
00000350: e9f9 1e3c cd38 ccba 5ce8 1b3b a511 6e3a
00000360: f34f 0d3b d5be fa3b 9142 61bb 153f fcba
00000370: 300e e8bc 4722 d33c 7f8a b0b9 04dc 443a
00000380: 9dfb e4bb a881 e33c 46ba 163b cd45 193a
00000390: 19f0 26ba 37e4 63bb 002c ae3a f248 5bbc
000003a0: b024 ca3c 4290 783c 0a99 083d cc32 f7ba
000003b0: 3fc0 883a 74f9 823c 3470 dabc 3847 cc3a
000003c0: d12d 3c3b de60 ccb7 c84f 1bbc b200 a63c
000003d0: ed62 97bb d00f 88bc 6c6a f5bb cdd8 343b
000003e0: f1e7 163d 17b3 01bd 02c7 5b39 bc26 c73b
000003f0: 3c09 dbbc c805 20bd cdd4 92bc b62b 67ba
-0.0046125273 -0.0023564915 -0.006501449 -0.009812859 0.00034424913 0.0066309976 -0.01423534 5.8941878e-05
0.020941148 0.0010011339 -0.00075738435 0.018131316 0.04179156 0.00045226148 0.014756168 -0.012190513
0.00044101544 0.0139578525 -0.019829785 3.124427e-05 -0.004434578 -0.029701753 5.3582662e-05 -0.0027229588
0.001476888 -0.023002325 -0.032230936 -0.0017884889 -0.0021743793 0.015706118 -0.0053704306 -9.2533155e-05
-0.001300871 -0.016586885 7.833321e-05 0.030606324 0.0018899716 -0.030940378 0.020403352 0.0018863938
0.03018026 -0.012120895 -0.013306294 0.0007141335 -0.003709478 0.001822725 -0.003134591 -0.001557206
0.029970376 -0.01028806 0.00030781422 -0.033035118 -0.0015169071 -0.0037182213 -0.0036664377 -0.039068248
-0.0018647042 0.0020363266 0.01629465 0.016263066 0.0005822 -0.017928807 -1.2195233e-05 -0.00068418536
0.0017228404 -0.014380382 -0.011899607 -0.0013942353 -0.00035297737 -0.011997821 0.0031139632 -0.000113015965
0.018004842 0.009793735 0.00073934835 0.011459457 -0.026841272 0.0013017904 -0.023367796 -0.00016070959
0.03097169 0.03948951 0.0021149558 0.037108134 -0.007378355 -0.00042707764 0.0008717556 0.0017905954
-0.00017663627 -0.001983884 0.002532085 -0.011212212 0.0006816317 -0.032255717 -0.02214201 -0.011644901
-0.0012279404 -0.031122327 -0.000103645114 0.00054048654 0.0014932412 -0.038070656 0.00064340973 0.03373699
-0.0020551519 -0.03317901 0.000120860954 0.0023641195 0.026792012 0.002094373 0.0009273421 0.001310058
0.0012456562 -0.000160323 0.0004971682 0.03437616 0.011783186 -0.009127918 -0.0014705939 0.002791062
0.008385672 0.0393494 0.00024326342 0.0012353807 -0.013095206 -0.037747037 0.019942563 3.144511e-05
-0.003293097 0.0024903496 -0.016071767 -0.0031361366 0.033561263 -0.002022594 0.0013562867 0.000506844
0.0009734081 0.040821932 0.0037807478 -0.006875105 0.0020767592 -0.00778514 0.00079018716 2.9286583e-05
-0.024215294 -0.03156257 -0.0005500465 -0.0012834995 0.0006076789 0.00096793676 -0.0323208 -0.024760477
-0.01361278 -0.035799846 0.003040201 -0.01866433 0.0028634407 0.0414458 -0.01334404 -0.031741105
0.0022729787 -0.018108334 0.0007851511 -0.0021223458 0.001122788 -0.023557736 -0.027610637 0.020765489
0.0008505287 -0.0031928874 0.0068936762 0.0008547155 0.039905477 0.0013693864 0.0129683 -0.035733808
0.03255717 0.005033398 0.0016122169 0.004311648 -0.0036682016 0.00062369806 -0.023412362 0.025117408
0.016312037 0.0007342111 0.00025165948 -0.0055829855 0.00031371482 0.0020186421 0.00020103423 0.00018700617
0.011422528 -0.03149089 -0.004734998 0.01885299 0.001432826 0.00017054513 0.039704237 0.00079592876
-0.019000614 0.00066042866 0.0003401095 0.023673037 0.00051333033 -0.0019138961 0.0004243266 0.01988696
-0.02298688 0.0014981227 -4.248325e-05 -0.015581163 0.009703138 -0.0015580893 0.002378962 0.0009081609
0.0021562546 0.0076521435 -0.0034371952 -0.0019244874 -0.028327078 0.02577318 -0.00033672524 0.00075095915
-0.0069880025 0.027771786 0.0022999211 0.0005846888 -0.0006368175 -0.0034773478 0.001328826 -0.013384091
0.024675697 0.0151711125 0.033349074 -0.0018859743 0.001043327 0.01598809 -0.02666483 0.001558519
0.0028713832 -2.4363802e-05 -0.009479471 0.020264003 -0.004619947 -0.016609102 -0.007489493 0.0027595044
0.03684229 -0.031664934 0.00020959604 0.0060776155 -0.026737802 -0.039068013 -0.017923737 -0.0008818464

convpool_layers.1.conv.bias f4 [256]
00000000: 5b71 1bbc dd69 1bbc 9e5e 15bb 8714 5ebb
00000010: a02f 60bc e7da 50bb 9237 eebb 70ec 073a
00000020: 10c8 e1bb 58e1 c3bb 624e 20bc c221 75bc
00000030: 383e 20bc 1341 1cbc edb9 0ebc e6a8 cebb
00000040: dbf8 a4bb 096d e4ba 423a 6339 09f4 9838
00000050: 0625 83bc 0000 0000 c626 e6b8 c30e c3bb
00000060: 0548 24bc f0f6 38bc 3611 efbb 1f57 bcbb
00000070: c1ca 9fbb 4ace 5abc 0000 0000 92f1 7b3b
00000080: 64d8 b2ba 3e5c 0bbc b781 64bc c8d0 f7ba
00000090: d7ab 40bc f9d0 c73a 58e7 ff39 1699 17bc
000000a0: 1495 d2bb ef98 2fba 5c58 dcba de20 74bc
000000b0: bd72 66bc ea65 f1ba 79a7 15bc a9e3 babb
000000c0: da3f 03bc fa9e 28bc c29d debb 72f1 80bc
000000d0: a032 85ba 1854 5abc 9259 6bbc c448 4dbc
000000e0: f981 05bc c7a5 db3b 9c75 1dbb db77 93bb
000000f0: bc3e 3ebc b87e eebb 0000 0000 0000 0000
00000100: bed6 ccbb 365e 1bbb 60a4 03bc 7d21 82bb
00000110: 0000 0000 e826 7538 b5b7 13b9 eba6 16bc
00000120: fa3f 11bb bd8b 15bc f2ec c7bb 7f0f 993a
00000130: f37b 1d3a e0c9 4cbc 3885 3b3b 9253 03bc
00000140: cab4 e7bb 6350 6abc 411c 1dbc 728e 3bbb
00000150: 2fb3 6ebc 0000 0000 1e39 cabb 0c09 0cbc
00000160: ad78 1a3b 3a34 a33a cba0 97bb 13e5 a2bb
00000170: 5885 37bc ee40 5dbc 79c3 63ba cf70 ffbb
00000180: 6a70 a2bb 3635 87bc d8da d3ba ef8c 54bc
00000190: 0a22 8cbc 546d edbb a188 01bc a3c6 bfbb
000001a0: 630c fc3b 0000 0000 708e 87bc 97f6 dc39
000001b0: 4e5d 3c3b 9da2 9bbb 64ca 8c39 17fc 48bc
000001c0: e2ab 83bb 8e25 a7bb c4a5 d73b 8e16 f8bb
000001d0: 5557 e1bb 00c9 3ebc e70f 81bb 83f5 8bb9
000001e0: f280 d2bb 4558 73bb 9cbf 89bb 514f d3b9
000001f0: a071 10bb a603 a4bb 9cbf abbb 0000 0000
00000200: 9f29 23bc 29d3 eebb 8df1 873b 3cc2 00bc
00000210: 0cd9 09bb 3838 87ba a41d 22bc 290a 4a39
00000220: 2287 a4bb b53f 123a 31bd 39bc 0000 0000
00000230: ecf8 b5bb 0000 0000 024e 33bc 0000 0000
00000240: 0000 0000 0000 0000 0000 0000 1cfc 483b
00000250: b0a6 a7bb 0000 0000 90db 60bc 0000 0000
00000260: 478d 043c 1969 0cbc 352e c2bb a164 99bc
00000270: 0000 0000 d431 67bb 992c a9bb 3f3b 93bb
00000280: d5ef 2cbc 571b ff39 91bd 00bc 8b03 063a
00000290: 7dc1 ccbb b3b0 72bb 8a0b 59bb c851 8cb9
000002a0: 7661 073c a769 39bc 2e5b d5bb 953c 813a
000002b0: 8706 773b cddf 80b9 0000 0000 6b00 10bc
000002c0: 9f46 003b 0000 0000 f58a f5bb 0000 0000
000002d0: 6690 543b 0000 0000 116c dcba 5374 e6bb
000002e0: aa45 c5bb 0000 0000 e5b4 8db9 f248 9e3b
000002f0: 5e6f e6ba f4f1 9f3b beb6 63bc 0000 0000
00000300: 741e 45bc 0ac1 1ebc 1211 36bc e7af 44ba
00000310: 3606 bb3b ae08 76b9 84dd 33bc 18e4 78bc
00000320: f166 1dbb d885 8938 7ff9 9fbb 5cc0 62bb
00000330: 0000 0000 0000 0000 0000 0000 64ef 90bb
00000340: f3f6 e3bb 4241 3c3c 0000 0000 3c29 2d3c
00000350: c2e1 0d3a 0280 bebb 4c1f 383c 6214 abba
00000360: ec22 28bc 024b cfbb 77a1 cabb fc7e c6ba
00000370: 5bd8 4e3a 0078 94bb b9fd a3ba 4ec2 a0bb
00000380: a602 0ebc 662a 21bb 4f33 ccbb b964 1cbc
00000390: 0000 0000 520f 56bc ac52 07bc 0000 0000
000003a0: b61b 0cbc d187 49bc 7782 22bc bb11 39bc
000003b0: dbe7 42bb 0000 0000 eb9d 3dba 462f 81bc
000003c0: 0000 0000 0000 0000 71ac 38bb b615 62bb
000003d0: 0000 0000 b8f2 003c f7ce b6bb 06bd 163b
000003e0: 3243 51ba d928 27bc 0670 53bb 0000 0000
000003f0: 0403 57bb 0000 0000 4c02 ddbb 0c4d 8d3a
-0.009487475 -0.009485689 -0.0022791992 -0.0033886747 -0.01368323 -0.0031868757 -0.007269808 0.0005185073
-0.0068903044 -0.005977791 -0.009784313 -0.014961662 -0.009780459 -0.009536999 -0.00871132 -0.0063067554
-0.0050345487 -0.0017427515 0.0002167011 7.29338e-05 -0.016008865 0.0 -0.00010974477 -0.0059526875
-0.010026936 -0.011289343 -0.007295753 -0.0057476903 -0.004876465 -0.013354847 0.0 0.0038443548
-0.0013644812 -0.008505879 -0.013946942 -0.0018906826 -0.01175972 0.0015244774 0.00048809755 -0.009252807
-0.006426463 -0.0006698509 -0.0016811001 -0.014900414 -0.014065442 -0.0018417214 -0.009134167 -0.0057034087
-0.008010829 -0.010291809 -0.0067937085 -0.01574013 -0.0010162182 -0.013325714 -0.014364617 -0.012529556
-0.008148664 0.006703112 -0.00240264 -0.004500372 -0.011611637 -0.0072782896 0.0 0.0
-0.006251185 -0.0023707277 -0.0080347955 -0.0039712773 0.0 5.8448786e-05 -0.00014087449 -0.00919507
-0.0022163377 -0.0091275545 -0.006101244 0.0011677592 0.00060075446 -0.012499303 0.002861334 -0.00801553
-0.0070711123 -0.014301392 -0.009589256 -0.002861884 -0.014569088 0.0 -0.0061713597 -0.008547079
0.0023570464 0.0012451478 -0.0046273223 -0.0049711554 -0.011201225 -0.01350425 -0.00086884905 -0.0077954303
-0.0049572485 -0.016504865 -0.0016163243 -0.012973054 -0.017106075 -0.007245699 -0.00790611 -0.0058525368
0.0076919063 0.0 -0.016547412 0.00042145394 0.0028742137 -0.0047496096 0.00026853674 -0.012267134
-0.0040182928 -0.0051009124 0.00658104 -0.007571048 -0.006876866 -0.011644602 -0.0039386633 -0.00026695066
-0.006424063 -0.003713147 -0.00420375 -0.00040304151 -0.0022040382 -0.0050053177 -0.0052413475 0.0
-0.009958654 -0.007288356 0.004148668 -0.007858809 -0.002103391 -0.0010316437 -0.009894762 0.00019268006
-0.005020992 0.0005578951 -0.011336611 0.0 -0.0055533554 0.0 -0.0109438915 0.0
0.0 0.0 0.0 0.0030667847 -0.0051163062 0.0 -0.013724223 0.0
0.008090324 -0.008569979 -0.0059259185 -0.018724741 0.0 -0.0035277503 -0.005162787 -0.0044931467
-0.010555227 0.0004865776 -0.007857696 0.0005112222 -0.0062486515 -0.003703159 -0.003311845 -0.00026763813
0.008262983 -0.011316693 -0.0065111136 0.0009859974 0.00376931 -0.00024580807 0.0 -0.008789162
0.0019573343 0.0 -0.0074933716 0.0 0.00324347 0.0 -0.0016816874 -0.00703291
-0.0060202675 0.0 -0.00027028393 0.004830473 -0.0017580797 0.004881138 -0.01389855 0.0
-0.012031186 -0.009689579 -0.011112468 -0.0007503018 0.0057075275 -0.00023463622 -0.010978106 -0.015191101
-0.0024017657 6.5575994e-05 -0.004882037 -0.0034599518 0.0 0.0 0.0 -0.004423069
-0.006956929 0.011490168 0.0 0.010568913 0.00054123637 -0.0058135996 0.0112379305 -0.0013052339
-0.010262232 -0.0063260803 -0.006183799 -0.0015144045 0.0007890516 -0.0045309067 -0.0012511528 -0.0049059754
-0.008667624 -0.0024591922 -0.0062317024 -0.0095454985 0.0 -0.013065176 -0.008259457 0.0
-0.008551529 -0.012300448 -0.009918801 -0.011295731 -0.0029740247 0.0 -0.00072333094 -0.015769612
0.0 0.0 -0.0028178955 -0.0034497804 0.0 0.007870369 -0.0055788714 0.002300085
-0.000798273 -0.01020261 -0.0032262816 0.0 -0.0032808194 0.0 -0.0067446586 0.0010780408

lin1.weight f4 [256, 512]
00000000: 8691 a63a d0a5 4dbc 440e 063b 10e2 f53a
00000010: 5d61 693c c9a1 3abc d485 063c f1a9 173b
00000020: f0ba 98bc 97e9 b73b 463e b43c 2aff c13c
00000030: 741d c43c 1812 12bc 3c80 823b ab9d 28bc
00000040: 787f e13c f119 5b3c ca91 a83a 9659 123b
00000050: 2e8a 303d 65f9 e5b9 e6e1 993a 1f68 ecbc
00000060: 9d86 9e3c 458a cabc 79e2 463c 2e91 5c3d
00000070: 1ecf 013a a485 553d ff7a 9c3a 4df0 0b3d
00000080: c97e bf3c 97ad aa3b 9e76 003d ed6a 2bbc
00000090: 43f4 cd3c dc07 533b 6590 2ebb 8e6e c13c
000000a0: b854 de3c 1dd4 d23c b486 d33a fc17 b53c
000000b0: fa4a 093d 0721 483d db1e da39 2ac4 fdba
000000c0: b834 353d cb75 893a 7b4d a03c 573e cc3b
000000d0: fb62 8d3a ed1f c93c 112c 313d a8de ae3b
000000e0: 8d87 f93c 32a2 643b 78c1 173d 6f03 abbb
000000f0: 6119 08bc f380 3f3d 2832 043d 04b2 413b
00000100: 757d 35bc d632 92bb 3578 2bbc ea60 df38
00000110: 0302 f03a 6733 423b 4356 153b b295 c83c
00000120: 6a19 93bb d5b4 433d 6c17 063d b8ad 93b8
00000130: f2e1 1bbc 6092 603c 6d5f 7e3b e43d 2f3a
00000140: 9f7b d0bb bfda 853c d3ee 1c3d 9c1e 943c
00000150: e19b 713c 7676 223d 7e47 cebb 8164 153c
00000160: 2ba5 3c3b 7f75 b73b 4ab1 5939 9e61 2e3c
00000170: e595 ed3c 28f6 d8bc 8cca 40bc 1289 ce3a
00000180: 0db8 8dbc 702b ddbb d21f 6b3a e796 cc3c
00000190: 4445 0d3b 4860 463c 313a b23c 4b96 9dbc
000001a0: 9a85 9d3b 02f3 073b fba4 423d 97c8 583d
000001b0: 17d3 8138 40b7 3d3b 35ce 823c 8b36 263d
000001c0: 8ed9 013d d973 ecbb 454f 833b 5e15 0a3d
000001d0: d43f 6bbb f245 a43b 53e7 703c 758e 0c3d
000001e0: 6322 d4bc 4897 6ebb d7dd d73b 2430 133d
000001f0: 4243 a3bc 2c34 40bc 7c42 253d 4f4b 163d
00000200: 4fe0 15bc eaef 3abb 0efa 653b ee2a c33c
00000210: ad55 15bc a33c d53b 72d7 ae3c 65ed 223b
00000220: 347f 2d3d fd7d 233d ed0c c7bc d107 193b
00000230: 8c4b 023d ea46 f9bb 000d 0c3d 9666 be3b
00000240: 31d6 423d e3b7 793b a16d 4ebc 3c7d 103b
00000250: db21 f9bb 2f18 803b 07dd 8dbc 4e76 c63a
00000260: 9be1 cd3a 5dc7 8a3c ec2a c5bc 8ca2 3c3c
00000270: 7321 013b 3f27 c0ba fb67 02bb c7c7 fabb
00000280: d429 ca3c 943f ec3a 4af7 9c3c cacb 08bb
00000290: 8e31 643d a4ad 64ba 826f d23c 0a8b af3c
000002a0: 334f 78ba d56d b93c 5380 b23c 868c 883b
000002b0: 24b0 943a ff5a df3c 18d4 4739 0c13 e53c
000002c0: 78fa 3439 7d23 853c 03e6 043d bd08 42bc
000002d0: acde 4b3b 6ddd 893b ab18 e53c 3ac0 f83b
000002e0: d6eb 2f3b 9ba4 bc3a 78ce 973a 293a 563b
000002f0: 9359 02bc 4775 603b b2d6 4ebc b015 a9bc
00000300: 5b22 8ebc 6ffa cc3c 9c48 013b 32fb 2f3d
00000310: 1605 5b3b c2b4 9dba d130 c73c 0551 1d3d
00000320: 96d4 c83c 3543 c3b9 1254 6f3a 1c0b d8b9
00000330: db6a 093d 52ed 3f3b 40e1 293d d20d 4abc
00000340: 2294 153d ed17 253b 48fa 243d 0a93 883b
00000350: 0740 663a 6a32 ebbc f703 643b a009 70b6
00000360: 943e 403d bdf3 cc3c 056f 243d 3835 c83a
00000370: 356c 08bc ce5d 263b a174 2d3c 08dc 583b
00000380: 19cf 453d d9ba cdbc d5a2 23bc ecb4 323d
00000390: 8e7e 723b c946 193d 3a16 4a3d 4dea e839
000003a0: 081c 173c 6bee b63c 19d0 b93c 8eb6 ce3c
000003b0: a629 823c 5c93 e33c e5d6 263d efa6 183d
000003c0: 71f5 9b3c 733d b23b f684 c0b6 a1b6 3a3d
000003d0: 76f2 0fbc 5879 073b 1b0b 7e3b 2358 403b
000003e0: 156c 8d3b dfe5 a7bc f3fe ac3b ba5d a23b
000003f0: d86d 353d fea8 f53c 8d4e 1f3d 4ed8 363d
0.0012708164 -0.01255174 0.002045528 0.0018759388 0.014244405 -0.011391112 0.008210618 0.0023142064
-0.018643826 0.005612563 0.02200235 0.023681242 0.023939826 -0.008915447 0.003982572 -0.010291497
0.027526602 0.013372884 0.0012860831 0.002233123 0.04310053 -0.00043864097 0.0011740297 -0.028858243
0.019351298 -0.024724135 0.012138956 0.05384939 0.00049518223 0.052129403 0.0011938511 0.034164716
0.023375886 0.005208682 0.031363122 -0.010462505 0.025140887 0.003220073 -0.0026636359 0.023612287
0.027140006 0.02573591 0.0016138167 0.022106163 0.03351877 0.048859622 0.0004160319 -0.001936083
0.04423973 0.0010487376 0.019568196 0.0062330174 0.0010786945 0.024551356 0.043254916 0.0053366013
0.030460143 0.0034886715 0.03704974 -0.005218915 -0.008306832 0.046753835 0.032274395 0.0029555568
-0.011077275 -0.0044616265 -0.010465671 0.0001065152 0.0018311146 0.002963269 0.0022787012 0.024485443
-0.0044891136 0.047779877 0.03273718 -7.041864e-05 -0.009514319 0.0137067735 0.0038814202 0.00066849426
-0.006362393 0.016339658 0.038313698 0.018081002 0.014746637 0.039663754 -0.0062951436 0.0091182
0.0028784971 0.0055987234 0.00020760778 0.010643391 0.02900214 -0.026484564 -0.011767041 0.0015757403
-0.017299676 -0.006749563 0.000896928 0.0249743 0.0021556178 0.012107916 0.021756263 -0.019236704
0.0048071863 0.002074421 0.04752062 0.052925672 6.190518e-05 0.0028948337 0.015967468 0.04057936
0.031701617 -0.0072159586 0.0040072524 0.033711784 -0.0035896199 0.005013221 0.0147035895 0.034315545
-0.025895303 -0.0036406089 0.0065877247 0.035934582 -0.019929532 -0.011731189 0.040346608 0.036692914
-0.009147718 -0.0028524348 0.003509167 0.023824181 -0.009114665 0.0065074726 0.021342967 0.0024860736
0.04235764 0.039915074 -0.024298156 0.0023350606 0.03181033 -0.0076073306 0.034192085 0.005810569
0.04756755 0.003810399 -0.01259938 0.0022047302 -0.007602913 0.003909133 -0.017317308 0.0015141459
0.0015707494 0.016940767 -0.024068318 0.011513364 0.0019703775 -0.0014660134 -0.0019898403 -0.00765321
0.024678148 0.0018024319 0.019160885 -0.002087342 0.05571132 -0.0008723384 0.025687937 0.021428604
-0.0009472251 0.02263538 0.021789705 0.0041671423 0.0011343998 0.02726507 0.0001905713 0.027963184
0.00017259445 0.016252274 0.03244592 -0.011842904 0.0031108065 0.004207304 0.027965864 0.0075912746
0.002684345 0.0014392318 0.0011581918 0.0032688475 -0.0079559265 0.003424959 -0.01262443 -0.020640224
-0.017350366 0.02502176 0.0019727116 0.042964168 0.003341978 -0.001203202 0.02431527 0.038407344
0.024515431 -0.00037243371 0.0009129654 -0.00041207008 0.03354917 0.002928574 0.04147458 -0.012332397
0.036518224 0.0025191263 0.04027775 0.004167919 0.00087833445 -0.028710563 0.0034792402 -3.576839e-06
0.04693468 0.025018567 0.04014494 0.001527465 -0.00832658 0.0025385502 0.0105868885 0.0033090133
0.048293207 -0.02511351 -0.009987553 0.04362957 0.0037001702 0.03742102 0.049337603 0.00044425056
0.009222992 0.022330483 0.022682237 0.025233533 0.015889 0.027780227 0.040732283 0.037268575
0.019037934 0.005439454 -5.7375246e-06 0.045584325 -0.008785835 0.0020671692 0.0038763944 0.0029349409
0.004315863 -0.020495353 0.0052794158 0.0049550207 0.04429421 0.029987808 0.03889327 0.044639878

lin1.bias f4 [256]
00000000: a4e3 0cbd 0890 c5b9 648b 783a 4654 a23a
00000010: 40d4 5aba 5593 9aba 74b4 02bd 834a 2fbd
00000020: 545a acb9 24f8 4b3b 5ec7 c139 e9a7 713c
00000030: 1106 e53a d0ab 74b8 f27d e83c 481c eaba
00000040: 58d8 a73c e27a f6bc e2c0 06bc 0882 9a3a
00000050: 91b6 60bc b263 c83a 35d3 9dba d9d3 9b3a
00000060: 1bb6 1ebd 2f79 7c39 5e8b 393a e076 84bc
00000070: 91f4 aa3a cd4e 153d 32b1 3c39 4590 ab3c
00000080: 2b4e cebb 9e8a 25bc 1768 aebb 2a69 0c3d
00000090: e6ae 0d3d e06d f7b9 bdca bb3c f21d cd3b
000000a0: 429f 4aba 2053 89b9 21e5 023d de22 61ba
000000b0: f325 7cbc 4c5d 033d f49f e33c 283c b1bb
000000c0: 10d0 383b 2817 a43b d279 f0bc e5a5 53bc
000000d0: e58c 523c 7209 e7bc fb1b 90b9 2c89 5fba
000000e0: 5e39 38bd 0923 873a df12 cebb 52b4 b93b
000000f0: 9c34 a2bc 13ca 6fbb 4114 a5bb 5109 79bb
00000100: ddff 74bc a967 fe39 7641 68ba 0e5e a33c
00000110: 91ab 6dbc bbc0 b63c 122d b13c df10 efbc
00000120: 5d7f 4d3b fc90 17bd eb54 b8ba 074c a2b9
00000130: 41a6 8dbb 1b68 d039 b02f 94ba f8db 47ba
00000140: 6613 36bc 5d64 a7bc b84c 4e3b 0f1a ee3c
00000150: ef34 c0bb 4c04 c9bc c7a3 8ebc d425 7a39
00000160: 7550 55bc 5160 7539 5cb9 643c 7cf1 f3ba
00000170: cbfe 953c 6222 bfbb 9211 5aba 0c7a 24bb
00000180: f958 b53c e391 d93c 585f ac3c dbc1 a73c
00000190: 217f 88b8 b39b a2bc ffa3 81bc 44f8 23bd
000001a0: b309 a5bb b21a 96bc b969 1dbd ae08 93bc
000001b0: 10df f9bc 4c09 9838 b6ce ae3c 85a4 0f3c
000001c0: 7194 b5bc 8117 bc3c 13c3 87bc 8c86 56ba
000001d0: 7a6b 5bbb f796 c6bb 810e b93c 89b1 073d
000001e0: 396e 8e3b 9209 01bd f6f5 983c c721 af3b
000001f0: a718 cbba e9fe bfbc ec04 203b 8a85 e5bb
00000200: 1f01 e0bc 9db2 4d3a 72ba fc3b 6c91 a23b
00000210: cf33 b4ba c5a7 be3c 2a20 80b9 4407 11bd
00000220: 13f8 0d3c 4ff2 f7bc 0ce5 6cbc 107e 36bc
00000230: 29a3 033d 438b 3039 4767 a2bc a4ed aebc
00000240: 6121 0bbd 5ed6 9238 907e 44bb 593b 1db7
00000250: ff4d 92bb e2e4 903c 0e36 6cba 1d09 98bc
00000260: 64bb 08bd 21bc c1bc 85b4 6cbb 3e15 21bc
00000270: 222d cabc 66a1 313d b720 bdbc ca66 dcbb
00000280: 93ed 8ab9 182b a5ba 32ac 13bc fb3f 80bb
00000290: c621 c63c 5fca 403c ffa7 dabc ff51 a83c
000002a0: 6ebd 25bd 927a 883b 74df b8bc e0dc 70bc
000002b0: 3e1d 5c3c c0a2 abba 1810 31ba 2601 b7bb
000002c0: 1cad 18bc 41ce bf3a 0550 bbbb 05cb ec3c
000002d0: de0c 5abc 363d a73c 356d 153d e49c bdbc
000002e0: d61d cf3c 116b 0e3d 8420 553a bfc1 4cbb
000002f0: ecb8 033c 597d 1abc 6bf0 42bb e107 b83a
00000300: 1977 7c3b 1495 f239 8ca6 f7bc ab7a ddbc
00000310: b0e1 f93a 75d2 54bb 3bd9 91bc e53e d4bb
00000320: b2d4 c8bb 4785 3c3a 97c8 333c 22aa f63c
00000330: 4443 32ba 198d d13c b75b b03c 5401 cb3a
00000340: f87c 14b9 2215 e4ba bb67 053d 8783 73bc
00000350: 7bec 0bbd 0c35 84b9 2be1 23bb 3d5a 98b9
00000360: 967a a9bb f714 043c dda4 21bb 7890 4a3c
00000370: d337 c83c 0f53 c53c 5ff4 1fbc 07aa b9ba
00000380: 76bb 0f3d c120 c2bb e0d4 873c 9e5a c63b
00000390: a6fa 153b 8e89 c83c 37d4 8ab8 2aa9 7c38
000003a0: 2b0f 74bc 459a c73b 5601 30bb 6772 33bc
000003b0: 7286 b43b 6ef2 0fbb afef 0bbd a042 83bb
000003c0: b2b4 55bb cf2f 6ebb 3876 17ba f7ad 1e3d
000003d0: 74a1 003d 6fba acbb bf65 1b3d 6e8d d3bc
000003e0: 5532 e7bc 4684 00bc 776b 933b 3e10 dcbc
000003f0: 8bff 903c a37a 96bc 05ee 84bb c0df 5fba
-0.034396783 -0.0003768208 0.000948122 0.0012384735 -0.0008347668 -0.0011793176 -0.031910375 -0.04279567
-0.00032873696 0.0031123245 0.0003696037 0.014749506 0.0017473121 -5.8334146e-05 0.028380368 -0.0017861212
0.020488903 -0.030087892 -0.008224698 0.001178802 -0.013715402 0.00152885 -0.0012041094 0.0011888697
-0.038747888 0.00024077737 0.0007077957 -0.016169965 0.0013042857 0.036452103 0.00017995088 0.020942817
-0.0062959394 -0.01010385 -0.005322467 0.03427998 0.034590624 -0.00047193374 0.022923822 0.0062596733
-0.000772942 -0.0002619261 0.031956796 -0.00085882645 -0.015389907 0.032071397 0.027786233 -0.0054087825
0.0028200187 0.0050076433 -0.029354963 -0.01291797 0.012850975 -0.028202746 -0.00027486667 -0.0008527215
-0.044976585 0.0010310124 -0.0062888707 0.005667248 -0.019800477 -0.0036588951 -0.005037815 -0.0037999938
-0.014953581 0.00048523888 -0.0008859852 0.01994231 -0.014506237 0.022308698 0.021627937 -0.02918285
0.0031356432 -0.037003502 -0.0014063393 -0.00030955693 -0.0043227975 0.00039750416 -0.0011305716 -0.00076240255
-0.011113023 -0.0204336 0.0031478833 0.02906516 -0.005865685 -0.024538182 -0.01741208 0.0002385595
-0.013019671 0.00023400901 0.013960209 -0.0018611397 0.018309971 -0.005832956 -0.0008318658 -0.002509716
0.022137152 0.026558822 0.021041557 0.02047818 -6.508665e-05 -0.019849634 -0.01582527 -0.040031686
-0.0050365566 -0.018323276 -0.038430903 -0.017948475 -0.030501872 7.2496565e-05 0.021338802 0.008767252
-0.022165509 0.022960426 -0.01657251 -0.0008183501 -0.003348081 -0.006060477 0.022589924 0.033128295
0.0043466357 -0.031503268 0.01867197 0.0053446027 -0.0015495018 -0.02343698 0.0024416996 -0.0070044445
-0.027344285 0.0007846745 0.0077126557 0.0049611833 -0.001374835 0.023273358 -0.00024438027 -0.03540732
0.0086651025 -0.030266909 -0.014458906 -0.011138454 0.032138024 0.00016836547 -0.019824637 -0.02135355
-0.03396738 7.0017515e-05 -0.0029982664 -9.371747e-06 -0.0044648643 0.017687265 -0.00090107403 -0.018559033
-0.033381835 -0.023649277 -0.003611834 -0.009831725 -0.024679724 0.043366812 -0.023086889 -0.0067261206
-0.00026498418 -0.0012601344 -0.0090132225 -0.003913877 0.024186026 0.011766999 -0.026691435 0.020546911
-0.040463857 0.004165002 -0.022567488 -0.014701098 0.013434706 -0.0013094768 -0.00067544123 -0.0055848537
-0.009318616 0.0014633612 -0.005716326 0.028905401 -0.013308732 0.02041493 0.0364811 -0.0231461
0.025282782 0.034770075 0.00081301504 -0.0031243411 0.008039694 -0.009429299 -0.002974535 0.0014040434
0.0038523136 0.0004626891 -0.030230783 -0.027036032 0.0019064452 -0.0032474075 -0.017803779 -0.006477224
-0.006128871 0.0007191491 0.010973117 0.030110423 -0.00068001845 0.025579976 0.021528108 0.0015488067
-0.00014160934 -0.0017401318 0.03256963 -0.0148629015 -0.034161072 -0.00025216525 -0.0025006037 -0.00029058932
-0.005172084 0.008061639 -0.0024664917 0.012363546 0.024440682 0.024087457 -0.009762852 -0.0014165052
0.035090886 -0.0059243147 0.016580999 0.006053283 0.0022884994 0.024479654 -6.619881e-05 6.023903e-05
-0.014896194 0.0060913884 -0.0026856265 -0.010952569 0.005509191 -0.0021964568 -0.034164127 -0.004005745
-0.0032608924 -0.0036344414 -0.0005777809 0.038740125 0.031403974 -0.005271248 0.03793883 -0.025824275
-0.028222242 -0.007844036 0.004498895 -0.026863214 0.017699977 -0.018369025 -0.0040566945 -0.0008540116
