models/new/#CONV=2_#POOL=1_Hidden=128_PoolR=0.7_RANDS=777.pth (torch, 238270 bytes, 11 tensors)

convpool_layers.0.conv.weight f4 [1, 128]
0	0xbd50f870	-0.05101818
1	0xbdcc479b	-0.09974595
2	0xbdbe5594	-0.092936665
3	0xbdd6a59b	-0.104808055
4	0xbca7be80	-0.02047658
5	0x3e219c2c	0.15782231
6	0xbe12f478	-0.1435107
7	0xbe1341ea	-0.14380613
8	0xbd761ae7	-0.06008425
9	0xbdb57be4	-0.08861521
10	0x3d7e8f98	0.06214866
11	0xbbf68f4f	-0.007524408
12	0x3c7bfac8	0.015379615
13	0x3db7f85f	0.0898292
14	0x3e3954a1	0.1809869
15	0xbbc9c93a	-0.0061580213
16	0x3dc83ac3	0.09776833
17	0xbdc64277	-0.09680646
18	0x3c96b033	0.018394565
19	0x3db9b086	0.09066872
20	0xbd913ea1	-0.07092024
21	0xbe10c2ec	-0.14136857
22	0x3ddd25bf	0.10798215
23	0x3e476e36	0.19475636
24	0x3e1482cd	0.14503022
25	0x3d5872ae	0.052843742
26	0x3c3bf589	0.011472114
27	0x3e46d7c2	0.19418243
28	0xbd4b271c	-0.049597844
29	0x3e057932	0.13034514
30	0x3e6ea9ce	0.23306963
31	0xbbe9d8e9	-0.0071364534
32	0xbd0fa0e4	-0.035065547
33	0x3dab90b1	0.08377207
34	0x3e6d7f7d	0.23193164
35	0x3e15fb73	0.14646702
36	0x3daa1530	0.083048224
37	0xbda3d642	-0.07999851
38	0xbe05b0fb	-0.13055794
39	0x3e306118	0.17224538
40	0x3e5e6a54	0.21720248
41	0x3e6070e2	0.21918061
42	0x3da23213	0.07919707
43	0x3dd6ed27	0.10494452
44	0x3ba98895	0.0051737526
45	0xbe2f4142	-0.17114738
46	0x3e36604c	0.17810172
47	0x3d40b3c3	0.047046434
48	0x3cb97691	0.022639545
49	0x3e1dae67	0.1539856
50	0xbc0bcc24	-0.008532558
51	0xbdac3e1b	-0.08410283
52	0xbd5a0deb	-0.05323593
53	0xbd57a3d9	-0.05264649
54	0x3e03d104	0.12872702
55	0x3d4f6bc9	0.0506399
56	0x3e370aa2	0.1787515
57	0x3d48c93c	0.049020037
58	0x3d8d8a1a	0.069111064
59	0x3daaba0b	0.08336266
60	0x3e0b6065	0.1361099
61	0xbd7b32a2	-0.061327584
62	0xbcaee37e	-0.021348711
63	0xbdd59b07	-0.1042996
64	0xbe1bc3d6	-0.15211424
65	0xbd96130f	-0.07327854
66	0xbe435464	-0.19075161
67	0x3de81a5d	0.113331534
68	0xbe2597ac	-0.1617114
69	0xbe290840	-0.16507053
70	0xbd29ad9b	-0.04142533
71	0xbd02b763	-0.031913172
72	0xbdcb8abe	-0.09938572
73	0xbd43189d	-0.047630895
74	0xbe285754	-0.16439563
75	0xbdbda547	-0.0926004
76	0x3dae04ac	0.08496985
77	0x3d479020	0.048721433
78	0x3cbbb2a0	0.022912323
79	0xbd817d49	-0.06322724
80	0xbd2e7ffb	-0.04260252
81	0xbbf31443	-0.007418187
82	0xbda191e1	-0.07889152
83	0x3df72988	0.12068468
84	0xbcf76aea	-0.030202348
85	0xbe356230	-0.17713237
86	0x3e387e91	0.18017031
87	0x3e0f174b	0.1397373
88	0x3db035c1	0.08604003
89	0x3e6b80d3	0.22998361
90	0x3e384d42	0.17998222
91	0xbdb4866f	-0.08814704
92	0xbe4458b9	-0.1917447
93	0xbd328ab2	-0.0435893
94	0x3e7df6c0	0.24801159
95	0xbe0e7711	-0.13912608
96	0x3d13eccf	0.03611451
97	0x3e0fa3e6	0.14027366
98	0x3d3315e4	0.04372205
99	0x3e303479	0.17207517
100	0xbe23b774	-0.1598795
101	0x3e54b148	0.20770752
102	0xbe06206f	-0.1309831
103	0xbcad77aa	-0.021175224
104	0x3cac6db8	0.021048412
105	0xbdbb8dd2	-0.091579095
106	0xbdb08eb3	-0.08620968
107	0xbe0696b1	-0.13143422
108	0x3df67557	0.120340995
109	0xbe10500e	-0.14093038
110	0x3db91715	0.09037606
111	0x3cac0248	0.020997182
112	0x3c0fec05	0.008784299
113	0xbd93227c	-0.07184312
114	0xbbe4b237	-0.0069792527
115	0x3dba8fb4	0.091094404
116	0x3c32d12d	0.010914129
117	0xbd31722b	-0.04332177
118	0xbe2addb0	-0.1668613
119	0x3d8845e4	0.066539556
120	0xbd5dbba3	-0.054134022
121	0xbe2c283b	-0.16812222
122	0xbc8de8c8	-0.017322913
123	0xbe183eba	-0.14867678
124	0x3d9d990a	0.076952055
125	0xbd9569b5	-0.07295553
126	0xbe19a40a	-0.15003982
127	0x3e083363	0.13300852

convpool_layers.0.conv.bias f4 [128]
0	0x3bbd94a6	0.0057855425
1	0x3c0ce7f4	0.008600224
2	0xbbeba62d	-0.0071914406
3	0x3ba57c5f	0.0050502266
4	0x3a3983ab	0.000707681
5	0xb85a6030	-5.2064832e-05
6	0x3c048602	0.008088591
7	0x3bc341da	0.005958778
8	0x3aa3ce0c	0.001249732
9	0x3c33d89a	0.010976935
10	0xb705de7e	-7.979221e-06
11	0xbc4bf3f0	-0.012448296
12	0xbc43415c	-0.011917438
13	0xbca4c057	-0.020111246
14	0xbaadf50e	-0.0013271885
15	0xbb0a5555	-0.002110799
16	0xbc22c941	-0.009935678
17	0xbb2051de	-0.002446286
18	0xbc96e028	-0.018417433
19	0x3a4a29bd	0.0007711908
20	0x3c531e05	0.012885575
21	0x3ac18322	0.0014763812
22	0xbc26a7d3	-0.010171848
23	0xbca3cb11	-0.01999429
24	0xbc5a742c	-0.013333362
25	0xbc9ff86e	-0.01952764
26	0xb8cee290	-9.865046e-05
27	0x3b4a1b60	0.003083907
28	0xbc05b86d	-0.008161646
29	0x39860ae1	0.00025566577
30	0xbb817e9f	-0.003951862
31	0xbc6bc951	-0.014391259
32	0xbbab538f	-0.005228467
33	0xbc81e036	-0.015853982
34	0xbc08c4e4	-0.008347724
35	0x39b2f458	0.00034132856
36	0xbbbd887a	-0.0057840915
37	0xbc029b26	-0.007971561
38	0xbba32197	-0.0049783695
39	0xb8ea87ba	-0.000111832705
40	0x3b21a8f5	0.0024667357
41	0xbc325fa6	-0.010887062
42	0xbc264b3b	-0.010149772
43	0xbc8cbb2a	-0.01717909
44	0xbc7589a7	-0.014986432
45	0xbb8bd35b	-0.004267139
46	0x3b8c6e07	0.004285577
47	0xbcbc7eeb	-0.023009738
48	0xbc0a3d1d	-0.008437422
49	0xbad810bc	-0.001648448
50	0x3bbf2abd	0.005833952
51	0xbbef0212	-0.007293948
52	0x3bb2f590	0.0054614022
53	0xbc1c74b9	-0.009549313
54	0xbc4c7cdb	-0.01248094
55	0xba819dda	-0.0009888962
56	0xbc35a502	-0.011086704
57	0xbb655fcf	-0.0034999733
58	0xbc8b8137	-0.017029388
59	0xbcf49613	-0.029856717
60	0x3b880b3e	0.004151731
61	0x3b651084	0.003495247
62	0xbbae4175	-0.0053178617
63	0x3a73c68e	0.00092993013
64	0x3bcb0420	0.00619556
65	0x3bfdcd4b	0.00774542
66	0xbbf5fddf	-0.0075070704
67	0xbbb66060	-0.005565688
68	0x3bce8c3e	0.0063033393
69	0x3a1be86f	0.0005947416
70	0x3b905939	0.0044051674
71	0x3bee7187	0.007276717
72	0x3bfde6b4	0.007748449
73	0x3b79abfa	0.003809689
74	0x3c0b8a12	0.008516805
75	0xba0cc7d0	-0.00053703506
76	0xbc168367	-0.009186602
77	0xbc2478e7	-0.010038591
78	0x3a8a5872	0.0010554923
79	0x3c540392	0.012940304
80	0x3b37a019	0.002801901
81	0xbc3b739a	-0.011441136
82	0x3a30f66a	0.0006750586
83	0x3bd9cfbe	0.0066470793
84	0x3ab30743	0.001365878
85	0x3a52691d	0.00080265274
86	0xbc11efff	-0.008907317
87	0xbc1c7841	-0.009550155
88	0xbd0a5cf4	-0.033780053
89	0xbc5d78f4	-0.013517607
90	0xbc002121	-0.007820399
91	0xbba17652	-0.004927435
92	0x3b15cd9c	0.0022858148
93	0xb895a543	-7.135656e-05
94	0xbc107311	-0.0088164965
95	0x3bd76ded	0.0065743835
96	0x3a63f65a	0.0008696072
97	0x3bb1d496	0.0054269535
98	0xbc9cda59	-0.019147085
99	0xbaf7c3a4	-0.001890291
100	0x3c08bfda	0.008346522
101	0xbad55a7e	-0.0016277579
102	0x3c304d2e	0.010760589
103	0x3bcf46b6	0.006325568
104	0xbd102592	-0.03519208
105	0x3b5b178a	0.0033430778
106	0x3ad26f9e	0.0016054993
107	0x3bbb00f9	0.005706903
108	0xbb364557	-0.0027812326
109	0x3b5e8c0b	0.0033957984
110	0xbc2ed86e	-0.010671718
111	0xbbd7a443	-0.006580861
112	0xb9056294	-0.00012720592
113	0x3b44fa86	0.003005655
114	0x3a10c847	0.0005523008
115	0xbc20555c	-0.009785976
116	0xbc094ddf	-0.008380382
117	0x3bdbbac5	0.0067056143
118	0x3b5fa8a3	0.0034127615
119	0xbc69e2ce	-0.014275266
120	0xbbffcb6a	-0.0078062313
121	0xbb0abcbd	-0.0021169626
122	0x3b509703	0.0031828291
123	0x3a0be95d	0.0005337203
124	0xbc82e8d3	-0.01598016
125	0x3c066934	0.008203793
126	0x3b99b8d7	0.004691224
127	0xbc994b31	-0.018712612

convpool_layers.0.pool.att f4 [1, 256]
0	0xbbd30d9f	-0.0064408327
1	0xbc1b8193	-0.009491342
2	0x3c7043a9	0.014664569
3	0x3da21a3d	0.07915161
4	0x3c0f37b5	0.008741309
5	0xbdd15db3	-0.1022295
6	0x3d004185	0.031312484
7	0xbcab5934	-0.020916559
8	0xbbe939ce	-0.0071174866
9	0xbbb2b3ec	-0.0054535773
10	0xbc46ff42	-0.012145819
11	0xbb7a05b2	-0.0038150367
12	0xbcec6815	-0.028858224
13	0xbd1eff8b	-0.038817924
14	0xbcf25c98	-0.029585168
15	0xba2603f9	-0.00063329894
16	0xbdb7222c	-0.08942065
17	0xbc18470c	-0.009294283
18	0xbd9c06b6	-0.076184675
19	0xbe22c77b	-0.15896408
20	0xbbf56671	-0.0074890186
21	0xbdb4d1d2	-0.088290825
22	0xbd209271	-0.039202157
23	0xbe29d3dc	-0.16584724
24	0xbcae98f8	-0.021313176
25	0x3c5a266d	0.0133148255
26	0x3bcdcdec	0.0062806513
27	0xbd668636	-0.056280337
28	0xbbbe732c	-0.0058120694
29	0xbd6f36b9	-0.058401797
30	0xbbf86030	-0.007579826
31	0xba9edd1f	-0.0012120343
32	0x3ab44f4a	0.001375654
33	0xbe087a92	-0.13328007
34	0xbdd3fa73	-0.10350504
35	0x3dd694b9	0.10477585
36	0x3dc8f3f7	0.098121576
37	0xbc1fd822	-0.00975612
38	0xbc27de74	-0.010245908
39	0xbdc77aef	-0.097402446
40	0x3daef9a4	0.08543709
41	0x3d58953c	0.052876696
42	0xbd140718	-0.036139578
43	0x3cb213cc	0.021737956
44	0x3c367f57	0.011138759
45	0xbc36e67c	-0.01116335
46	0xbd6aa089	-0.057282005
47	0xbd865c78	-0.06560606
48	0xbd6c7362	-0.057727225
49	0x3d2a7621	0.041616563
50	0xb9a731b2	-0.00031889748
51	0xbc05417d	-0.008133289
52	0x3d4a3e77	0.049375977
53	0xbbd910f8	-0.0066243373
54	0xbd85c6aa	-0.06532033
55	0xbdc1d608	-0.09464651
56	0xbe10a40c	-0.14125079
57	0xbe031f42	-0.12804893
58	0xbe2a8a9d	-0.1665444
59	0xbe0f515c	-0.1399588
60	0xbd5ec920	-0.054391026
61	0x3b519c07	0.0031983869
62	0xbb0f5ff0	-0.0021877252
63	0xbd47c11d	-0.04876815
64	0xbc0b6a36	-0.008509209
65	0xbb87c5a0	-0.004143432
66	0xbd29f389	-0.04149202
67	0xbd3ca8db	-0.04605947
68	0x3cc1dc87	0.023664726
69	0x3d92beaf	0.07165276
70	0xbb6dcbc9	-0.0036284795
71	0xbc49ce58	-0.012317263
72	0xbbdc1303	-0.0067161336
73	0xbb939165	-0.0045034164
74	0x3c419578	0.011815421
75	0x3d4ab8d7	0.049492683
76	0xbdd8fc4d	-0.105949976
77	0xbb5bee65	-0.0033558842
78	0xbd43d8a6	-0.047814034
79	0xbd0bc77b	-0.034125786
80	0xbbb2bbe6	-0.005454528
81	0x3bc080a8	0.005874712
82	0x39ae0292	0.0003318978
83	0x3d759e56	0.059965454
84	0xbd1b32fc	-0.03789042
85	0xbc9bb581	-0.019007446
86	0x3d82596c	0.06364712
87	0xbd720a55	-0.059091885
88	0xbe55cf8c	-0.20879954
89	0xbe01bb23	-0.12669043
90	0xbe3d5ca8	-0.18492377
91	0xbc0fa373	-0.008766997
92	0xbb739ce3	-0.003717237
93	0xbb7df67d	-0.0038751655
94	0xbe276cae	-0.16350052
95	0x3b82f8b3	0.0039969324
96	0xbdcd81c2	-0.10034515
97	0x3cdff45a	0.027338196
98	0xbd9167c5	-0.070998706
99	0xbd982b4c	-0.07430133
100	0x3caa7335	0.020806888
101	0x3d9394be	0.07206105
102	0xbc74c328	-0.014939107
103	0x3d093e82	0.033506878
104	0xbda07b09	-0.07835967
105	0xbc624653	-0.013810712
106	0x3d815a44	0.06316045
107	0xbb6768ba	-0.0035310225
108	0xbdd86d75	-0.10567752
109	0x3de2db92	0.11077036
110	0xbdaed75a	-0.08537169
111	0xbd9fea5e	-0.07808374
112	0xbda0b1cf	-0.07846414
113	0xbc9feb62	-0.019521419
114	0xba659755	-0.0008758207
115	0xbe006a98	-0.12540662
116	0x3d9a29d3	0.075275086
117	0xbb95f7ae	-0.004576645
118	0xbe1bd2e7	-0.15217172
119	0x3bbaa6d4	0.005696157
120	0x3e0bdc5a	0.13658276
121	0xbd43d211	-0.047807757
122	0xbab2a10e	-0.001362832
123	0xbc434f5a	-0.011920774
124	0xbd6770b3	-0.056503963
125	0x3cac83a9	0.021058874
126	0xbc3ae4a5	-0.011407052
127	0xbe2d1152	-0.16901138
128	0x38c7f86b	9.535331e-05
129	0xbd0336ba	-0.032034613
130	0xbdb1433f	-0.08655404
131	0xbc572362	-0.0131309945
132	0xb831703a	-4.2304608e-05
133	0x3e3d0c78	0.18461788
134	0x3bd6aa88	0.0065510906
135	0x3b918bce	0.004441715
136	0x3d21857e	0.03943395
137	0xbb1b47ca	-0.0023693913
138	0x3d0dec55	0.034649212
139	0xbb8262e1	-0.0039790724
140	0x3cdcb760	0.026942909
141	0xbda32b34	-0.07967225
142	0x3e1e3083	0.15448193
143	0xbd4fd4d7	-0.05074009
144	0x3d4d73ec	0.05015938
145	0x3cf96285	0.030442486
146	0x3b2664b8	0.0025389623
147	0xbd1a79b4	-0.03771372
148	0xbc255f53	-0.010093528
149	0x38b366fe	8.554569e-05
150	0x3d26a568	0.040685087
151	0x3ddd0768	0.10792428
152	0x3cc7df42	0.02439845
153	0xbd94e0b3	-0.072694205
154	0x3ccfff51	0.025390299
155	0x3e25b2ef	0.16181539
156	0x398fc034	0.00027418288
157	0x3d6a3814	0.057182387
158	0x3e04510c	0.12921542
159	0xbced0bb3	-0.028936243
160	0xbd97e617	-0.07416933
161	0x3be85397	0.007090043
162	0x3e02267a	0.1270999
163	0x3e4d162c	0.20027989
164	0x3db61f84	0.0889273
165	0xb9df9d3f	-0.00042651032
166	0x3c07edd1	0.008296446
167	0x3e389a50	0.18027616
168	0x3d1d11e6	0.038347147
169	0x3dcc9ead	0.099912025
170	0x3d2d5871	0.042320672
171	0x3d7d3865	0.06182136
172	0x3c26c928	0.010179795
173	0xbd7b5ecd	-0.061369706
174	0xbc2f6fb0	-0.010707781
175	0x3d3a2451	0.04544479
176	0x3d268353	0.040652584
177	0x3da98744	0.08277753
178	0xbe16b37a	-0.14716902
179	0x3de3e973	0.11128511
180	0x3d5930cb	0.05302505
181	0xbc2a5fb4	-0.010398794
182	0x3d91e310	0.07123387
183	0x3d80c830	0.06288183
184	0x3d8785c3	0.0661731
185	0x3d8e78e6	0.06956653
186	0x3d8f5dff	0.0700035
187	0x3c9dba59	0.019253897
188	0x3de4ddb1	0.11175097
189	0x39927dfe	0.00027941162
190	0x3d252f4c	0.04032831
191	0x387eec02	6.077812e-05
192	0xb9858c1e	-0.00025472132
193	0x383a26be	4.4381937e-05
194	0x39ed881a	0.00045305566
195	0x3d582890	0.05277306
196	0xbe389583	-0.18025784
197	0x39b968f1	0.00035364137
198	0x3d1aa9d5	0.03775962
199	0xbc315eca	-0.010825822
200	0x38a3218d	7.778695e-05
201	0x3c296a1f	0.010340243
202	0x3a4b1c63	0.00077480654
203	0x3d97ca94	0.074116856
204	0xbd03e0c7	-0.032196786
205	0x3e06692d	0.13126059
206	0x3c983f18	0.018584773
207	0x37072844	8.056002e-06
208	0xb933fbf2	-0.00017164627
209	0xbd0f9a77	-0.03505942
210	0xbd9c4697	-0.076306514
211	0x3d7abcaa	0.06121508
212	0x395a4d9f	0.00020819016
213	0xbcedc682	-0.02902532
214	0x3dcb5f1e	0.099302515
215	0x3c9972f7	0.018731577
216	0xbdc630e4	-0.09677294
217	0x3e63ea03	0.22257237
218	0x3d760113	0.06005962
219	0x3da0190b	0.078172766
220	0x3b426bbf	0.0029666272
221	0x3ba2f299	0.0049727676
222	0x3cb3db4f	0.02195516
223	0x3cc6426a	0.02420159
224	0x3d6b2ffb	0.057418805
225	0x3d5aca0f	0.053415354
226	0x3d2a76b0	0.041617095
227	0x3d005048	0.031326562
228	0xb9418d48	-0.00018458546
229	0x3d82e6fa	0.063917115
230	0x3a33cb9a	0.0006858647
231	0xba555760	-0.0008138325
232	0xbb7cf88a	-0.003860029
233	0x37628b00	1.3503013e-05
234	0xbc77a242	-0.015114369
235	0xba91423a	-0.0011082359
236	0x3e0c694a	0.1371204
237	0x3bd940fd	0.0066300617
238	0x3d8ed846	0.06974845
239	0x3d1d40f5	0.038392026
240	0xbc794d1f	-0.015216141
241	0x3986af11	0.00025688906
242	0x3dd0ed8d	0.10201559
243	0x3e0170c7	0.12640677
244	0x3c7b3cc1	0.015334309
245	0xbd53762b	-0.051626366
246	0xb9d68d5a	-0.00040922576
247	0x3d3c68a7	0.04599824
248	0xbd674efd	-0.056471813
249	0xbe0cb7d8	-0.13742006
250	0xbdebfb38	-0.115225255
251	0x388649c6	6.403359e-05
252	0x3dec7a07	0.11546712
253	0xba763770	-0.0009392416
254	0xbdb528f2	-0.088457
255	0xbd03528e	-0.032061152

convpool_layers.1.conv.weight f4 [128, 128]
0	0x39c154e7	0.00036875086
1	0xbc8e4200	-0.017365456
2	0x3c9b0670	0.018923968
3	0x38976899	7.219724e-05
4	0xbd8e6e34	-0.06954613
5	0x3cf3f5a5	0.029780218
6	0x3a21ba1a	0.0006169394
7	0x3cdf9e3a	0.027297128
8	0xbce3eb30	-0.027822107
9	0x3b060b43	0.002045349
10	0xbd9ebcdb	-0.07750865
11	0xbd8df763	-0.06931951
12	0xbd47b1de	-0.04875361
13	0x3cd5e836	0.026111703
14	0xbc059cea	-0.008155087
15	0xbd1a82ff	-0.037722584
16	0xbcf60978	-0.030033812
17	0x3ad7d9a1	0.0016468057
18	0x3a449d05	0.00075002044
19	0xba9b203c	-0.0011835168
20	0x3d9afc05	0.075676
21	0xbcbaa92a	-0.022785742
22	0xba8c12fa	-0.0010686808
23	0xbd0f52a4	-0.03499092
24	0xbda8ae51	-0.08236373
25	0x3d13a396	0.03604468
26	0xbc32e198	-0.010918044
27	0xbc7ae400	-0.0153131485
28	0x3d9d6d00	0.07686806
29	0xbd3718a0	-0.04470122
30	0x3a3ff705	0.00073228806
31	0x38a40b6b	7.822256e-05
32	0xbd2296b5	-0.039694507
33	0x3a8fdb36	0.0010975364
34	0x3ce5a428	0.028032377
35	0xbb07940d	-0.002068761
36	0x3d19f2e6	0.03758516
37	0x3b0ab92e	0.0021167505
38	0x3b8843fe	0.004158496
39	0x3a08b85c	0.000521546
40	0x3a4b0841	0.00077450654
41	0xbb287c12	-0.0025708717
42	0x3d81e8cf	0.06343233
43	0xb85d9c28	-5.2835938e-05
44	0xbca1c404	-0.019746788
45	0x37be172e	2.2660559e-05
46	0x3a776c64	0.00094384537
47	0xbd972d12	-0.07381643
48	0x3c8769d9	0.016529964
49	0x3a134ded	0.0005619217
50	0x3d9ea421	0.07746149
51	0xbc54a94d	-0.012979818
52	0x3d86ec61	0.065880544
53	0xb91d65d8	-0.00015010627
54	0x3b3b29a7	0.0028558762
55	0xbc8efd7a	-0.017454851
56	0x3c8c0560	0.017092407
57	0xbcfe6781	-0.031055214
58	0xb9a1b62a	-0.00030844036
59	0xbd30e5c6	-0.04318788
60	0xba1e0a00	-0.0006028712
61	0xba8a7e42	-0.0010566192
62	0x3bc60bef	0.006043903
63	0x3b4b9f50	0.00310703
64	0xbd651b37	-0.055934157
65	0xbd8a3ad9	-0.067495055
66	0x3d8a2894	0.06746021
67	0xbc20aebc	-0.009807285
68	0x3a1b9314	0.0005934697
69	0xbda3b650	-0.07993758
70	0x3da2937b	0.07938286
71	0xbc8e9d01	-0.01740885
72	0x3abb75b5	0.0014302047
73	0xba613ab3	-0.0008591816
74	0xbca82b3d	-0.02052843
75	0xbd134ca4	-0.035961762
76	0xbb489086	-0.003060372
77	0xbbef5167	-0.007303405
78	0xbcae1376	-0.021249514
79	0x3baa5419	0.0051980135
80	0x3ccae3cb	0.024766823
81	0xbd6b8d08	-0.057507545
82	0x3d353d42	0.044247873
83	0x3d5ef0e9	0.05442897
84	0x3d198077	0.03747603
85	0xba2cf3bf	-0.00065976003
86	0xbcfb9b3f	-0.030713676
87	0x3d02d8bd	0.03194498
88	0xbd1df8b8	-0.038567275
89	0xbcacf683	-0.02111364
90	0x3a033b27	0.0005006068
91	0x3d698290	0.05700928
92	0xbc6327e7	-0.013864494
93	0x3caef65f	0.021357713
94	0xbd1f035d	-0.038821567
95	0xbd86c865	-0.06581191
96	0xbb074ebd	-0.0020646297
97	0xbd8d2411	-0.06891645
98	0x3d631b91	0.05544621
99	0x3d5a686c	0.05332224
100	0xbd941732	-0.07230987
101	0xbbada634	-0.005299354
102	0xbca54463	-0.02017421
103	0x37d2222a	2.504986e-05
104	0x3d837b50	0.06420004
105	0x3a65eadd	0.0008770654
106	0x3d7db03d	0.061935652
107	0xbd5f96bd	-0.054587115
108	0x3b133d1c	0.0022466844
109	0xbd12ea1a	-0.035867788
110	0xbd261c9d	-0.04055463
111	0x3d40ad30	0.047040164
112	0x3cbe3c93	0.023222243
113	0xbccc5604	-0.02494336
114	0xbd2a4f57	-0.04157957
115	0x3aa6bea0	0.0012721606
116	0x3d65b2fe	0.056078903
117	0x3c8e6c41	0.017385604
118	0xbbb53cf8	-0.0055309497
119	0x3a3a8210	0.0007114718
120	0xbd901bdd	-0.070365645
121	0x3d2f0dc0	0.042737722
122	0xbd6cb0cd	-0.057785798
123	0xbd193da2	-0.037412293
124	0x3aa2c41d	0.0012418065
125	0x3c03cffb	0.008045192
126	0xbd9d22a0	-0.0767262
127	0x3a0d0991	0.00053801487
128	0xb8c2b2c9	-9.283942e-05
129	0x3d7d27ac	0.061805412
130	0xbd8d4a9a	-0.06898995
131	0x3b84cc1a	0.004052651
132	0xb8e0d70a	-0.000107212065
133	0xbca0387d	-0.019558186
134	0xbda34f61	-0.07974125
135	0xbd9a0289	-0.07520015
136	0xbd3dfb47	-0.046382215
137	0x3ceb3a0a	0.028714199
138	0x3cfe4014	0.031036414
139	0xbac4bba9	-0.001500954
140	0x3c84b516	0.01619963
141	0x3d68a47b	0.056797486
142	0x3c7fe50f	0.015618577
143	0xbbbd10f8	-0.005769845
144	0xba598ed5	-0.00082991767
145	0x3daa0ebb	0.08303591
146	0xbc568ad5	-0.013094624
147	0xbb3cb174	-0.0028792294
148	0x3a7d2bdf	0.00096577214
149	0x3b5a9791	0.00333545
150	0x39adad7b	0.00033126384
151	0xb9c45815	-0.0003744966
152	0x39c9b10c	0.00038469618
153	0x3aee67bb	0.0018188873
154	0x3c2ed746	0.010671442
155	0x3c6ca004	0.014442448
156	0x3d231b53	0.03982098
157	0x3d104040	0.035217524
158	0x39b38d2b	0.0003424672
159	0xb84a71b4	-4.8266447e-05
160	0x3d943f5a	0.07238646
161	0x3c3133ae	0.010815544
162	0xbd734bb0	-0.059398353
163	0xbcac9e43	-0.021071559
164	0x3a4188b0	0.0007382734
165	0x39757c41	0.00023411309
166	0x3bf7da65	0.0075638765
167	0x3d890141	0.06689692
168	0xbda5b4b3	-0.08091106
169	0xbbad40cc	-0.0052872654
170	0xbaf1027d	-0.0018387582
171	0x3d2a55ee	0.041585855
172	0xbb388d8b	-0.0028160538
173	0xbd8298ab	-0.06376775
174	0x3cf10e0a	0.02942564
175	0x3d9f8705	0.07789425
176	0xb96e3827	-0.00022718367
177	0xbcf657f0	-0.030071229
178	0x3a7cbeee	0.0009641488
179	0x388846fd	6.498208e-05
180	0x3abda6b2	0.0014469235
181	0x3b57efa3	0.003294923
182	0x39e6e18e	0.0004403707
183	0x3b31df6e	0.002714123
184	0xbaaf82ed	-0.0013390459
185	0x3ccf6783	0.025317913
186	0xbce0c651	-0.027438315
187	0xbd2eec0f	-0.04270559
188	0xbcaee3af	-0.021348802
189	0x3a548f18	0.0008108481
190	0x3b7cae9e	0.0038556228
191	0x3b4571df	0.0030127687
192	0xbd97c1fe	-0.07410048
193	0xba644d68	-0.0008709044
194	0x3d527b3e	0.051387064
195	0xbb14151c	-0.002259559
196	0x3c81fb0c	0.015866779
197	0xbd42000e	-0.047363333
198	0x3c20ce4d	0.009814811
199	0x3d99dc29	0.07512695
200	0x3b2aed61	0.002608143
201	0xb986257f	-0.00025586408
202	0xbd7e6b7d	-0.062114228
203	0xbdb16d6b	-0.08663448
204	0x3c687fef	0.014190658
205	0x3917c048	0.00014472113
206	0xbd9e1d6b	-0.07720455
207	0xba99519e	-0.0011697297
208	0x384978b4	4.8034548e-05
209	0x3afaf8c4	0.0019147624
210	0xb7802d6c	-1.527994e-05
211	0xbba43f48	-0.0050124265
212	0xbd29741a	-0.04137049
213	0x3ca7d7f7	0.020488722
214	0x3da1d21a	0.07901402
215	0xbd914805	-0.07093815
216	0x3d81b75a	0.063338
217	0xb9eb493c	-0.00044877257
218	0x39bc0531	0.00035862022
219	0x3d448872	0.047981687
220	0x3cb87eb6	0.022521358
221	0x39a21d8d	0.00030921065
222	0x3da3ea3d	0.08003662
223	0xbcd87ec3	-0.026427632
224	0x3d9baaa1	0.07600904
225	0x3a369b8a	0.0006965926
226	0xbb9eb06a	-0.0048428075
227	0xbd8040de	-0.062623724
228	0xbcd8a001	-0.026443483
229	0xba561e71	-0.0008167988
230	0x3b54b247	0.0032454894
231	0x3962556c	0.00021584862
232	0xbd30015e	-0.042970054
233	0x3d7000b6	0.058594428
234	0x3d8b77df	0.06809973
235	0x3d706e13	0.058698725
236	0xbd0b44b6	-0.034001075
237	0x3a1261be	0.0005584023
238	0x3d7365bb	0.05942319
239	0xba71666e	-0.00092086836
240	0x3d0d93a6	0.034564637
241	0xbba71f62	-0.0051001767
242	0x3d8c0da7	0.068385415
243	0x3d79af9d	0.060958494
244	0x3a5e2468	0.0008474053
245	0x3d006f0a	0.031355895
246	0x3a5d177d	0.0008433981
247	0x3d94f4d0	0.07273257
248	0xbd9ac222	-0.07556559
249	0x380f24ef	3.4128254e-05
250	0xbcc73175	-0.024315575
251	0x3d936c89	0.07198436
252	0xb8f29980	-0.00011568051
253	0xbd0fcda0	-0.03510821
254	0x3bedc0c8	0.0072556473
255	0xbd21f660	-0.039541602

convpool_layers.1.conv.bias f4 [128]
0	0x00000000	0.0
1	0xbc0eaebd	-0.008708653
2	0xbc3d7bd8	-0.011565171
3	0x00000000	0.0
4	0x00000000	0.0
5	0x00000000	0.0
6	0x3b81dde7	0.0039632204
7	0x3b154475	0.00227764
8	0xbaee6c44	-0.0018190225
9	0xbace29fc	-0.0015729065
10	0xbbbc00f9	-0.0057374206
11	0xbbcd383e	-0.006262808
12	0xbc935594	-0.017985143
13	0xbc515018	-0.0127754435
14	0xbb59a679	-0.0033210798
15	0x3a89777c	0.001048788
16	0x00000000	0.0
17	0xbc1019cf	-0.008795216
18	0x39e7fd33	0.00044248402
19	0xbbaa2d4c	-0.005193388
20	0xbb3df5f6	-0.0028985715
21	0xbc37a780	-0.011209369
22	0xbc2f844a	-0.0107126925
23	0x00000000	0.0
24	0xbc83ec37	-0.016103847
25	0xbc84b9c5	-0.016201863
26	0x00000000	0.0
27	0xbafd0636	-0.0019304219
28	0x3d238c13	0.039928507
29	0xbb3bb657	-0.0028642619
30	0x00000000	0.0
31	0xbc6b57f5	-0.014364232
32	0xbc001b29	-0.0078189755
33	0xbc09a697	-0.0084015345
34	0xbcb1c1ff	-0.02169895
35	0xbc9c0050	-0.019043118
36	0xbbd58ada	-0.0065167965
37	0xbc645cee	-0.013938172
38	0xbb5e699a	-0.0033937455
39	0xbc9b3fcd	-0.018951321
40	0xbcb83cda	-0.022489954
41	0xbc208e19	-0.009799504
42	0xbc093d3d	-0.008376417
43	0x00000000	0.0
44	0xbca68da2	-0.020331208
45	0xbc02b90b	-0.007978688
46	0x00000000	0.0
47	0x00000000	0.0
48	0xbc132236	-0.0089803245
49	0x3bd07674	0.006361777
50	0xbbdbdbd7	-0.0067095566
51	0xbc27769d	-0.010221151
52	0xbb59caf0	-0.0033232532
53	0x00000000	0.0
54	0x00000000	0.0
55	0xbbd34837	-0.0064478177
56	0xb909335c	-0.00013084471
57	0xbb8cd9b5	-0.0042984136
58	0xbbeca2c3	-0.007221551
59	0xbcfe8565	-0.031069467
60	0xbb5312b0	-0.0032207184
61	0x3b16b792	0.00229976
62	0xbc02fd76	-0.007995
63	0xbc579fb8	-0.0131606385
64	0xb8c8f170	-9.5817144e-05
65	0xbc075310	-0.00825955
66	0xbb12150f	-0.0022290384
67	0xbbcfa6b2	-0.0063370103
68	0xbad82ab6	-0.0016492221
69	0x00000000	0.0
70	0x3895ee77	7.149291e-05
71	0x3b23b43b	0.0024979252
72	0x3c503195	0.012707134
73	0xbc31641b	-0.01082709
74	0xbabe96d3	-0.0014540799
75	0xbc4f6059	-0.012657248
76	0xbc897c80	-0.016782999
77	0x00000000	0.0
78	0xbc5a4b49	-0.013323613
79	0xbc178c95	-0.009249826
80	0x3a9b8aa2	0.0011866877
81	0x00000000	0.0
82	0xbbaeaad1	-0.0053304215
83	0xbbe9ed7d	-0.0071389065
84	0xba9208e7	-0.0011141569
85	0x3b9596fc	0.004565118
86	0x3b610fc0	0.0034341663
87	0xbc182811	-0.009286896
88	0x3c84b85e	0.016201194
89	0xbc373bd0	-0.011183694
90	0xbc8e0eb7	-0.017341001
91	0xbb8c8792	-0.004288622
92	0xbbbb4db0	-0.005716048
93	0xbc0fcd70	-0.008777007
94	0xbc130420	-0.008973151
95	0x3bd5c032	0.0065231556
96	0xbc968fc6	-0.018379103
97	0x00000000	0.0
98	0xbc9b194e	-0.018932965
99	0xbb9f1c7d	-0.004855691
100	0x3c06514f	0.008198096
101	0x00000000	0.0
102	0x3bb73bf7	0.005591865
103	0x00000000	0.0
104	0xbc0e190e	-0.008672966
105	0x3b3f2233	0.0029164671
106	0x3b9bb6a4	0.004751997
107	0xbb9e020b	-0.004822021
108	0x392d80e0	0.00016546575
109	0x3b9b5a92	0.0047410214
110	0xbbb831c7	-0.0056211683
111	0xbb9f97fa	-0.004870412
112	0xbc2423c2	-0.010018291
113	0x3b098b2c	0.0020987494
114	0x00000000	0.0
115	0xbc748133	-0.014923382
116	0xbc0f35eb	-0.008740882
117	0xbacf6643	-0.0015823323
118	0xbc80d824	-0.015728064
119	0x3c048dea	0.008090476
120	0x00000000	0.0
121	0xbc45ec32	-0.012080239
122	0x36e8de76	6.9400367e-06
123	0xbc16412b	-0.009170811
124	0xbc83f53c	-0.016108148
125	0xbc3e8cc0	-0.011630237
126	0x00000000	0.0
127	0xbb8dca46	-0.0043270914

lin1.weight f4 [128, 256]
0	0x3ac32cfe	0.0014890728
1	0x3d2702bd	0.040774096
2	0x3d063566	0.03276577
3	0x3b0c6159	0.0021420328
4	0xba29671e	-0.0006462204
5	0xbc940d37	-0.018072708
6	0x3aa0ba27	0.0012262509
7	0xb9100467	-0.0001373455
8	0xba9a7240	-0.0011783317
9	0xbc2c6007	-0.010520942
10	0xbcd8f606	-0.0264845
11	0x39d94ec0	0.0004144814
12	0x3d2b6e66	0.04185333
13	0x3d6143db	0.054996353
14	0xbd15954f	-0.036519345
15	0xbb80b094	-0.0039272998
16	0xbcc502ee	-0.024049249
17	0xb9faa480	-0.00047806278
18	0x3c5f5240	0.01363045
19	0x3d0dc52b	0.034611862
20	0xbb76a91a	-0.0037637413
21	0x3baae792	0.0052155936
22	0xbd2c68ea	-0.04209224
23	0xbce3f3da	-0.027826238
24	0x3d88ef8c	0.06686315
25	0x3d3030c4	0.043015257
26	0x3c07b8e4	0.008283827
27	0xbcfece99	-0.031104373
28	0x3bc47903	0.005995871
29	0xbc7c40ea	-0.015396336
30	0xbd0ed208	-0.03486827
31	0x3d9892ab	0.0744985
32	0x3b426378	0.0029661339
33	0x3c8a6338	0.016893014
34	0x3ce360ba	0.027756084
35	0x3b37d73c	0.0028051874
36	0xbd07cb28	-0.03315273
37	0x3d054b31	0.03254241
38	0x3d91794c	0.07103214
39	0x3d66ba7c	0.05633019
40	0x3d8a41b7	0.06750815
41	0x3d192ad1	0.03739435
42	0x3cb5f851	0.022213133
43	0x3c6efc61	0.014586539
44	0x3cd36865	0.025806615
45	0x3d1b8980	0.037972927
46	0x3d144036	0.03619405
47	0x3c66f096	0.014095446
48	0x3ce0bcc7	0.027433766
49	0xbcc2ad9b	-0.023764422
50	0x3c2132e4	0.009838793
51	0x3d6e9115	0.05824383
52	0x3bdc0aa3	0.006715135
53	0x3aac2abe	0.0013135297
54	0x3c86e783	0.016467815
55	0x3d15d6e6	0.036581896
56	0x3d4831f4	0.048875764
57	0xbb53340d	-0.003222707
58	0x3d0487ca	0.03235606
59	0xbd01523c	-0.031572565
60	0x3be1e4a2	0.0068937102
61	0x3b0f5a1e	0.0021873782
62	0x3d8f2ba5	0.069907464
63	0x3cc609c4	0.024174578
64	0x3bdca88e	0.0067339605
65	0xbcbb3941	-0.02285445
66	0x3c6eecea	0.014582852
67	0x3d1ec731	0.038764182
68	0x3a96c026	0.0011501356
69	0x3b5eaf31	0.0033978934
70	0x3a8e3643	0.0010849911
71	0x39f403fe	0.0004654228
72	0x3b1ac70d	0.0023617179
73	0x3d8500c1	0.064942844
74	0x3aa544ee	0.0012609044
75	0x3d6e4aca	0.058176793
76	0xbc93eb15	-0.018056432
77	0x3d106668	0.035253912
78	0x3c961385	0.018319855
79	0x3bbd7a6f	0.0057824175
80	0x3bd55a62	0.0065110186
81	0x3a5d7170	0.00084473845
82	0xbc4a0b67	-0.01233182
83	0x3b8aefd1	0.004240014
84	0x39c5c8af	0.0003772429
85	0x3b414fa6	0.0029496937
86	0x3d802b66	0.062582776
87	0xbd0e1203	-0.034685146
88	0x3cadcb89	0.021215217
89	0xbc2368ac	-0.009973686
90	0x394106e2	0.00018408478
91	0xbcb30595	-0.021853248
92	0x3cdcf45d	0.02697199
93	0x3c834bec	0.016027413
94	0xbc9b969e	-0.018992718
95	0x3b40e61e	0.0029434036
96	0x3ce9b472	0.028528426
97	0xbc9c23ef	-0.019060103
98	0x3cc823e9	0.024431186
99	0x3d3eb3b6	0.046558104
100	0x3bdf05bc	0.0068061035
101	0x3d21b6e5	0.039481062
102	0x3b476216	0.0030423454
103	0x3aa00b01	0.0012210311
104	0x3d0a378c	0.03374438
105	0x3ba5154b	0.0050379387
106	0x3aeec19f	0.0018215663
107	0x3b36f70d	0.002791825
108	0xbc42dec7	-0.011893935
109	0x3b44dc2a	0.0030038455
110	0x3cb33403	0.021875387
111	0x3cf2f2b1	0.02965674
112	0xbb27964d	-0.0025571764
113	0x3aa55ba3	0.0012615811
114	0x3bacc040	0.0052719414
115	0xbd281163	-0.041032206
116	0x3d39d386	0.04536774
117	0x3bfee6b6	0.0077789677
118	0x3d8dbd88	0.06920916
119	0x3d681c9f	0.05666792
120	0xbb4f6e5f	-0.003165148
121	0x3c42d392	0.011891263
122	0xb9f502d9	-0.00046732163
123	0xbc3610e6	-0.011112427
124	0x3c883f33	0.016631698
125	0x3cad64e4	0.021166272
126	0x3a80ee33	0.0009836614
127	0x3d4ee2f5	0.05050941
128	0xba5f4d4d	-0.00085182936
129	0xbcda9cb8	-0.026686057
130	0xbd3992c3	-0.04530598
131	0xbc7bc059	-0.0153656835
132	0x3b4f5917	0.0031638795
133	0x3c9abe92	0.0188897
134	0xbc9979fb	-0.018734923
135	0xbcc936e8	-0.024562314
136	0x39ac6d78	0.00032887957
137	0x3c5a6f8d	0.01333226
138	0xbcd091b6	-0.025460105
139	0x3bbcb564	0.005758928
140	0xbc36617e	-0.011131642
141	0xbcb402ed	-0.021974051
142	0xba27d62d	-0.0006402459
143	0x3ace0978	0.0015719375
144	0x3b2067b2	0.002447587
145	0x3b5709c3	0.0032812215
146	0xbd09229d	-0.033480275
147	0xbd2dac44	-0.042400613
148	0x3ccee612	0.02525619
149	0x3c4b5676	0.012410751
150	0x3d40a30e	0.0470305
151	0xbc5cd27f	-0.013477921
152	0x3cd245fc	0.025668137
153	0xbd71ecff	-0.059063908
154	0xbcb7a8e6	-0.022419404
155	0xbcb717d7	-0.022350235
156	0xbbd42090	-0.0064736083
157	0x3ce5d77f	0.028056858
158	0xbd413cf1	-0.04717726
159	0x3aa8e0d4	0.0012884387
160	0xbcce93fa	-0.025217045
161	0x3d5a3768	0.053275496
162	0xbcaa9935	-0.020825008
163	0x3cb51133	0.022102928
164	0x3d4b0bef	0.049571928
165	0xbc5f08f5	-0.013612975
166	0xbcc1e652	-0.023669396
167	0xbcfc1801	-0.030773165
168	0xbd8d2664	-0.06892088
169	0x3d398957	0.045296993
170	0xbca3a7ed	-0.019977534
171	0x3c274938	0.010210328
172	0xbcfec01d	-0.031097466
173	0x3cf84b1f	0.030309258
174	0xbd4d006f	-0.05004924
175	0xbcc6aaf5	-0.02425144
176	0x3d1c5755	0.038169224
177	0xbd12debc	-0.035856947
178	0x3d41211b	0.047150712
179	0xbcdd0d32	-0.026983831
180	0x3b564f42	0.003270105
181	0x3b4ff69a	0.003173268
182	0xbd46f696	-0.048575006
183	0xbd5b0c01	-0.053478245
184	0x3984e5b0	0.00025348132
185	0xbd75fb30	-0.060054004
186	0x3caa5540	0.020792603
187	0x3cab3adf	0.020902095
188	0xbc7421f3	-0.014900672
189	0x3c21fe3c	0.009887274
190	0x3d0117e5	0.03151693
191	0xbbfdc1fa	-0.007744071
192	0x3c25a098	0.010109089
193	0x3d34b614	0.044118956
194	0x3d08e744	0.033423677
195	0xbd58550f	-0.052815493
196	0xbc03e826	-0.008050954
197	0xbcbd24ce	-0.023088839
198	0x3b68bf75	0.0035514508
199	0x3bc7d525	0.006098407
200	0xbb410782	-0.0029453938
201	0x3c44823f	0.011993944
202	0xbc665ed5	-0.014060696
203	0xbd0a0678	-0.033697575
204	0x3cacb136	0.021080595
205	0xb897555c	-7.2161405e-05
206	0xbd3d337a	-0.04619167
207	0x3d20e6ce	0.039282613
208	0xbb38ecd7	-0.002821734
209	0x39469be7	0.0001894083
210	0xbd2f4919	-0.04279432
211	0xbd84b162	-0.064791456
212	0x3afca74f	0.0019275936
213	0x3c840360	0.01611489
214	0x3d20d80b	0.039268535
215	0xbc8e19c9	-0.01734628
216	0xbcfb3397	-0.030664248
217	0xbd2b99bd	-0.041894663
218	0x3c05aa02	0.008158209
219	0x3c0a6213	0.008446234
220	0x3d029824	0.031883374
221	0xbd416691	-0.047216956
222	0x3c8bb836	0.017055612
223	0xbc03b4f5	-0.008038749
224	0xbd7f6263	-0.06234969
225	0xbcaf05c5	-0.021365056
226	0x3b995e5b	0.0046804375
227	0xbd87fc2e	-0.06639896
228	0x3c052df9	0.0081286365
229	0x3d252059	0.040314052
230	0x3cb508e0	0.022098958
231	0x3b0f62a2	0.0021878858
232	0xbd40149f	-0.046894666
233	0xbc79557d	-0.015218136
234	0xbb2ede57	-0.0026682818
235	0x3aad257e	0.0013210026
236	0xbd83624e	-0.064152345
237	0xbccb1727	-0.024791313
238	0x3b2b2534	0.0026114704
239	0x3d06af51	0.03288204
240	0xbcd6124a	-0.026131768
241	0x3b73fa6d	0.0037228123
242	0x3ab18003	0.0013542179
243	0x3bf1e591	0.007382103
244	0xbd29cb23	-0.041453492
245	0x3bb94d14	0.0056549404
246	0xbc6f2946	-0.014597243
247	0x3b2ef37f	0.0026695428
248	0x3b1a574e	0.0023550573
249	0x3d1dadd8	0.03849587
250	0x3b3709d0	0.0027929433
251	0x3c53a189	0.012916931
252	0xbce01fad	-0.027358854
253	0x3ce77fa8	0.028259113
254	0x3c334f40	0.010944188
255	0x3d21ef3a	0.039534785

lin1.bias f4 [128]
0	0x3cecef62	0.02892274
1	0x3cad956a	0.02118941
2	0xbcdc91fa	-0.026925076
3	0xbce08c30	-0.027410597
4	0x3caeef57	0.02135436
5	0xbad8d9d4	-0.001654441
6	0xb99befab	-0.0002974247
7	0x3a5c2a85	0.000839867
8	0xbc4ebb58	-0.012617908
9	0x3d00a0e1	0.031403426
10	0x3d112cda	0.035443164
11	0x3d5b6a47	0.05356815
12	0xba5a68b6	-0.0008331643
13	0x3cde774e	0.027156498
14	0xb9df4f4f	-0.00042592964
15	0x39bf939c	0.00036540336
16	0xbd78192d	-0.060570884
17	0x3b8e65e8	0.0043456443
18	0x3be40fc7	0.0069598886
19	0xbb9b90bb	-0.004747478
20	0x3cbc07d1	0.022952946
21	0xbb985978	-0.0046493374
22	0x3a903bb7	0.0011004125
23	0x3d572bbe	0.05253195
24	0x3c6234c8	0.013806529
25	0x39c57734	0.0003766358
26	0x3d7f2012	0.062286444
27	0x39f23b37	0.00046201955
28	0x3b291bee	0.0025804
29	0xb9513d93	-0.00019954731
30	0xbb379ae0	-0.0028015897
31	0xb8824940	-6.212527e-05
32	0x3ae44c01	0.001741767
33	0xbb7c9922	-0.0038543423
34	0xbd0858a4	-0.03328766
35	0x38908a08	6.8921654e-05
36	0x3953a2f7	0.00020183237
37	0xba485283	-0.000764169
38	0x38633b7c	5.4176417e-05
39	0x36b92164	5.517317e-06
40	0x3ba8ec8e	0.0051551526
41	0x3d71965e	0.058981292
42	0x3d73842f	0.059452232
43	0x3d17742d	0.03697603
44	0xba2aee54	-0.0006520499
45	0xbd557e25	-0.052122254
46	0x3d5605d5	0.052251656
47	0xbcde3293	-0.027123725
48	0xb9fd2c2a	-0.00048288825
49	0xb79ef290	-1.894802e-05
50	0x3b86b225	0.004110592
51	0x3d207908	0.039177924
52	0x3bdb6157	0.0066949534
53	0xbc49ffd3	-0.01232906
54	0x398b4f7d	0.0002657137
55	0x3a0cf40f	0.0005376944
56	0x3895b0ee	7.1378294e-05
57	0xbbdc75b7	-0.0067279
58	0xb936de02	-0.00017439577
59	0x3d29be0f	0.04144102
60	0xbcae2e83	-0.021262413
61	0xbacdd534	-0.0015703798
62	0x3919d6e6	0.00014671273
63	0xbc2fb295	-0.01072373
64	0xbcbbd504	-0.022928722
65	0x3d33f8f5	0.043938596
66	0x38c7735d	9.5105475e-05
67	0x3820e9b8	3.836464e-05
68	0x3bd402c2	0.0064700553
69	0xbce45193	-0.027870929
70	0x3cc61e96	0.024184506
71	0x3cbcd09f	0.023048697
72	0x3d313db8	0.04327175
73	0x3a294010	0.00064563844
74	0x3c48c9ab	0.012255113
75	0x38c25018	9.2655595e-05
76	0xbcabdfea	-0.020980794
77	0xbcdc2f19	-0.026877927
78	0x3c730bdd	0.014834371
79	0x3a72e95a	0.00092663395
80	0x3bae6244	0.005321773
81	0x3d04fdd1	0.03246862
82	0xbc4f8186	-0.012665158
83	0xbb68de5e	-0.0035532932
84	0xbd03e573	-0.03220124
85	0xbd1eff22	-0.038817532
86	0x3d4e8fe6	0.0504302
87	0x3d83cbe5	0.06435374
88	0x3d23116d	0.03981154
89	0xb79854a4	-1.8159226e-05
90	0xb9fbe86d	-0.0004804762
91	0x3bf4caa6	0.0074704466
92	0xb967f35c	-0.00022120535
93	0xbd5bcc5f	-0.0536617
94	0xbcfbdf10	-0.030746013
95	0x3b40437d	0.00293371
96	0x3d66d584	0.056355968
97	0x3c90ed0c	0.017691158
98	0x3cf46eed	0.02983805
99	0xbbcdd0a4	-0.0062809754
100	0xbb312505	-0.0027030122
101	0x3ce85a0a	0.028363246
102	0xbcb6f5a9	-0.022333937
103	0x3d1633b7	0.036670413
104	0x3cb59322	0.022164885
105	0x3d478c4b	0.04871778
106	0x3a67570a	0.00088249205
107	0xbbb101b3	-0.005401814
108	0x3a3d8e3e	0.00072309736
109	0xbd25d98a	-0.040490665
110	0x3c3a49a5	0.011370097
111	0x3caebdd3	0.02133075
112	0x3c5ab54a	0.013348887
113	0x3c379a94	0.011206288
114	0x3c6d5d77	0.014487616
115	0xbce25474	-0.027628161
116	0x3d5d6489	0.054050956
117	0x38b8a8ce	8.805246e-05
118	0x3c7e35c3	0.0155157475
119	0x3c68341d	0.014172581
120	0x3c259c14	0.010108013
121	0x3cf040b8	0.029327735
122	0x3d78eb5e	0.06077134
123	0x3d4143bb	0.047183733
124	0xbb9321bd	-0.004490106
125	0xba2ecfda	-0.00066685455
126	0x3cbe370d	0.02321961
127	0xbb9f1658	-0.0048549585

lin2.weight f4 [64, 128]
0	0x3c99a66f	0.01875612
1	0x3d2e6f88	0.042586833
2	0x3d067d73	0.03283448
3	0xbd149d77	-0.036282983
4	0x3d749492	0.059712
5	0xba5864f6	-0.00082547904
6	0x3d2493b4	0.040179923
7	0x3c7de30f	0.0154960295
8	0x38275e8b	3.9903953e-05
9	0xbc4b720b	-0.012417327
10	0x3d55a143	0.052155744
11	0x3d212a0c	0.03934674
12	0x3a17b4ee	0.00057871535
13	0xbbb8d536	-0.005640651
14	0x3bb0d86e	0.005396894
15	0xbbd7e0d9	-0.006588083
16	0x3d8ef6d0	0.069806695
17	0xb998a438	-0.00029114052
18	0xbdb44ebe	-0.088040814
19	0x3c0c1e90	0.008552209
20	0x3d2b20aa	0.041779198
21	0xbcbb148d	-0.022836948
22	0x3d62075f	0.05518281
23	0xbcad2212	-0.02113441
24	0x3c7b788b	0.015348564
25	0x3bf6fc3a	0.007537392
26	0xbd3c44e2	-0.04596413
27	0x3a58fa86	0.0008277077
28	0x3b860266	0.0040896414
29	0xbcaa7d66	-0.020811748
30	0xbba03241	-0.004888803
31	0x3cf2c123	0.02963311
32	0x3b90280e	0.004399306
33	0xbc0a1e2b	-0.008430044
34	0xbd9b7801	-0.07591248
35	0xb9c0f98e	-0.00036807026
36	0xb700c186	-7.674453e-06
37	0x3acafef0	0.0015487354
38	0x3c5ffdbe	0.013671337
39	0xba6870b1	-0.000886689
40	0xbbb7cadc	-0.0056088995
41	0xbd0cc7c3	-0.034370195
42	0xbcc07a10	-0.023495704
43	0xbcda0390	-0.026613027
44	0x3c9ac830	0.018894285
45	0xbd98fbcc	-0.074699014
46	0xbd70000a	-0.058593787
47	0xba0923b0	-0.0005231453
48	0xb824f2b6	-3.932669e-05
49	0x39aedb93	0.00033351462
50	0x3c737b9a	0.014861012
51	0xbd2ec628	-0.042669445
52	0xbd2e808b	-0.042603057
53	0x3ce692ee	0.028146233
54	0xb7da016c	-2.5988287e-05
55	0xbb9d18f1	-0.004794233
56	0xbd93bf06	-0.07214169
57	0xbd1e0e87	-0.038588073
58	0x3cb136c3	0.021632558
59	0xbca4213c	-0.020035379
60	0xbd430750	-0.047614396
61	0xbb914fc6	-0.0044345586
62	0x3d0c9ece	0.034331135
63	0x3c345718	0.011007093
64	0xbb43f605	-0.0029901278
65	0x3d941986	0.07231431
66	0xbb134d78	-0.0022476595
67	0x3a8fe143	0.0010977167
68	0x3a746eae	0.0009324354
69	0xbc509aee	-0.012732251
70	0xbd7bc3b2	-0.061465926
71	0xbd1766a0	-0.036963105
72	0xbc497a6e	-0.012297256
73	0xbc097ac8	-0.00839109
74	0x3d3473d5	0.04405578
75	0x395835da	0.00020619427
76	0xbcbb6d1f	-0.022879181
77	0xbd65e277	-0.056124177
78	0x3d92ed9f	0.07174229
79	0x3d79bfd4	0.060973957
80	0xbcda488f	-0.026645927
81	0xbdb0d7d4	-0.08634916
82	0x3c9d5c70	0.019209117
83	0xbd827995	-0.06370846
84	0x3d2cef52	0.04222042
85	0xbc587ee2	-0.013213845
86	0x3cfe7072	0.031059477
87	0xbd48d782	-0.04903365
88	0xbd3a4666	-0.045477293
89	0x3cbfc826	0.023410868
90	0x388113f0	6.154913e-05
91	0x3a5a2048	0.00083208503
92	0xbc7bc5e2	-0.015367003
93	0xb90f1484	-0.00013645185
94	0x386b8102	5.6148514e-05
95	0x3a7993b7	0.00095206074
96	0xbda054c1	-0.078286655
97	0xbd23f359	-0.040026996
98	0x3ceff8c5	0.029293427
99	0xba7da407	-0.0009675626
100	0x3d2129b3	0.039346408
101	0x3d349bd2	0.044093914
102	0x3ca93290	0.020653993
103	0xbd8ec533	-0.069712065
104	0xbbd5f7c2	-0.006529779
105	0x3ccc01d0	0.024903208
106	0xbc44f342	-0.012020888
107	0xb77f1811	-1.5204788e-05
108	0xb90a083d	-0.00013163775
109	0xbcecddce	-0.028914358
110	0x3c9f77af	0.01946625
111	0xbcefacbf	-0.029257176
112	0xbc12df1e	-0.008964328
113	0x3d1818a3	0.03713287
114	0x3ba59128	0.0050527044
115	0xbcb2b812	-0.021816287
116	0xbd6ef208	-0.058336288
117	0x397dff28	0.00024223013
118	0xbd8d0296	-0.06885259
119	0xbc6de0d1	-0.014518932
120	0xbc8623da	-0.016374517
121	0xbc05ff0c	-0.008178484
122	0xbd7bdac5	-0.06148793
123	0x3d50a585	0.0509391
124	0x3a0cd6f6	0.0005372608
125	0x3625b8d0	2.469449e-06
126	0x3d87e863	0.06636121
127	0xb88a59fb	-6.597113e-05
128	0x3c86f4c9	0.016474145
129	0xba628366	-0.0008640796
130	0xba5f5478	-0.0008519362
131	0xba95ed2f	-0.0011438484
132	0x3c65e13b	0.01403075
133	0xbc0223cc	-0.007943105
134	0xba9b6635	-0.0011856022
135	0xbccb6532	-0.024828527
136	0x37201cc4	9.543441e-06
137	0xbc56a6ab	-0.01310126
138	0xbcab4bbd	-0.020910138
139	0x3cc21610	0.02369216
140	0x388e0bd8	6.773294e-05
141	0xbbc6a387	-0.0060619744
142	0x39c3fe8c	0.0003738295
143	0xb926d9c0	-0.00015912112
144	0xbca3d8b2	-0.02000079
145	0x3b95d9c2	0.004573078
146	0x3d5d7a69	0.054071818
147	0xbcc74f6a	-0.02432986
148	0x3a714c90	0.0009204829
149	0x3b21f3b8	0.0024711918
150	0xbbe9aa17	-0.007130872
151	0x3c5b2428	0.01337532
152	0xbb84ca73	-0.004052454
153	0x3757ccc2	1.28626725e-05
154	0x3c33f7f8	0.010984413
155	0xbc9134da	-0.017725397
156	0x3ad7d536	0.001646674
157	0x39382d19	0.00017564408
158	0x3c902473	0.017595505
159	0xbc2a8544	-0.01040775
160	0xb8dfe950	-0.000106769265
161	0xba39bdcc	-0.0007085472
162	0xbca4ff49	-0.02014126
163	0x3b866114	0.004100928
164	0xbc4c4659	-0.012467944
165	0x3c91e326	0.017808508
166	0xbc62f476	-0.013852229
167	0xb957b26e	-0.00020570468
168	0xbb69e69c	-0.0035690432
169	0x3becc189	0.0072252196
170	0xbd69ef5f	-0.057113048
171	0xbb148781	-0.0022663774
172	0x3b8f50f1	0.0043736626
173	0xbd04cb5b	-0.032420497
174	0xbb8f25d1	-0.0043685217
175	0xbd123066	-0.035690688
176	0xbce885c9	-0.028384106
177	0x3a741093	0.0009310331
178	0x38698218	5.5672688e-05
179	0x3cd3a1a2	0.025833908
180	0xbb6a4b19	-0.0035750328
181	0xbcec6758	-0.028857872
182	0x3a807fe7	0.0009803743
183	0xb8c38bba	-9.324351e-05
184	0xba5fdb9b	-0.00085394987
185	0xb92847ed	-0.00016048523
186	0xb9e2609b	-0.00043178056
187	0xbc773919	-0.015089297
188	0x38cd8564	9.800008e-05
189	0x39616953	0.00021496908
190	0xb9d74f59	-0.00041067114
191	0x3c113aee	0.008864148
192	0xbbaf030e	-0.0053409403
193	0x391bf869	0.00014874492
194	0xb862f612	-5.411177e-05
195	0x3b2a8af7	0.002602277
196	0xbc6f2682	-0.014596583
197	0xbccacf02	-0.024756912
198	0xbd552768	-0.052039534
199	0xbc081775	-0.008306374
200	0xbc165f89	-0.009178051
201	0xbc4527d8	-0.012033425
202	0xbc6748ab	-0.0141164465
203	0x39abbcfb	0.00032756463
204	0xb982ea9c	-0.0002497033
205	0xbb8108fd	-0.003937839
206	0xbd0f104c	-0.03492765
207	0x3d463938	0.04839441
208	0xb9933e5f	-0.00028084495
209	0x392deac4	0.00016586023
210	0x3a23fcbe	0.0006255618
211	0x3d1f4e08	0.038892776
212	0xbc13077b	-0.008973951
213	0x3a73574a	0.00092827214
214	0xba4030b3	-0.00073314755
215	0x3a821899	0.0009925544
216	0xbb6a8f72	-0.0035791066
217	0x39b7da52	0.0003506714
218	0xbbc2f402	-0.005949498
219	0x3a644f49	0.0008709324
220	0xbcc26986	-0.023731958
221	0xbae21a56	-0.001725028
222	0x3d02d16e	0.03193801
223	0x3bf98e79	0.007615861
224	0x3d4af2a8	0.04954782
225	0x38948652	7.082209e-05
226	0xbccf022e	-0.025269594
227	0x3b9745ac	0.00461646
228	0xbcfd5750	-0.030925423
229	0xbd22cb51	-0.03974468
230	0xbce90ff3	-0.028449988
231	0x3bbb625a	0.0057185115
232	0xbc6b76cc	-0.014371585
233	0xbc698b7c	-0.014254447
234	0xb95fa079	-0.00021326718
235	0xbc9c02fe	-0.019044396
236	0xb9d29716	-0.0004016689
237	0x3cb81dea	0.022475202
238	0xbc9e98f1	-0.019360038
239	0xbcf91780	-0.030406713
240	0x3c698fbc	0.01425546
241	0xbbc0b88b	-0.0058813742
242	0xbb8db17c	-0.0043241363
243	0x3d49abba	0.049236037
244	0x3ca5dd3e	0.020247098
245	0xb84f597a	-4.9435977e-05
246	0x3bfc5a04	0.0077011604
247	0xbc003c37	-0.007826856
248	0xbcda8ed2	-0.02667943
249	0x3bbf6924	0.005841391
250	0x3d0210a0	0.031754136
251	0xbb883664	-0.0041568745
252	0xb8d6483b	-0.00010217769
253	0x3a65b600	0.0008762777
254	0x3add002a	0.0016861011
255	0x3c906cdc	0.017630033

lin2.bias f4 [64]
0	0x3d40c6cd	0.04706459
1	0xbd80d7f1	-0.062911876
2	0xbd737040	-0.05943322
3	0xbd401e32	-0.046903796
4	0xbcc6bd60	-0.024260223
5	0x3da29450	0.079384446
6	0xbd214e5e	-0.039381377
7	0x3d9bfa7a	0.07616134
8	0x3cce6bba	0.025197852
9	0x3d3a59e9	0.0454959
10	0xbc421c0d	-0.011847508
11	0x3d9f972f	0.07792508
12	0xbb4770a7	-0.0030432136
13	0x3d44916b	0.047990244
14	0x3c826d25	0.015921185
15	0x3c026096	0.007957598
16	0x3d5ea532	0.05435676
17	0x3afd39fc	0.0019319649
18	0x3c10f460	0.008847326
19	0x3d93af1e	0.07211135
20	0x3d907660	0.07053828
21	0x3d10c0a5	0.03533997
22	0x3d0f5c42	0.035000093
23	0x3b7e8082	0.003883392
24	0x3d915b1d	0.070974566
25	0xbb6ecb1d	-0.0036436983
26	0x39aecc96	0.00033340295
27	0x3cb9e1c9	0.02269067
28	0x3b5760d2	0.0032864106
29	0x3cfdc29a	0.030976582
30	0xbd5f6530	-0.05453986
31	0x3d75922c	0.059953853
32	0xbd39a463	-0.045322787
33	0x3cfd286d	0.030903066
34	0xbbeced42	-0.007230432
35	0x39e0d986	0.00042886677
36	0x3d9a256c	0.07526669
37	0x3cb63273	0.022240853
38	0x3d944259	0.07239217
39	0x3ca01a40	0.019543767
40	0xbcd46059	-0.025924848
41	0xbd66f96a	-0.056390204
42	0xbd0c057d	-0.03418492
43	0x3d9e5558	0.07731122
44	0xbd9eb06c	-0.077484936
45	0x3db3dc43	0.08782246
46	0xbdcca655	-0.09992663
47	0xbb3a3b65	-0.002841675
48	0x3d6db65e	0.058035247
49	0x3d942346	0.072332904
50	0x3d9c858b	0.07642659
51	0x3cfec42c	0.031099401
52	0x3ca99134	0.020699121
53	0x3bb1c1d6	0.0054247184
54	0x3c8e4d4c	0.017370842
55	0xbcedad8a	-0.029013414
56	0xb82ad911	-4.0733317e-05
57	0x3d70cd42	0.0587895
58	0x3b99e7c9	0.0046968204
59	0xbc35c2d5	-0.011093815
60	0x3d45a3b4	0.048251823
61	0x3d625460	0.055256248
62	0x3af69972	0.0018814041
63	0x3d4245a0	0.04742968

lin3.weight f4 [2, 64]
0	0xbdb4316d	-0.0879849
1	0x3d866c7a	0.06563659
2	0xbdf4f82c	-0.119613975
3	0x3caa240f	0.020769147
4	0xbc810c98	-0.015753075
5	0xbda5eb44	-0.08101514
6	0xbdae4979	-0.085101075
7	0x3def6dec	0.11690888
8	0xbd69c2ba	-0.05707047
9	0x3d275279	0.040850136
10	0xbd70d13f	-0.058793303
11	0x3c9ba665	0.019000242
12	0xba3c418b	-0.00071813975
13	0xbbe3ab52	-0.006947913
14	0x3d037a81	0.03209925
15	0x3dbb0f01	0.09133721
16	0x3e04f6ca	0.12984768
17	0x3cfef3a9	0.031122046
18	0x3cd02a04	0.02541066
19	0x3cfe45bf	0.031039117
20	0xbc9a7262	-0.01885337
21	0xbd409c51	-0.047024075
22	0xbb9c222b	-0.0047648153
23	0xbb7435d0	-0.003726352
24	0xb9b3d067	-0.00034296812
25	0xbd093c53	-0.033504795
26	0xbadcaffa	-0.0016837113
27	0x3d9858f3	0.07438841
28	0xbd23ad6d	-0.039960314
29	0xbcce2395	-0.025163451
30	0xbcfa65df	-0.030566154
31	0x3c529b8e	0.01285447
32	0xbdb3ce3a	-0.08779569
33	0xbcde72d1	-0.027154358
34	0x3ad2ab93	0.0016072862
35	0xbb1cf0f2	-0.0023947326
36	0xbdb14c26	-0.08657102
37	0x3c9472bf	0.018121121
38	0xbd05bb19	-0.032649133
39	0xbc5be2cb	-0.013420771
40	0xbb0590ee	-0.0020380574
41	0x3e095429	0.13411011
42	0x3db22396	0.08698194
43	0x3d1ea66e	0.03873294
44	0x3e00495e	0.12527987
45	0x3dbe87fc	0.09303281
46	0xbe06ff66	-0.13183364
47	0xbcb4f113	-0.02208761
48	0xbcebc576	-0.02878068
49	0x3d0a9772	0.033835836
50	0x3c243635	0.01002269
51	0xba1048b2	-0.00055039965
52	0x3de2cf12	0.11074652
53	0xbd881baa	-0.066459015
54	0x3d66468b	0.05621962
55	0xbdb018a0	-0.08598447
56	0xb9c7e2c0	-0.0003812518
57	0xbd13fdb6	-0.03613063
58	0xbddaa7ed	-0.106765606
59	0xbd257539	-0.040394995
60	0x3d79eab8	0.06101486
61	0xbcac1a46	-0.021008622
62	0xbdfe65e6	-0.12421779
63	0x3cbb157c	0.022837393
64	0x3d2b7577	0.04186007
65	0x3b4d9141	0.0031367096
66	0x3dfdcacc	0.12392196
67	0x3d6d7b3d	0.057978857
68	0xbd1227d0	-0.0356825
69	0x3db275ff	0.08713912
70	0x3d4ee4e7	0.050511267
71	0x3d9cfca4	0.07665375
72	0x3da2cd5d	0.07949326
73	0x3d175999	0.03695068
74	0xbdd0276e	-0.101637706
75	0xbd853814	-0.06504837
76	0x396afed7	0.00022410914
77	0x3d7d2bea	0.061809458
78	0x3db777d6	0.08958404
79	0xbca3758a	-0.019953508
80	0xbdb51951	-0.08842719
81	0x3d601f44	0.054717317
82	0x3d89729b	0.067113124
83	0x3d834293	0.064091824
84	0x3dc96b1b	0.09834882
85	0xbdaf9525	-0.08573369
86	0xbd2dbd37	-0.042416777
87	0xbba9bed7	-0.0051802206
88	0x3dbb2501	0.09137917
89	0xb9ab962f	-0.00032727557
90	0xba65b5b3	-0.0008762732
91	0xbd9ca082	-0.07647802
92	0xbc696f3a	-0.01424771
93	0xbc212d98	-0.009837531
94	0x3c531a41	0.012884677
95	0x3d5a0770	0.05322975
96	0x3de33f97	0.11096113
97	0xbce2ef8e	-0.02770212
98	0x3dbab54f	0.09116613
99	0xb8399071	-4.424196e-05
100	0x3dda3653	0.10654893
101	0xbdabe9c0	-0.08394194
102	0x3d87053a	0.06592794
103	0x3de75e0c	0.11297235
104	0x3ce9c6f3	0.02853725
105	0xbe09d0cb	-0.13458554
106	0xbdb36bb4	-0.08760777
107	0xbc70a098	-0.014686726
108	0x3d957cc0	0.07299185
109	0xbd102097	-0.03518733
110	0xbd5a742f	-0.053333458
111	0xbdd2236c	-0.102606624
112	0x3dcca76a	0.09992869
113	0x3a630b00	0.0008661002
114	0xbdfef826	-0.12449674
115	0x3d6ed487	0.05830815
116	0xbc6980d0	-0.014251903
117	0xbd8bce71	-0.06826485
118	0x3dad6041	0.084656246
119	0x3d6774d2	0.056507893
120	0xbd4bda16	-0.04976853
121	0x3d6ee913	0.058327746
122	0x3d352fd4	0.044235066
123	0xbd08859f	-0.033330556
124	0xbd05f35c	-0.03270279
125	0x3da2916b	0.079378925
126	0x3da42c68	0.08016282
127	0x3d859d28	0.06524116

lin3.bias f4 [2]
0	0x3da77668	0.08176881
1	0x3d9127fc	0.070877045
