models/new/#CONV=2_#POOL=1_Hidden=256_PoolR=0.6_RANDS=777.pth (torch, 930302 bytes, 11 tensors)

convpool_layers.0.conv.weight f4 [1, 256]
00000000: a34a 263c eea1 fdbc 7708 d03d 8e57 1dbb
00000010: 7a61 8ebd 8b93 23bd 0ecf f33d 1255 973d
00000020: a75d 38bd 8e48 ccbd 3138 b4bd 2580 0d3e
00000030: 8360 c1bd 2237 dc3d 6cda 353d 306c 153e
00000040: 864b e83d 12c9 d3bd 08aa 82bd b0b2 e4bd
00000050: ba6d 163d 1509 e73d 59de 3f3d 4a4f 78bd
00000060: 2508 05bd 09fe 8e3d 1da4 653d 8f54 7bbc
00000070: 4700 a53c d0b7 cd3d 003f f43d 99a1 a83d
00000080: b046 373d 6bc9 b4bc 09db bdbd 4b19 d2bd
00000090: 476e 913d 8daf 173e f74e 8a3d 5541 253d
000000a0: 89e5 3d3d 01d9 43bb 385f 923d a26c bc3d
000000b0: b1c7 9b3c 0ed3 163e 5601 1f3e 77ab 7fbd
000000c0: 0d52 59bc f04e 1a3d 9039 b03d 561a 0b3e
000000d0: 71f4 893c 1587 103e 4ed4 043e c3c3 053e
000000e0: 58a3 e53d a70f 943d 76e4 74bd 9f46 0bbc
000000f0: 8c9b a3bd 8627 173d 41e7 4b3d cd60 a9bd
00000100: de06 5cbd db3c adbd 184f 0d3d c7bc b8bd
00000110: f350 303d e5c0 923b cff6 b2bd b201 d73d
00000120: 127e eabd 4a8f ad3d 1f11 933d 62f9 c3bd
00000130: 6d75 5bbd e6d9 8bbd 5308 163e 8715 173e
00000140: b5a4 70bc 53f4 43bd a69d e53c 755f 88bc
00000150: f55e 6c3d 24af ca3c 3edb 693d cbb7 a0bd
00000160: 6714 833d 4308 aebd cabe 843d de66 a13c
00000170: 7e3c 06bb 191d 433d dc73 ea3d 326f 9a3d
00000180: 5072 c3bd 4836 2bbd 6d13 e43d c9ea 213e
00000190: 6445 a43d a070 93bd 3f6f 98bc 3956 47bd
000001a0: 1b44 4fbd a21d 51bd 3937 eebd 73c5 a93c
000001b0: 1bb5 8bbd 5dca 473c 6eac 38bb 0170 643d
000001c0: 8edc d2bc 7c9b 3e3d 74e7 f4bd 0b5f 653d
000001d0: 77ba df3d c194 0abd 5503 05be 6507 4fbd
000001e0: bb29 a4bd 3451 7dbd b9f2 a6bd cec7 643d
000001f0: a906 d23c 9c7e 1f3d f317 23bd b042 b53d
00000200: a228 07be 94ec 53bd 3a59 dcbc 74d9 3e3d
00000210: 6546 adbd ad74 df3d 08e3 a63d 1bbd f03d
00000220: e576 783d a615 adbd 698e a4bc b25b 4d3d
00000230: 05c0 573d 42c3 093e 35c0 b4bd 8a48 cabc
00000240: 475f 7abd 7268 babc 8c9d aebd 306c 8dbd
00000250: 0afb 9aba 7eb6 68bc d267 37bd 7e2a 3b3d
00000260: f867 b8bd 612e c2bc 97cb 27bd 817d 0e3e
00000270: 9c98 9abd 6539 d6bd d558 d5bb 0187 98ba
00000280: 07f9 74bc 6910 efbd 7581 adbd 05a2 dcbd
00000290: 75ef aabd f803 5cbd 7ac0 df3a e6d5 773d
000002a0: 47c3 e53d 9895 a53d 2dfe 783d 7f17 bbbd
000002b0: 2c55 afbc 218e c4bc 2b36 a4bd 17a5 0f3d
000002c0: ea33 4d37 6f2a 89bd 7cba c0bc cf6e 093e
000002d0: 7b7a a03d 7f34 bfbd ad89 263d eb9d f1bd
000002e0: 2bb9 31bd 6633 113e b993 8cbb e741 fd3d
000002f0: a602 0e3e d80f c13d 4232 173e 095d afbd
00000300: 97c6 033d f1d4 663c 8bff e23d ca19 44bd
00000310: de31 cfbc 9699 f1bd 30db c03d 37c5 17bd
00000320: b5e9 1a3e 3fa4 603d 87b9 1c3d 8eab 0f3d
00000330: 1b2c ecbd 9681 cdbd 169a 5b3a 32c5 d1bd
00000340: 077d 9cbd 926f d13d 23e5 623d bf97 0bbd
00000350: af00 7b3b 256a 293d 415f 863d fd08 d8bd
00000360: cb36 8c3c 2b40 adbd 4be3 c6bd 77f6 61bb
00000370: d4e9 93bd 4cfe 063e 37bd 083e de89 df3c
00000380: 7388 dfbd 89ca 8c3b 6c09 a7bc 5283 fe38
00000390: c848 99bd fd2a 86bd 6784 0fbb d2e9 5ebd
000003a0: 0571 c43d c42a 053c 268e 403d 73e2 8e3d
000003b0: 8ae8 fe3c 31d1 d63d ebdf 0b3e 8433 1ebd
000003c0: 25fa bcbd 4759 7fbd ba4a 68bd c6eb c33d
000003d0: 776d e4bd a754 af3d 8b4d 573d 6e60 45ba
000003e0: 6018 19bd e10d 05bc 4e15 73bd a07f 163e
000003f0: 04bb 60bd fcb5 e7bc 645b 093e 35fe 27bd
0.010149631 -0.030961003 0.101578645 -0.0024008485 -0.06952186 -0.03993563 0.11904727 0.07389273
-0.04501119 -0.09974776 -0.0879978 0.13818415 -0.09442236 0.10752703 0.044397756 0.14592052
0.1134253 -0.103410855 -0.06380087 -0.111668944 0.036725737 0.11281029 0.046842907 -0.06062249
-0.03247847 0.06982047 0.056064714 -0.015339985 0.020141734 0.10044825 0.11926079 0.08233947
0.044745147 -0.0220687 -0.09270293 -0.102587305 0.07101112 0.14813061 0.067533426 0.04034551
0.04636148 -0.0029883983 0.07147068 0.092004076 0.019016119 0.14728948 0.15527853 -0.06241938
-0.013264191 0.037672937 0.08604729 0.13584265 0.016840192 0.1411403 0.12971613 0.13062958
0.11212796 0.07229548 -0.05978819 -0.008500724 -0.079886526 0.036902927 0.049781088 -0.082704164
-0.053717487 -0.08458873 0.034499258 -0.090203814 0.04304595 0.004478561 -0.08738481 0.1049837
-0.11449827 0.08474596 0.07181 -0.0956905 -0.053578783 -0.0682867 0.14651613 0.14754306
-0.014687707 -0.047840428 0.028029274 -0.01664708 0.057707746 0.024741717 0.05709385 -0.07847556
0.06400376 -0.084976695 0.064817026 0.019702371 -0.0020482833 0.04763517 0.1144788 0.0754074
-0.09543288 -0.041799814 0.11136518 0.1581222 0.08021048 -0.07199216 -0.018607734 -0.048666213
-0.05060206 -0.05105365 -0.11631627 0.020724034 -0.068216525 0.012194243 -0.0028178948 0.055770878
-0.025739934 0.046535 -0.11958209 0.055998843 0.10924237 -0.03383327 -0.12989552 -0.05054416
-0.08015772 -0.06184502 -0.081517644 0.05585461 0.025637941 0.038939103 -0.03981776 0.0885061
-0.13199094 -0.05173929 -0.026898015 0.0465941 -0.08460692 0.10910926 0.081487715 0.11754819
0.06066026 -0.08451395 -0.020087438 0.050136276 0.05267336 0.13453391 -0.08825723 -0.024692792
-0.06112602 -0.022754882 -0.085261434 -0.06905401 -0.0011824083 -0.014203666 -0.044776745 0.04569482
-0.090042055 -0.023703756 -0.040965643 0.13915063 -0.07548639 -0.10460166 -0.0065108337 -0.0011636914
-0.014951951 -0.11673052 -0.084719576 -0.1077309 -0.08346454 -0.053714722 0.0017070912 0.060506724
0.11218887 0.08085173 0.060789276 -0.09135341 -0.021402918 -0.023993554 -0.08018144 0.03506955
1.2231039e-05 -0.06697547 -0.023526423 0.13421176 0.07835861 -0.09336185 0.04065864 -0.117976986
-0.04338948 0.14179763 -0.004290071 0.123660855 0.13868198 0.0942685 0.14765266 -0.08562667
0.032171812 0.014088855 0.11083897 -0.047876157 -0.025292333 -0.11796872 0.09416807 -0.037053313
0.15128215 0.054844137 0.03826287 0.035075717 -0.1153185 -0.10034482 0.00083771476 -0.1024269
-0.076410346 0.102263585 0.055394303 -0.034080263 0.0038299968 0.041360993 0.06561137 -0.105485894
0.017115971 -0.08459505 -0.097113214 -0.003447918 -0.072223336 0.13182944 0.1335343 0.02728742
-0.109146975 0.004296605 -0.020390235 0.00012136124 -0.07484585 -0.06551168 -0.0021898986 -0.054422207
0.09591869 0.008127872 0.047010563 0.069767855 0.031116743 0.10489119 0.13659637 -0.038623348
-0.09227399 -0.062341 -0.05671189 0.095664546 -0.11153691 0.08561068 0.052564185 -0.0007529323
-0.03737676 -0.008120985 -0.05934649 0.14697123 -0.054865852 -0.02828502 0.13413769 -0.041013915

convpool_layers.0.conv.bias f4 [256]
00000000: cdc5 83bc ca59 443b b5b9 99bc daab 4abc
00000010: 75f2 8dba 0b4e b339 e105 df3b 893c 82bc
00000020: d0c8 04bb b622 fe3a ff08 683b 5785 54bc
00000030: 106b e43b 00f5 99bc a6e8 87bb afe7 eaba
00000040: ce7f bcbb 8be4 e63b 3444 033b 59ac dd3b
00000050: a45d 8cbb f568 8d3b 270b 80bc 836e 643b
00000060: ad90 823b 6806 a63b 3efe 98bb 4f39 8bbb
00000070: 98a4 1dbc a31a ae3a 8a5e 75ba c335 643b
00000080: 54dd adbc baf3 9539 a392 ddba 43c8 4fbb
00000090: 920d 383b 384f b23b e8c3 e7ba 1538 5abc
000000a0: 70eb abbb 7bb1 2438 c430 2ebc d87c 9bbc
000000b0: 7630 46bc f926 31bb 7bb7 49bb 898f 763b
000000c0: a346 0f3b 7488 68bc 15f7 3cba b11a f1bb
000000d0: 1749 5bbc 146b 7bbc db4e 17bb d2bf ebba
000000e0: 8152 35bb 56ad 45bb a6ef dd3b 2be6 10bc
000000f0: 4805 2dbb 4fe6 89bc d8f4 70ba bbdf 083c
00000100: 714a 5b3b 5105 b53b 3217 a1bc 6758 943a
00000110: 7f8e 60bc bcb3 52bc a38c a43b fa0f 233a
00000120: 289f d039 7d5e 95bb 6666 54ba 41ee 283c
00000130: e0af c3bb df84 4c3b 9f77 dc3b 7a30 3c3b
00000140: bcae 053b 51e7 ff3a 368f e4ba d485 2fba
00000150: e932 07bc 8e50 69bc 8676 f1bb 13cf a53a
00000160: 124c adbb a80b 3b3c eae8 ba3b 5668 97bb
00000170: 0593 423b 91b3 52bb de85 61bc 6bbc 27bc
00000180: 440e dabb 1916 f63a 9577 b33b 6732 f8bb
00000190: 4060 37bc f4ed 6cb9 c720 d6ba 04d1 203b
000001a0: 6072 ea3b 2e20 3a3b 553f 6c3c 65cd cfbc
000001b0: 4d0e 4a3c 94f9 31bc b7da a7ba f3be 96ba
000001c0: 17c7 cc3a e95a eebb 44fe 943b efff 2fbb
000001d0: ece8 04bb 8c38 ae3a 8203 b4bb 1166 8a3b
000001e0: 3e33 d93a e0fe e9b9 3fa4 533b 31cf 96bc
000001f0: b173 4abc 9c0e eebc 865d e2bb c393 9fbb
00000200: 1a42 0b3c 1b6e 963a 5881 af38 4dd5 fdbc
00000210: 3b20 06bc cc30 113b 96e7 0cbc f1fe 9e3a
00000220: 60ee 0bbc acd3 353b d9a7 92bb 2f1d 2abc
00000230: a0b7 0dbc 9361 843b 7140 f63b 6d95 6e3b
00000240: c753 0a39 6c10 933b f47d 903b 8261 043c
00000250: 7ab4 1cbb 35d7 1e3b 89c7 073c 5c07 6bbc
00000260: bf6a 563b 6c1b 143b f37d 403b 6a5e e43b
00000270: 4918 0c3c e50d 033c aadb dabb 8484 80bb
00000280: 39d7 bbba 7fc8 a83b dc60 b13b 137f ea3b
00000290: 30c8 22bc e700 2b3b 3dc9 2abc cef4 b2bb
000002a0: 37e3 c3ba 9785 b9bb 0131 10bc 4b20 873b
000002b0: f331 a93a 0179 fab9 5765 2a3b e4f8 a33a
000002c0: 7ef4 37bc 7e52 be3b 315e 5a3a 8026 92ba
000002d0: 62de 72bb 98e8 953b 2f7f 82bb f4fb 9f38
000002e0: c10e 163b effb 853b b603 d5bb 6c4b 86bb
000002f0: bd6d abbb 0ccd 4ab9 5b13 57bc 079b 8b3b
00000300: 00e1 71bc f9f3 53bc ee3e 53bc e74a 113a
00000310: dfe3 583c 6fb2 573c 9ede 92bb 0e06 063b
00000320: e67a 35b9 ef72 a63a 262a 11bb 24d7 2abc
00000330: 5c16 1dbb 1190 a63b 98c1 34ba ae4b cc3b
00000340: 6ea5 0bb9 3fb2 433b 8f33 43bc 3a9b d4bb
00000350: 5556 c73a d246 b0bb 7e2e b9bb 1e96 d339
00000360: 1004 74bc 5ea4 883b fa12 19bb 2a3f 8abb
00000370: 38cf 9fb8 fe15 16bc eea3 f93b 8e91 38bb
00000380: b451 5b3b 7f09 81ba 8a86 e73b d4cd 88bb
00000390: a6c7 e2b8 496f 16bc 6ddd a2bc d076 acbb
000003a0: 34ce 0fbc 5573 c5bb a7b0 91bb 49db 06bc
000003b0: ede8 c6bb 3a4f a638 572c ee38 ea2f 563c
000003c0: 907e b23b 45b5 ed3b 3413 843b 1f65 23bc
000003d0: b572 2d39 5e3c 8c3a 43f0 4d3b a119 d83a
000003e0: 1657 923a e612 92bb 237f 1dbc e42c 30ba
000003f0: a7c5 8d3b 00ff 48bb d74e c939 7d3e 983b
-0.01608553 0.0029960745 -0.01876531 -0.012370074 -0.0010829704 0.00034199687 0.0068061207 -0.015898006
-0.0020261295 0.0019389007 0.0035405753 -0.012971244 0.0069707707 -0.018793583 -0.004147607 -0.001792183
-0.00575254 0.0070462874 0.0020029666 0.00676493 -0.004283624 0.0043154904 -0.015630318 0.003485591
0.003984532 0.0050666817 -0.00466898 -0.004248775 -0.009621762 0.0013283085 -0.0009360096 0.0034822084
-0.021223702 0.00028601085 -0.0016904663 -0.0031705059 0.002808426 0.0054415725 -0.0017682286 -0.013319035
-0.005246572 3.926594e-05 -0.010631744 -0.018980429 -0.012096515 -0.0027031286 -0.003077953 0.0037622175
0.002186217 -0.014192689 -0.0007208449 -0.007357918 -0.013384125 -0.015345354 -0.0023087773 -0.0017986244
-0.0027667584 -0.003016313 0.006772953 -0.008843939 -0.0026400853 -0.016833453 -0.0009191758 0.008354123
0.0033461119 0.0055243154 -0.01966438 0.001131785 -0.013705849 -0.012860235 0.005021648 0.0006220337
0.00039791432 -0.004558383 -0.0008102417 0.01031071 -0.0059718937 0.0031207127 0.006728127 0.0028715418
0.002039834 0.0019523894 -0.00174377 -0.0006695662 -0.008251884 -0.014240397 -0.0073688654 0.0012650214
-0.0052886093 0.011416353 0.005704035 -0.004620592 0.0029689681 -0.0032150487 -0.013764827 -0.010237793
-0.0066545326 0.0018774896 0.005476902 -0.007574368 -0.011192381 -0.00022595358 -0.0016336673 0.0024538646
0.007154748 0.0028400528 0.014419396 -0.025366494 0.012332511 -0.010862727 -0.0012806271 -0.0011500999
0.0015623298 -0.007274021 0.0045469124 -0.002685543 -0.0020280434 0.0013291999 -0.005493582 0.004223593
0.0016571057 -0.0004463112 0.0032293943 -0.018409343 -0.012356685 -0.0290597 -0.0069081215 -0.0048699095
0.008499647 0.0011476906 8.3687424e-05 -0.030985499 -0.008186395 0.002215433 -0.008600136 0.0012130422
-0.00854072 0.0027744574 -0.0044755754 -0.0103829345 -0.008649737 0.004039952 0.0075150062 0.0036404983
0.00013191915 0.0044880416 0.004409546 0.008079888 -0.0023911283 0.002423716 0.008287319 -0.014345016
0.0032717434 0.0022599353 0.0029371947 0.006969263 0.008550712 0.007998918 -0.006679018 -0.003922047
-0.0014331109 0.005150854 0.005413158 0.0071562617 -0.009935424 0.0026093067 -0.0104239555 -0.005461312
-0.0014945035 -0.005661677 -0.008800746 0.0041237227 0.0012908563 -0.0004777387 0.0026000345 0.0012510088
-0.011227725 0.0058081737 0.00083300757 -0.001115039 -0.003705882 0.0045748465 -0.0039824466 7.628641e-05
0.0022896978 0.0040888707 -0.0065006865 -0.0040983465 -0.0052315877 -0.00019340607 -0.013127173 0.004260424
-0.014763117 -0.012936586 -0.012893422 0.00055424724 0.013237922 0.0131651005 -0.0044821044 0.0020450386
-0.00017307288 0.0012699048 -0.0022150367 -0.01042727 -0.0023969626 0.005083092 -0.0006895303 0.0062346077
-0.000133177 0.0029860882 -0.011914148 -0.006488231 0.0015208224 -0.005379536 -0.0056512943 0.00040356902
-0.014893547 0.0041699847 -0.0023357258 -0.0042189555 -7.620308e-05 -0.009160517 0.007618419 -0.002816293
0.0033465447 -0.0009844749 0.007065599 -0.0041749272 -0.00010813707 -0.009181806 -0.019880975 -0.005263187
-0.00877719 -0.0060257115 -0.0044461074 -0.008230993 -0.0060702474 7.930254e-05 0.00011356983 0.013072947
0.0054472163 0.007254275 0.0040306095 -0.00997284 0.00016541297 0.0010699143 0.0031423725 0.001648713
0.001116487 -0.0044578193 -0.009612831 -0.00067205564 0.0043265405 -0.003066957 0.00038396448 0.004646121

convpool_layers.0.pool.att f4 [1, 512]
00000000: bc61 6dbc 0f09 08bc 86eb 2e3d bc1b 143d
00000010: 247a 9abc 26a3 2dbc 7cd2 06be 57e0 2cbb
00000020: ec76 68bc d351 56bc ba4a c0bc 578a e4bd
00000030: 80a2 0dbc ed68 4abd fca8 ecbd ddf6 2d3d
00000040: 23e6 833a 6687 85bc 0708 12bc fe0c b7bc
00000050: 3026 34bc 1212 1b3d e8b9 5ebc 19de 37bc
00000060: 1dfb 07bc f955 2c3d 8938 90bd 1b12 b9bb
00000070: 401a b2bb 75cd eb3d 86ef 073d b89a 8338
00000080: 7fa9 9c3c 3d41 d9bb 0604 25bd 2819 6fbd
00000090: 4358 a5bd cbda 813c eac6 a6bd 7542 613c
000000a0: ac30 ef3d 4c4a 16bb b3f4 2e3d 5004 b03b
000000b0: 70de cb3c 7c06 9ebd 76d2 febc 7b10 a4bc
000000c0: ba0a 9abb 13c6 79bc c1d7 4b3c 2ee0 a5bc
000000d0: 6f0f 6b3b 1061 4cbc 76bd 9fbc b93a cabd
000000e0: b6b1 043d 3c8c 15bd a43c 95bc 6423 61bb
000000f0: 5c6e 0abc 37f6 1cbd 268f 40bc 6f9e 93bc
00000100: 5ee9 bd3c 572d 37bd 7789 463d 0cdb 19bd
00000110: 1a36 4f3d 8e9a babc 2aca 1abc f4e2 c0bc
00000120: 7896 f3bc 3889 3cbd 2906 6c3d 6d14 0cbc
00000130: 865d 293c 7e45 a7bc a25e 0fbd fe12 58bd
00000140: 7591 a6bb 7fec 52bc f625 22bd a0bc d8bb
00000150: 208a 9e3d 6408 a7bd c3bb 8cbd 895d 6dbc
00000160: 1b6f 083d ad4f 2dbc 7e10 33bd 3366 00bd
00000170: c44e 09bc 5706 ec3c c941 593c c374 913c
00000180: d503 d1bc 960a 44bc 3019 5638 fee6 d2bb
00000190: d904 01bd 43a1 fd3b a004 eabb e16f 82bc
000001a0: bd27 86bc 6260 60bc 8ce4 d23c b8a6 9ebd
000001b0: 2cfc 80bc 7033 08bb 165d 6abc 922c 353c
000001c0: c9cb d03c d798 2c3d 27ff bfbc d5b3 b1bd
000001d0: a40e ea3c e43c 10bc 0f99 87bd ea0d 2bbc
000001e0: 3183 8ebc 18c2 d4bc 479b b6bc 5854 2c3d
000001f0: 9b89 943c 1314 90bc ed16 8cbc ffaf 2ebc
00000200: 8e60 86bd 3b15 84bb 3e20 acbc 17fd 9b3d
00000210: 9225 debc 95f4 e63d 2a8e a93c b87d 62bd
00000220: a103 c3bb 0079 2cb8 1509 01bc beb8 b7bd
00000230: 85d2 b53d a469 70bd e069 13bd 0970 593d
00000240: e800 87bc 0b44 34bd 7362 abbc a105 a7bc
00000250: 6bdb 10bb 2d54 a3bb d8ef 3abc 06b0 1d3d
00000260: 441f 0abd 337d cebb a163 97bc 6e67 22bc
00000270: e086 e0bc 78bf a8bc 08b8 99b9 81fe 4fba
00000280: c853 88bc 1a06 6bbd 940c 9abc e20f d7bc
00000290: ed69 ea3b 7b5a 6cbc 2442 f83a ebdd c13d
000002a0: fa7f ec3b 1ebd 103d f206 53bd 779b 80bc
000002b0: 6298 06bc 18be 05bc 2e46 eabc 3b1b 4abd
000002c0: 004c 8cbc dc5d 81bc 8b7f 39bc 6930 92bb
000002d0: 8cff 323d b300 b9bc 7f4d db3c 6887 9fbc
000002e0: 373d 4ebc 4552 513d 0b7b 25bb ac91 05bc
000002f0: 3885 b43d 5d35 4b39 5341 2bbd f882 cfbc
00000300: 8d15 e13c 70cc 8fbd 5a9d c3bd f3a1 c5bc
00000310: 9338 70bc 30f8 20bd b44e 80bd 004d 36bc
00000320: 5f3f 9bbd b1ca 89bd 76a8 d93c 4d87 c1bb
00000330: a5d5 133d d6de 6abd 50c1 cc3c 0e25 ecbb
00000340: 53ee 4d3d 3031 85bb ee8c 8ebb 0a0f 1bbc
00000350: 9004 11bc 8ac0 42bd e7fb 7dbd ccf3 bdbc
00000360: 9e68 3bbd 0ec3 833d a060 813b c6c4 8a3c
00000370: 8375 7cbc 3206 3f3c f2ea 473d 0744 bb3d
00000380: 1e5d aebc e2d7 3cbd c973 d5bb e3c4 023e
00000390: 4b68 ed3c da4a 78bc e5a9 9c3a f17e 60bc
000003a0: 9504 06bb 7959 b63c b227 96bd 0bfb 603d
000003b0: 0059 963d 2f4f a23d 11ba da3d da6a 46bb
000003c0: 9508 9fbc b3c6 74bc 50e4 52bd df39 f13c
000003d0: d32c babc 93b6 91bc d204 70bd ec65 ab38
000003e0: 0c63 38bc 7ceb 513a 84eb 77bc 6a75 41bc
000003f0: a467 c1bc 7302 bd3c 7b66 fa3c 341a fcbd
-0.014488634 -0.008302941 0.04270508 0.036159262 -0.01885707 -0.01059798 -0.13166231 -0.0026378834
-0.014188509 -0.013081032 -0.023473132 -0.11159199 -0.0086447 -0.04941647 -0.11555669 0.042471755
0.0010063093 -0.016299915 -0.008913047 -0.022345062 -0.010995433 0.03785903 -0.013594128 -0.011222386
-0.008299616 0.042074177 -0.07042033 -0.0056479103 -0.005435258 0.11513797 0.03318741 6.2753854e-05
0.01912379 -0.0066300915 -0.04028704 -0.0583736 -0.08073475 0.015851399 -0.081434086 0.013748755
0.11679205 -0.0022932468 0.042713832 0.005371608 0.02488634 -0.077160805 -0.031106215 -0.02002739
-0.0047009857 -0.0152449785 0.012441576 -0.020248499 0.0035867353 -0.012474313 -0.019499522 -0.09874482
0.03239604 -0.03651069 -0.018217392 -0.003435337 -0.008449163 -0.038320746 -0.011752879 -0.018019883
0.023182567 -0.044720974 0.04847094 -0.037562415 0.050588705 -0.022778776 -0.009447614 -0.02354572
-0.029734835 -0.0460293 0.057623062 -0.008549792 0.010337239 -0.020418879 -0.03500236 -0.052752487
-0.005083258 -0.012873768 -0.039586984 -0.0066142827 0.07741189 -0.08155897 -0.0687175 -0.014487633
0.033309083 -0.010578078 -0.0437169 -0.031347465 -0.008380596 0.028811617 0.013260313 0.017755872
-0.025514523 -0.0119654145 5.1045034e-05 -0.006436228 -0.031498764 0.007740171 -0.0071416646 -0.015922489
-0.01637637 -0.013694854 0.025743745 -0.07746643 -0.015745245 -0.0020782612 -0.01430442 0.01105799
0.025487797 0.042137947 -0.023437096 -0.08676878 0.028571434 -0.00880358 -0.066209905 -0.010440329
-0.017396541 -0.025971457 -0.022290839 0.042072624 0.018132022 -0.017587697 -0.017100776 -0.010662078
-0.06561385 -0.004030851 -0.021011468 0.076166324 -0.027117524 0.11277119 0.020697672 -0.055295676
-0.0059513603 -4.1120686e-05 -0.0078757005 -0.08970784 0.08878044 -0.058694497 -0.035989642 0.05308536
-0.016479924 -0.044010203 -0.020920968 -0.020388426 -0.002210344 -0.0049844 -0.011409722 0.038497947
-0.033721223 -0.006301546 -0.018480124 -0.009912355 -0.027408063 -0.020599112 -0.00029319548 -0.00079343474
-0.016641513 -0.057378866 -0.018804826 -0.02625269 0.0071537406 -0.014425869 0.001894061 0.094661556
0.0072174044 0.035336606 -0.051520295 -0.015699131 -0.008215042 -0.008162998 -0.028597917 -0.049342375
-0.017126083 -0.015791826 -0.0113219125 -0.0044613373 0.04370074 -0.022583341 0.026770351 -0.019473746
-0.012587837 0.05110385 -0.0025250341 -0.008152407 0.08814472 0.00019379468 -0.041810345 -0.025331005
0.027476097 -0.07021415 -0.09551497 -0.024125075 -0.014661926 -0.03929919 -0.062650114 -0.011126757
-0.075804465 -0.067281134 0.026569586 -0.0059060217 0.03609242 -0.05734142 0.024994522 -0.0072065657
0.05027611 -0.0040647015 -0.004350296 -0.009464035 -0.008851185 -0.0475469 -0.06200781 -0.02318754
-0.045754068 0.06433688 0.003948286 0.016939532 -0.015408876 0.011659192 0.048808046 0.091438346
-0.021284636 -0.04610432 -0.006514047 0.12770419 0.028980395 -0.015154565 0.0011952488 -0.01370214
-0.0020449508 0.02225946 -0.0733179 0.054926913 0.07341194 0.07925259 0.106800206 -0.003027609
-0.019413272 -0.014939952 -0.051487267 0.02944654 -0.022726452 -0.017787253 -0.058598347 8.1729e-05
-0.011254083 0.0008007807 -0.015131835 -0.011807779 -0.02360899 0.023072457 0.030566445 -0.12309685

convpool_layers.1.conv.weight f4 [256, 256]
00000000: 918f 6fb9 7d16 7dbb 8532 babc ef52 5fbc
00000010: e150 f0bc a5c7 d0bb b3f4 66ba f834 0339
00000020: 11c9 c83c 8d26 8e3c 41af d937 9ad0 a1ba
00000030: ae5a 7b3b c885 25b7 c537 abb9 cda9 30b9
00000040: d6d0 7cbc 4534 a63a 6cce c63c dc8c 5cb9
00000050: 4bf5 d639 da54 85ba ed23 fc39 7ed2 cfba
00000060: f995 f13c b43a 76bb 1509 03ba ff95 ad38
00000070: 634a fe39 a333 1939 d020 5c3b f12a 213c
00000080: 4b65 faba 38cd b33a 5383 1cbc d6d7 6bbc
00000090: 73a2 0b3d 429f 12ba c2bd 6d3c c7aa fe38
000000a0: b292 8e3a 021f 993b af71 feba 3ef0 823c
000000b0: 0a3c 013b 1290 9539 1da2 1239 070f eb3c
000000c0: ea9d cbba f371 d939 28a4 c53c 8ca3 16bb
000000d0: bede 93bb c17d 9739 3177 c5b9 0ff4 993b
000000e0: 0f13 983b 40e3 273a 9418 b93c 2d01 2a3c
000000f0: a278 b0b9 f428 1937 ef9b 39bc 34aa 96b5
00000100: 8eab 7a3b 82bb cbb9 cb75 cc3b 1364 833c
00000110: 217d 0cbd 822a 9439 00cc d5bc b8e5 923b
00000120: 0e30 acba dc76 733b ee9d 983b b7f0 3c3b
00000130: 92ec afbc 5804 b5b9 e16d 1bbd 1e7d 553b
00000140: 734b 8a3a 918a 493a 509b 23ba 9cc5 083d
00000150: d731 82bc cd1c c6bb 523b 93b8 37d7 98bb
00000160: f638 1bba 60e3 9bb6 0d1d 93bc 5717 b938
00000170: 90e1 fbb5 e9d3 853b bf74 a2ba 3cc9 6dbc
00000180: b653 c63a 2478 adbb ae9b 6ebb b78f ad3c
00000190: 63bb ef3b 43e9 07bd aed6 7db7 c8a2 583c
000001a0: 8945 c2bc 4415 9139 52cd c7bc ddbe d13b
000001b0: 3175 233d 34cc 3739 84f4 653b 9941 27bc
000001c0: 5fc2 b6bc 6e78 b03c dc03 72bb a3ea dc3c
000001d0: f6cc a6ba f233 26ba dd05 9e3b 836b e23c
000001e0: b4e8 c4bc f427 1b3c 2d1e 673b 4694 85b9
000001f0: 4f24 5bba d0dc 69bc 016b 6c3b 6381 62ba
00000200: 8469 bfba a1c2 a9bc bf88 25ba a309 173b
00000210: a9c0 2f39 342e aeba 2088 0c3c 85ef cfbc
00000220: a707 aaba 12dd 0439 1786 073a b45a 40b8
00000230: a68b 1bbc c4d5 e939 d809 71b9 b67d e7b8
00000240: e781 69bc 58a1 f7b9 1d26 c63a b66b a3b9
00000250: 2e97 10ba dcc6 013d 8218 a7bc 4727 8a3c
00000260: a7dc c03a 31f1 fbb8 0f31 00bc e101 b7bc
00000270: 1609 bf3c 7bc3 db3c 90f4 173a 2573 cfbc
00000280: 8d49 c83c 1d61 e43c 8041 f8bb fc69 2c39
00000290: 9862 d63a f69f 223b f453 32bc f246 b73b
000002a0: 723b 0e3c 94a0 24ba 665b 203c dbf2 b43c
000002b0: 3c5d abbc 368d 2e38 339f ff3c 9b7f c7bc
000002c0: f574 b5bc 8b9a e8bb 8bc1 393c 1d4e 88bb
000002d0: 6ea4 d83c 6c1e 8736 5892 de38 8e8f 6ebc
000002e0: 9935 8ab8 3b71 363b ec41 a638 f9c3 9e37
000002f0: 24c6 a23a 98bd 8fb9 f714 df3c 4f44 87bc
00000300: e8d7 febc 448d 4bbb f637 bc3b 9c34 3f3b
00000310: 736b 403d 91c0 4139 f5ca 2bb9 d2ab 3db8
00000320: 5823 36bc 60fd 95bb d6d4 90bc a7dc a83b
00000330: 64ac f73b 0393 bab7 4cff 563b 1cc5 4d3b
00000340: 3423 003d b50e 52bb a0ee a5bc dbd3 e13c
00000350: 681d 843c dded 1d3c 5821 9d3c 31fb 323c
00000360: 839f 6039 4ae7 5bbb d8c4 b43c 7149 8c39
00000370: 5b7e f637 2fb3 aebb 63fa 013a bd48 04ba
00000380: de3e dd3a b4a4 023d 0680 513a 92c3 9337
00000390: ce29 07bd 2d78 9bbb 4abb da3a 2135 123b
000003a0: 9ee3 ce3c ed3b 8c3c ae64 b1bc df5c 36bc
000003b0: 7230 8a38 b0ce eeb6 d193 82bc 1be8 de3b
000003c0: c476 c43a 1f2a 0ebd f7d4 bb3b e788 08b9
000003d0: 53ba a53b 4433 71b9 8683 163c f50a 72ba
000003e0: a3a1 823c 1b59 5bbc 278f 103b 57a8 9ebc
000003f0: 4091 9a38 f955 c7bc 7796 e63c 5c5e 3037
-0.00022846299 -0.003861814 -0.022729168 -0.013630613 -0.029335441 -0.0063714557 -0.0008810267 0.00012512866
0.024509938 0.017352367 2.5950025e-05 -0.0012345493 0.003835361 -9.865915e-06 -0.00032657213 -0.00016847924
-0.01543065 0.0012680372 0.024268351 -0.00021033309 0.00041000018 -0.0010172382 0.00048091952 -0.0015855578
0.029490458 -0.003757161 -0.0004998607 8.277222e-05 0.00048502078 0.00014610453 0.0033588894 0.009836898
-0.0019103674 0.0013717776 -0.0095527945 -0.014394721 0.03409047 -0.0005593189 0.014510574 0.000121434736
0.0010877459 0.004672886 -0.0019412542 0.015983697 0.0019719624 0.00028526835 0.00013984037 0.028693689
-0.0015534733 0.00041474364 0.024126127 -0.0022985665 -0.004512637 0.00028894658 -0.00037663573 0.0046982835
0.004640944 0.00064044073 0.022594728 0.010376257 -0.00033659214 9.129046e-06 -0.011328681 -1.1225407e-06
0.0038249227 -0.0003885888 0.006239628 0.01603893 -0.03429902 0.0002826043 -0.026098251 0.004482951
-0.001313688 0.0037149703 0.0046574986 0.002883 -0.02147511 -0.00034526247 -0.037946586 0.0032575796
0.001055105 0.00076881895 -0.00062411 0.03339158 -0.015892906 -0.006045914 -7.0205555e-05 -0.0046643275
-0.00059212686 -4.64583e-06 -0.017958188 8.825835e-05 -1.8766605e-06 0.0040840995 -0.0012394412 -0.01451331
0.0015131149 -0.005293863 -0.003640871 0.021186693 0.0073160394 -0.03318144 -1.5129959e-05 0.013222404
-0.023714798 0.000276724 -0.024389897 0.0064009265 0.039906684 0.00017528312 0.003508837 -0.010208511
-0.02230948 0.0215418 -0.003692857 0.026967352 -0.0012725878 -0.0006340138 0.0048224763 0.027639156
-0.024036743 0.009469975 0.003526579 -0.0002547821 -0.00083595974 -0.014273837 0.0036074521 -0.0008640496
-0.001460359 -0.02072269 -0.0006314627 0.0023046515 0.00016761072 -0.0013288916 0.008577377 -0.025382767
-0.0012972251 0.00012670856 0.0005169822 -4.586084e-05 -0.009493744 0.0004460049 -0.00022987218 -0.00011038354
-0.014252163 -0.00047231722 0.001511756 -0.00031170034 -0.00055156916 0.031683788 -0.020397428 0.016864432
0.0014714197 -0.00012013538 -0.0078241965 -0.022339763 0.023319762 0.02682661 0.00057966355 -0.02532346
0.024449134 0.027878338 -0.0075761676 0.0001644268 0.0016356288 0.0024814582 -0.010884274 0.005593174
0.008681165 -0.00062800315 0.009787416 0.022088459 -0.020918481 4.1616346e-05 0.031203842 -0.02435284
-0.022150496 -0.007098501 0.011337648 -0.0041597025 0.026445594 4.026855e-06 0.000106130436 -0.014560593
-6.590336e-05 0.0027838487 7.927776e-05 1.8926325e-05 0.001241867 -0.00027416344 0.027231677 -0.016512064
-0.031108811 -0.0031059543 0.0057439758 0.0029175645 0.04697747 0.00018477651 -0.00016383438 -4.522113e-05
-0.011116825 -0.004577324 -0.017679613 0.005153257 0.0075583924 -2.2241386e-05 0.0032805977 0.0031398004
0.031283572 -0.0032052223 -0.020255387 0.02756684 0.016127303 0.009639231 0.019180939 0.0109241465
0.00021421727 -0.0033554607 0.022066519 0.000267576 2.9384324e-05 -0.005331419 0.000495827 -0.0005046239
0.0016879698 0.031895354 0.0007991794 1.7614835e-05 -0.032998852 -0.0047445507 0.0016687897 0.00223095
0.02525502 0.017118419 -0.021654453 -0.011130541 6.5893764e-05 -7.1170143e-06 -0.015939625 0.0068025715
0.0014989008 -0.03470814 0.0057321745 -0.00013020971 0.005057612 -0.00023002649 0.009186631 -0.00092332
0.015946215 -0.013387944 0.0022057982 -0.01936738 7.370347e-05 -0.024332987 0.02814792 1.0512387e-05

convpool_layers.1.conv.bias f4 [256]
00000000: 0000 0000 64c9 363b 9e62 8339 d32a 4fbc
00000010: 183f acba e703 38ba 5cba 5abc 0000 0000
00000020: bede e5bb 0778 203b 0000 0000 4a1f ddbc
00000030: e8f1 d5bb f07d 4338 d959 9bbb 5545 b8bb
00000040: c00b 5bbb 90a7 cb38 3001 c1bb 8f85 fcb9
00000050: 2e36 2cbc 33f2 3ebc 0000 0000 0025 51ba
00000060: 0078 8f34 268a 30bc 7d26 e8bb 2cd7 59bb
00000070: 3c27 60bc 4393 4fbc 29e0 a8ba 27d1 a9ba
00000080: ad9d b339 dcac 70bb e354 66b9 bbae e4bb
00000090: 6215 09bc 1407 61bc f61f 5bbc decc 38bc
000000a0: c10f 39bc c107 8cbb ed7f 8abc d884 1dbd
000000b0: fb47 07bc 4f77 a2bc 9dde 4abc f44b 603a
000000c0: 0a8a 043b 29d4 3cbc 7cb4 0ebc 7e3c 70bc
000000d0: 0000 0000 878e 23bc 9a44 efbb 64a3 4ebc
000000e0: 56dc 98bb 9f22 50bc 0000 0000 9cd2 79bc
000000f0: 4e37 93bb 0445 87bb 73c3 7bbc 0000 0000
00000100: a100 edbb 4f89 23bc 6c40 81bc b13d d8bb
00000110: 35cc 0ebc 1c02 46bc 0000 0000 c76b 7ebc
00000120: 8821 5cbb 0000 0000 dd35 83bc 12fb fdbb
00000130: 4c63 c0bb 0000 0000 45da 86bb 7ced e5bb
00000140: 4740 19bc cae1 203a 0000 0000 6dd4 98bb
00000150: 9e62 77bc 0000 0000 8390 c7bb a654 dcbb
00000160: b0d0 64bc f1ad 9dbb 5fd4 d3bb 0000 0000
00000170: cd5a 92ba 4876 97bc 0000 0000 10ad babb
00000180: 7df1 01bc 0000 0000 3c74 b0bc 64c1 41bc
00000190: b22a d1bb 0000 0000 0000 0000 db2e 923a
000001a0: 8caa 3bba d374 96bb 973a 84bb 0000 0000
000001b0: b80c 9abb 11d6 90ba 743f 06bc 14ff 8cbc
000001c0: 0d6f 7e3b 7a86 7cbc 2151 bbbb 0000 0000
000001d0: b9ee 5ebc 0000 0000 f9b6 dbbb ce39 88bb
000001e0: 65b3 e33b 0b89 c6ba 9cc9 ccbb c01a 57bc
000001f0: 7763 25bc abef 7cbc afbc 36ba cfb6 92ba
00000200: 2a93 213c 8aae 23bb 8f35 baba 379b 72bc
00000210: afa1 61bc 4d32 f2bc 6326 1ebc f0be 16bc
00000220: 70ef e8bc 1a64 b4bb 78a2 33bc ae57 a7bb
00000230: df6a 05bc 9cbd 77bb 284a d43b c001 6f3b
00000240: 349a 07bc 5d4d cb3a 095a bcbb f822 5a39
00000250: 2fe2 333a 0000 0000 d390 893a 8021 25bc
00000260: ed58 dc38 9b3c 313b c815 be3a 0000 0000
00000270: 0000 0000 fae3 54bb c853 99bb a2fb abbb
00000280: 1d2a 24bc 6896 ae3a f68c 8b39 0000 0000
00000290: a94a 40bc ebee 333b 0ae3 87ba e043 233a
000002a0: 0000 0000 24ea debb 1cf5 a0bb 0000 0000
000002b0: 296d c83a a342 b2ba fa86 debb 3464 1cbc
000002c0: 9ef4 2ebb 55e0 08bc 0000 0000 0669 97bb
000002d0: f902 a8bb 0000 0000 18d7 0dbc 56c8 17b9
000002e0: 0000 0000 f906 7dba 4f48 8cba 18c2 08bc
000002f0: fc29 18bc 0000 0000 0000 0000 2b6c 493b
00000300: 5bf0 59bc 32bb 89bc 8b96 34bc 07af ccbb
00000310: 127d 91bb 4e19 383c e9cf 40bc 0000 0000
00000320: eba4 9cbb 96fb b0b9 abf6 a9bb 0000 0000
00000330: 7dfb 60bb 8b7b 9d3b ca19 853a 8dfd f3bb
00000340: cb71 43bb 3d45 98bb a229 50bc 3514 a9bb
00000350: 76bb 50b9 e0ee c5bb 47d5 fdbb e05b 4bb7
00000360: 9398 a9bb 0000 0000 ae9d fcba 4326 0abc
00000370: 0000 0000 bcce c2bb bc83 ce39 0000 0000
00000380: 728e 64bb f6e6 99bb b4c6 473b 3928 5238
00000390: 30e3 dfb7 731b 3bbc b814 15bc d3ae e6bb
000003a0: 49ef 84bc 0000 0000 7996 22bb 44fa b0bc
000003b0: f894 bb3a eeb9 4dbc f4e5 65bc 1b24 f4ba
000003c0: 3990 643a bc90 a839 0024 5c3b a0f8 2dbb
000003d0: 20fe fabb e27a 743a 66b3 e53a 6947 c0bb
000003e0: 0000 0000 9fae 89bb d0cd d2bb 664c a9bb
000003f0: f8cc c1b8 26f6 d0ba 2620 08bc bc0d 4dbb
0.0 0.0027891034 0.00025059743 -0.012644487 -0.0013141362 -0.00070196245 -0.013350096 0.0
-0.0070150783 0.0024485604 0.0 -0.026992459 -0.0065290816 4.660891e-05 -0.0047409353 -0.0056234994
-0.0033423752 9.711005e-05 -0.005890034 -0.00048164694 -0.010510964 -0.0116544245 0.0 -0.0007978231
2.6723137e-07 -0.010775125 -0.0070846663 -0.0033239825 -0.013681229 -0.012669387 -0.0012884188 -0.0012956009
0.00034259018 -0.0036724126 -0.00021966132 -0.0069788373 -0.0083669145 -0.013734598 -0.013374319 -0.011279313
-0.01129526 -0.0042733853 -0.016906703 -0.038456768 -0.008256908 -0.019832281 -0.012382177 0.000855624
0.002022388 -0.011525192 -0.008710023 -0.01466286 0.0 -0.009982712 -0.007301879 -0.012612198
-0.004664938 -0.012703567 0.0 -0.015247967 -0.004492677 -0.0041281004 -0.015366423 0.0
-0.007232741 -0.009981467 -0.015777789 -0.006599151 -0.008715679 -0.012085464 0.0 -0.015528626
-0.0033589322 0.0 -0.016016895 -0.007750877 -0.005871212 0.0 -0.004115375 -0.0070168357
-0.009353704 0.0006137161 0.0 -0.004663995 -0.015099196 0.0 -0.006090225 -0.006723958
-0.013965771 -0.004811995 -0.0064645256 0.0 -0.0011165977 -0.018489018 0.0 -0.0056969
-0.00793111 0.0 -0.0215398 -0.011825893 -0.0063832635 0.0 0.0 0.001115288
-0.00071588974 -0.0045915633 -0.0040353048 0.0 -0.004701223 -0.0011050125 -0.008193839 -0.017211474
0.0038823516 -0.015412921 -0.0057164584 0.0 -0.013606721 0.0 -0.0067051616 -0.0041572815
0.0069488757 -0.0015147043 -0.0062496196 -0.013128936 -0.010094515 -0.015438001 -0.0006970865 -0.0011193397
0.009861747 -0.002497586 -0.0014206636 -0.014807514 -0.0137714585 -0.029565 -0.009652707 -0.0092007965
-0.028434485 -0.005505097 -0.010964029 -0.005106888 -0.008143156 -0.0037802225 0.0064785667 0.003646955
-0.008276511 0.0015510727 -0.0057480377 0.00020803127 0.0006862012 0.0 0.0010495431 -0.010078788
0.00010506981 0.002704418 0.0014502341 0.0 0.0 -0.0032484517 -0.004679177 -0.005248503
-0.010019806 0.0013319971 0.0002661717 0.0 -0.01173655 0.0027455639 -0.0010367346 0.00062280707
0.0 -0.006802814 -0.004912032 0.0 0.0015291321 -0.0013600182 -0.006790993 -0.009545375
-0.0026696096 -0.008354266 0.0 -0.004620674 -0.0051273075 0.0 -0.008657239 -0.00014475113
0.0 -0.0009652223 -0.0010702702 -0.008347057 -0.009287354 0.0 0.0 0.003073464
-0.013301934 -0.016812894 -0.01102222 -0.006246451 -0.0044399584 0.011236502 -0.01176832 0.0
-0.004780402 -0.00033756782 -0.005186876 0.0 -0.0034329586 0.0048059872 0.001015478 -0.007445997
-0.0029822465 -0.0046469257 -0.012705239 -0.0051598796 -0.0001990626 -0.006040439 -0.007746372 -1.2121134e-05
-0.005175659 0.0 -0.0019273066 -0.008431974 0.0 -0.005945055 0.00039389532 0.0
-0.0034874943 -0.004696722 0.0030483427 5.0105362e-05 -2.6689464e-05 -0.011420119 -0.009099178 -0.0070398836
-0.016227381 0.0 -0.0024808927 -0.021603711 0.0014311364 -0.012556536 -0.014031876 -0.0018626483
0.00087190006 0.00032151293 0.0033590794 -0.0026545897 -0.0076596886 0.00093261723 0.0017524778 -0.0058678878
0.0 -0.0042017247 -0.006433226 -0.005166578 -9.2411356e-05 -0.0015942499 -0.008308446 -0.0031288704

lin1.weight f4 [256, 512]
00000000: 372c e3ba f157 6e39 dafd a13b 9eee 173a
00000010: 0c6f 3038 4980 f7b8 5211 38bc d675 39ba
00000020: 0c2e 70b8 9070 26b9 481a b335 be9a a7bb
00000030: 6498 0b39 753e c23b 662f 7c3c d3cf b73c
00000040: 7e4a ac3b 615b 4637 be9f ddb8 d419 2138
00000050: 16f5 813c cbd2 2dba ffff 2abb ecd3 b8b8
00000060: f844 bab9 be49 c9bb 958f bfbc fc16 1b3a
00000070: df6e a1bc d808 0c3c 1f45 96ba 53cd fe3a
00000080: c0e8 99bc 7ae8 843b 3528 4e39 92d2 73b9
00000090: 7be7 0abc 26f2 f7bc e6ff 243c 2405 faba
000000a0: 87fd 8abc a3ab 6db8 5574 08bd f849 62bc
000000b0: 8957 b2bc a2b1 dc3c f5e6 cfbc c2fc 90b7
000000c0: 482b 0ab8 6b01 b3bc 5a54 243c 0e78 fabc
000000d0: fa29 873b 6650 99bc f98b 563c 43bc 443c
000000e0: b0a6 3e3c af86 7ebb cd1a d937 cd4b 9836
000000f0: ed26 6c38 5056 6dbc a100 df3b 54b6 00b8
00000100: 5bbe e0b9 31e9 9bba 0e89 c9bb dd33 f5b9
00000110: 36a9 e3ba 9438 56ba bf78 ad38 2037 52bc
00000120: d614 ccb9 1203 cb3b 42de 4f3c 5cac 0f3c
00000130: 0187 24b9 ac0e 68b7 9417 15bd 4d30 0fbd
00000140: db79 b7b7 6684 9838 defc bbbb cc9a 54b8
00000150: fd70 08bc a3a6 e2b9 6891 b5bc bc82 a238
00000160: 496f 2c3b dac8 133a 639e 39bc 9dc7 35bc
00000170: 4c76 0cb9 c005 22bc 5e1b 92bb 4b4c 9cbc
00000180: 39dc a637 93e6 6fb8 0695 e4bb cf8d 743c
00000190: bba6 cbbc cb55 88b9 2b77 7039 3156 b037
000001a0: 4af2 3439 2588 113a f17d 5dba 1dba 49bc
000001b0: 61d1 d939 ed52 0cba 0a78 373c f7f6 7abc
000001c0: e738 2c38 62f7 5bbc 55cb 9db9 57bb 093c
000001d0: a946 acbb 24c0 9d37 7917 3139 0f2b 82bc
000001e0: 2df2 6bb8 ff7e 2a37 2c5b b8ba 20c7 bbbc
000001f0: 4ae0 9b3b 096e 3cbc 62eb c5ba 9c6e 27b9
00000200: 6264 ac38 f6fe 9ab8 084f d438 54fa 953b
00000210: 838e c6b8 3b9f 03bd c311 f73a f225 ab3c
00000220: 4aa6 aebb 20ea 3fb6 c054 5eb9 e771 4e3a
00000230: de9f 54bc ebc3 81bc 21dd 86b9 e914 21b6
00000240: 8c03 1b3a 13a1 0db7 83e2 0e3b 589f 20b9
00000250: c82d 1037 f7fc 84b8 6dff 17ba 7fdf 2abc
00000260: 650b 75b7 f694 24ba 450a 23b9 35ed d3ba
00000270: 6633 26ba c525 34bb d7ed 3db9 f5a9 80b9
00000280: bfd9 003a 7ddd 61bb d8d7 42b8 3dbc a3b8
00000290: 46f5 10b9 8183 b238 7aef 4f39 aa6b abbb
000002a0: 70f4 a53b 1ab3 513c 9230 173c e93b 5fb8
000002b0: fe37 163a 84e7 fcb9 17da dabb b40f 083c
000002c0: 5201 40bc c43b 29bc 8436 26ba 4982 80bb
000002d0: 8eb0 f5bc f23a d938 a6b9 60bc de74 61bb
000002e0: 3425 5237 529f bdbc a435 5c36 a0ad 273c
000002f0: ce31 ee3b fe30 c0bc 6d34 223c 1aa9 07ba
00000300: f5a6 b7ba 6ea8 9e38 6b10 773c 1585 aab7
00000310: 8c9b 9dbb 5cb4 37b8 681b 003c 05aa 04ba
00000320: 16ad 5dbc 7865 22bc 988e 8eb9 433e 4ebc
00000330: b46f 10bb f2c6 04ba bc9f 213b 52aa 5db9
00000340: 7e78 7a3b 7879 0dbd 9cb5 b6bc 864d 083a
00000350: a996 7e3b 5e97 74bb 0dc0 57bc 26c3 7339
00000360: 856a 353c 09d4 8539 600e 5fb9 2826 8d39
00000370: 278f 0e3a 88b4 973c f5ac 323c 27b2 433c
00000380: 47b0 24bb 3279 d0bb dcd7 133a f842 5bb8
00000390: 0286 2b39 828f ae3b 8f1f 19bc 7f59 4338
000003a0: 0030 d5bc b172 1ab9 a858 d63b df3e b23b
000003b0: 3657 593b 95e2 0dbc 91ee db3c 076a 5839
000003c0: 58fb 2ab9 38e0 0939 9bbb 2937 7b10 d1bc
000003d0: f7e9 14bc 90e2 4ebc 05d0 c3bb dd96 5c38
000003e0: c126 1139 d9eb bfb9 300e cc38 d357 bcbc
000003f0: 229a 3d38 671a 66b8 205c c8bb 9bfa 8db8
-0.0017331903 0.0002273021 0.0049435915 0.00057957496 4.206509e-05 -0.00011801773 -0.011234598 -0.0007074749
-5.7263343e-05 -0.00015872926 1.3344188e-06 -0.0051148823 0.00013312843 0.0059278556 0.01539216 0.022437965
0.0052579036 1.18229955e-05 -0.000105678555 3.8409446e-05 0.015863936 -0.0006630837 -0.0026092527 -8.813277e-05
-0.0003552807 -0.006142824 -0.023383895 0.00059162057 -0.019706188 0.00854703 -0.0011464691 0.0019439853
-0.018787742 0.0040560337 0.00019660669 -0.0002325273 -0.008478041 -0.030266833 0.010070777 -0.0019075018
-0.016966594 -5.6665052e-05 -0.033314068 -0.013811581 -0.021770256 0.02694017 -0.025378684 -1.7283837e-05
-3.2942073e-05 -0.021851262 0.010029877 -0.030574825 0.004124877 -0.018715095 0.0130948955 0.012007776
0.011636421 -0.0038837602 2.5880896e-05 4.5387774e-06 5.6303037e-05 -0.014485911 0.006805495 -3.0687384e-05
-0.00042866435 -0.0011895058 -0.0061503714 -0.00046768683 -0.0017369154 -0.0008171883 8.2717735e-05 -0.012830526
-0.00038925436 0.0061954344 0.012687268 0.008769121 -0.00015690552 -1.3831694e-05 -0.03639944 -0.034958173
-2.1872043e-05 7.272586e-05 -0.005736931 -5.0688905e-05 -0.00832772 -0.00043230233 -0.022164062 7.749113e-05
0.0026311448 0.0005637534 -0.011329266 -0.011094955 -0.0001339551 -0.009889066 -0.004458829 -0.019079348
1.9891291e-05 -5.719678e-05 -0.006975773 0.014926388 -0.024859777 -0.00026003862 0.00022932577 2.1020971e-05
0.00017256397 0.0005551598 -0.00084492477 -0.012312439 0.00041545465 -0.0005352933 0.011198053 -0.01531767
4.106099e-05 -0.01342568 -0.00030096868 0.008406482 -0.005257447 1.8805331e-05 0.0001688878 -0.015889673
-5.625391e-05 1.0162358e-05 -0.0014065257 -0.022922099 0.004756962 -0.011500844 -0.0015100057 -0.00015967566
8.220297e-05 -7.3907824e-05 0.000101236685 0.0045769606 -9.4679206e-05 -0.032134276 0.0018849898 0.020892117
-0.005329882 -2.8597497e-06 -0.00021203142 0.0007875249 -0.012977568 -0.015840491 -0.00025723226 -2.400304e-06
0.0005913309 -8.441758e-06 0.0021802492 -0.00015318149 8.593728e-06 -6.341369e-05 -0.0005798254 -0.010429262
-1.4605791e-05 -0.00062783004 -0.00015548717 -0.0016168716 -0.00063400564 -0.0027488333 -0.00018113047 -0.0002454069
0.0004915259 -0.0034464293 -4.6454225e-05 -7.807508e-05 -0.00013824282 8.512196e-05 0.0001983027 -0.0052313404
0.0050645396 0.012799049 0.009227889 -5.322314e-05 0.00057303894 -0.00048237678 -0.0066788304 0.008304525
-0.011719065 -0.010329191 -0.0006340521 -0.003921781 -0.029991414 0.00010358346 -0.013716137 -0.0034401934
1.2525637e-05 -0.023147259 3.2813778e-06 0.0102342665 0.007269121 -0.023460861 0.009900195 -0.00051750394
-0.0014011549 7.5653996e-05 0.015079598 -2.032755e-05 -0.0048098024 -4.3798573e-05 0.007819034 -0.0005060735
-0.013530036 -0.009911887 -0.0002719059 -0.012588087 -0.0022039237 -0.00050650456 0.002466186 -0.00021139652
0.0038218792 -0.03453967 -0.022303395 0.000519954 0.0038847125 -0.0037321667 -0.013168347 0.00023246984
0.0110727595 0.00025525715 -0.00021272292 0.00026922044 0.00054382015 0.018518701 0.010905494 0.01194433
-0.0025129484 -0.006362104 0.00056397705 -5.227604e-05 0.00016357753 0.005327166 -0.009345903 4.6574973e-05
-0.026023865 -0.0001472931 0.0065413304 0.0054396237 0.0033163554 -0.008659978 0.026847156 0.00020638863
-0.00016306096 0.00013148866 1.0116865e-05 -0.025520554 -0.009088985 -0.012627259 -0.0059757256 5.259259e-05
0.00013842715 -0.0003660608 9.730121e-05 -0.022991097 4.520466e-05 -5.4860862e-05 -0.006114498 -6.770083e-05

lin1.bias f4 [256]
00000000: 0bad eabb 4d2b 5f3c 78ed 2bb8 ac4f 04bd
00000010: f422 b0ba 7a53 0b39 1cfb c43c c44a 063d
00000020: a18c 6bba bdd4 293a 0a0d 88b9 1e75 5bbb
00000030: 6183 2e3b 3515 87b9 a625 073d 36a3 4c3b
00000040: a65e d2b9 30b8 3bbc 3389 87bb 72a4 54bb
00000050: b6ed 523b 1dd2 fbb9 8427 58bb 6e8b cab8
00000060: 8bd6 083c 8dda 823a 6bfa 85ba a702 903b
00000070: 5d82 30bd f6ca a93b 18b4 183a c304 183a
00000080: 5d93 2ebb 8aee 66ba ce87 19bd a024 8d3a
00000090: 9ad4 91bc 9f0d 45bb d962 05bc 08dc 13bb
000000a0: 1cb1 f53c c8d1 873a edc1 863c 1147 7c3c
000000b0: 50f4 b0ba ad9f 7f3b 7206 99bb 269d 17bc
000000c0: 47bb 3eb9 7a5d a0ba ab12 e9bc 5a7e c9bc
000000d0: bfe6 b0bb 0a1d 3f3c eccf 113d e73f 2abc
000000e0: 512d ccbc 8154 bbbc 25d3 033d e916 b3b9
000000f0: 53bf b9ba 4312 003d f019 abb7 c9a1 78bc
00000100: d6e6 70bc f8e8 7dbb 6e05 7ebb e723 0e3d
00000110: 815f e2ba 0c13 d8bc 6374 6cbb 9b5b ccbc
00000120: 3848 c23b 7270 56b9 34e2 fc3a f879 cc39
00000130: a21b 55bb 7e75 083c 2020 0339 ea0b 823b
00000140: 3745 7a39 f0f6 58bb 997e 85bb 39aa 523b
00000150: 726d cfbb 4cc4 383b 7732 2c3b 43a6 97ba
00000160: eb3f b6bb 1f84 6fbc 515c 4c3c 259e 92bc
00000170: 31da 8b3b 5439 0cbd dbc4 bd3c 7bfc 333d
00000180: 03a8 163d da86 1abc a8c6 3a3a c296 7d3c
00000190: e0c9 163a 6203 d538 ab10 ae3c 7822 91bc
000001a0: a669 e8bc d997 fbb9 a1d5 5ebb 5e0b 91ba
000001b0: 3536 e6ba 64e1 e6bb 88b9 f337 b570 f33c
000001c0: 3b55 06bd 46ee afbb cb53 c8ba 9cbe eeba
000001d0: 9809 dfbb 579c 55bc 66c9 083b c693 81bc
000001e0: 408b 0dbd f209 4e3a 7a33 eabb 4ed9 6bbb
000001f0: a062 8bbb 03f6 3b3d 0e4c 303d 2bd9 bfbc
00000200: 947d 11b8 307a e33c 9955 183a 38c6 36b9
00000210: bc9c d03a 421a 033d 3cd9 ce3c 095d 96bc
00000220: 5ce7 1a3d f88e e5bc 2dac e5bc 7257 06bd
00000230: 55d9 e8bb 6051 a1bb 020e cabc a6fa 123d
00000240: f46b 62bb 74cb 2ebb f0fe d93b a913 c2bc
00000250: d12f 39ba c77e 05bb 0637 1cb9 e8c2 5dbc
00000260: 5409 e2bb fac5 ab3c eb26 e53c 9cc9 a13b
00000270: 8c5c a13c 20be 6836 b8f3 3e39 2fc9 26bd
00000280: 26e1 0ebb 5639 723c 5ed7 0c3b 1c91 e938
00000290: af0f e7bc 0b3d 923c 7110 86ba e68f 273d
000002a0: ee90 a8ba bfbe 133d a657 8cbb 0036 2339
000002b0: c70b 11bc f0dd 1a3a 0108 07bc 3a20 c93b
000002c0: 5482 333b 096a 7a3a 78ac eabc b130 773c
000002d0: 60e7 af3c 4de1 1abb ce57 053b a698 123d
000002e0: f0a8 bfbc e17e 96bc 1488 0f3d 4d0c c6bc
000002f0: 3c38 2a3a ad40 1c3c 5344 123d 3e2b 26bd
00000300: 4e63 773b c691 94ba 70f9 a938 c087 08bc
00000310: 39a5 8137 df88 f63c 031e 3e3a 11da 17bd
00000320: 6365 c739 5df7 73bc 3eeb c63c 9e9a 4b38
00000330: 9ff3 8d39 92ab 51bb 1a4c 86b9 ae76 beb9
00000340: 98d7 ea38 74c5 80b7 735a 90bb b169 163a
00000350: 30b0 71bc 757f 3dbc 3962 cb38 a08c d4ba
00000360: 7ca1 6a3b 8afb 6839 971f 1d3b 73d2 03bd
00000370: 84b9 1f3c 6298 fcbc 0035 3ebb 0b59 a7bc
00000380: f479 a5bc 7b4e 1abd d4bc 1cbc 2536 4bbb
00000390: 4a90 f539 f974 c83c 526c 0dbb 5806 05bb
000003a0: b006 87ba 1c56 17ba 63da d33b c22b e73b
000003b0: 8cbf 74ba cd91 89bb f485 b7bb 22e2 daba
000003c0: 462d 353c e033 2a3a 2f80 ab3c 335a 96bc
000003d0: 1959 12bb 950c 8c3c 4dbb 55ba 4ee6 adbc
000003e0: 5e51 4b3c fe91 e83c db8e 56b9 e296 0b3d
000003f0: 6bd7 b7bb 6a8a 67bc f032 fe3b fecd 44bc
-0.0071617416 0.013621164 -4.0990737e-05 -0.032302544 -0.0013438151 0.0001328717 0.02404552 0.032786146
-0.0008985494 0.0006478539 -0.00025949656 -0.0033486555 0.00266286 -0.00025765007 0.03299489 0.003122521
-0.0004012484 -0.011457488 -0.0041362285 -0.003244665 0.0032185144 -0.00048030997 -0.0032982538 -9.6580814e-05
0.008351932 0.0009983346 -0.0010221725 0.0043948474 -0.043093074 0.0051816655 0.0005825176 0.00057990494
-0.0026638128 -0.0008809349 -0.03748303 0.0010768361 -0.017801572 -0.0030067933 -0.008141243 -0.0022561569
0.029991679 0.0010362202 0.016449893 0.015397803 -0.0013500545 0.0039005086 -0.004669958 -0.009253776
-0.00018189578 -0.001223489 -0.028451284 -0.024596382 -0.005398601 0.011664638 0.03559868 -0.010391212
-0.024923952 -0.022867443 0.032183785 -0.0003415861 -0.0014171399 0.031267416 -2.0396867e-05 -0.015175291
-0.014703473 -0.0038743597 -0.003876056 0.034702208 -0.0017270894 -0.02637627 -0.0036080114 -0.024946025
0.0059290193 -0.0002045052 0.0019293488 0.00039000786 -0.003251769 0.008328794 0.00012505101 0.0039687054
0.00023867642 -0.003310617 -0.0040739295 0.0032144918 -0.0063301856 0.0028193174 0.0026275197 -0.0011569936
-0.005561819 -0.0146189025 0.012473182 -0.017897675 0.004267954 -0.03423436 0.023165157 0.043941956
0.036781322 -0.009431565 0.0007124939 0.015477838 0.00057521276 0.000101572616 0.021248182 -0.017716631
-0.02837069 -0.00047987586 -0.0034001844 -0.001106601 -0.0017563762 -0.0070459116 2.9054252e-05 0.029716829
-0.032796126 -0.0053689806 -0.0015283761 -0.0018214765 -0.0068065636 -0.013037763 0.0020871996 -0.015817534
-0.034556627 0.00078597583 -0.0071472498 -0.0035987678 -0.0042537004 0.045888912 0.04304128 -0.023418983
-3.4687648e-05 0.027768224 0.0005811095 -0.00017430715 0.0015915851 0.032007463 0.02525007 -0.01835491
0.037818298 -0.028022274 -0.028036201 -0.032798238 -0.007105986 -0.0049230307 -0.024664883 0.03588357
-0.0034549208 -0.002667156 0.0066527054 -0.023691015 -0.0007064315 -0.0020369755 -0.00014897817 -0.013535239
-0.0068980847 0.020968426 0.02797266 0.004937364 0.01969745 3.4681361e-06 0.00018210604 -0.040719207
-0.002180168 0.014784178 0.0021490674 0.000111373345 -0.02820572 0.017851373 -0.0010228289 0.040908717
-0.0012860575 0.03607058 -0.0042829094 0.00015565008 -0.008852906 0.0005907705 -0.008241654 0.006137875
0.0027390914 0.00095525436 -0.028646693 0.0150872925 0.021472633 -0.0023632825 0.0020346525 0.03579011
-0.023395985 -0.018371047 0.035041884 -0.024175787 0.0006493365 0.009536904 0.03570969 -0.040568583
0.00377484 -0.0011334948 8.105009e-05 -0.008333147 1.5454936e-05 0.030094562 0.0007252397 -0.0370732
0.00038031777 -0.014890519 0.024282094 4.854297e-05 0.00027075128 -0.0031993133 -0.00025615172 -0.00036328047
0.00011198147 -1.5350735e-05 -0.0044053136 0.0005737795 -0.014751479 -0.011566033 9.69809e-05 -0.0016216226
0.0035801819 0.0002221895 0.0023975128 -0.032183122 0.00974882 -0.03083438 -0.002902329 -0.020428201
-0.020199753 -0.0376725 -0.0095665045 -0.0031007614 0.00046837545 0.02446984 -0.0021579457 -0.002029797
-0.0010301676 -0.0005773024 0.0064652427 0.007054777 -0.0009336404 -0.004198289 -0.0056006853 -0.0016699473
0.011058157 0.00064927153 0.020935146 -0.018353557 -0.0022330938 0.017095843 -0.0008153215 -0.021227982
0.012409536 0.028389927 -0.00020461848 0.03407944 -0.0056103966 -0.014132122 0.007757537 -0.012012003
