models/original/#CONV=3_#POOL=2_Hidden=128_PoolR=0.7_RANDS=777.pth (torch, 306358 bytes, 14 tensors)

convpool_layers.0.conv.weight f4 [1, 128]
00000000: 10ca acbd 4a57 343e 9654 d23d 2b83 43bd
00000010: 4473 2d3e ec96 cd3c 156c bdbd 0a47 71bd
00000020: 6b21 0d3e cce3 353d 1496 063c 394b 143e
00000030: efb9 f2bd 5e58 7cbc 2279 b9bc 7547 553e
00000040: 7655 7dbd ea7a 10be fc1c f23d 0ad6 99bd
00000050: aabc 03be 71e9 44bc c007 fc3c bee6 9dbd
00000060: b74d 873d 5da8 36bd 42e0 adbd 4464 7dbd
00000070: 1c27 613e e720 c5bd 78bf e63d 406b bf3d
00000080: 71d7 dabd 97cc 01be 4c03 ddbc 51e7 4b3c
00000090: a04f 003e 8278 1abe 26a6 0d3d 8c9f 2dbe
000000a0: 4159 f7bd 4760 1dbe 8be2 22be 5d01 1cbe
000000b0: 6d1c 09be 4727 0ebe 0c2c 4b3e 0d2d 9abb
000000c0: 2b31 6b3e 4292 fb3d 2648 30be 6cee 733d
000000d0: e87a 003e f30e 233d 8bea 203c e502 48bd
000000e0: 9909 313e a9b1 0abe d644 ee3d c447 873d
000000f0: b4f2 d9bb cc63 cabd 5705 263d 8c86 573e
00000100: 4b53 0a3d f9c4 093e f3b0 be3d d3d1 aebd
00000110: 95a6 923d 19a3 3fbb 7429 3fbd aa2f d8bc
00000120: b01f 0f3e 1be3 2ebe 9444 07be 7f12 eabd
00000130: 484a 433e d462 a33c 9f71 c2bd 5a0e c8bd
00000140: 8ad6 94ba bbc0 6d3e 0a12 f73c 68dc 183e
00000150: db5f 72bd 5cee 89bd cf42 b5bd 4f89 3dbd
00000160: bd4a 07be 4dc1 9b3c 707c d8bd 4ffd e3bd
00000170: c978 313d 86c8 583e 0985 213e 3608 07be
00000180: ea50 20bc 644a 26be 57ac 34ba 0e4c 05bc
00000190: 3998 8e3d 0cf3 433e 0940 633e 5935 27bd
000001a0: 169a 31be 3847 2a3d 4ae4 ae3c e54a 0ebe
000001b0: 8d21 f6bd bb04 473d 6df9 d23d f5ca a6bd
000001c0: fc7f 57bc d011 f33d c8f2 8cbd 8764 383d
000001d0: 6ea5 c53d b83d 313e e880 5b3e 6117 bfbc
000001e0: 16f4 1fbe fd89 253b 9dc2 94bd fe63 3abe
000001f0: f938 d43d 9e8a 6a3e e148 a8bc 1582 bebd
-0.08436978 0.17611423 0.1027004 -0.047732513 0.16938502 0.02509638 -0.09249131 -0.05890564
0.13782279 0.044406697 0.008214492 0.1448182 -0.1185187 -0.015401928 -0.022640768 0.2082804
-0.06184908 -0.14109388 0.118219346 -0.07511528 -0.12864938 -0.012018547 0.030765414 -0.07710026
0.0660662 -0.044594157 -0.084900394 -0.0618632 0.21987575 -0.09625416 0.112669885 0.09346628
-0.106856234 -0.12675701 -0.026979111 0.012445287 0.12530375 -0.15085033 0.03458228 -0.16955394
-0.12077571 -0.15368758 -0.15906732 -0.15234895 -0.1338975 -0.1388217 0.19841021 -0.0047050775
0.22967975 0.12283756 -0.17215022 0.05955355 0.12546885 0.03980918 0.009821544 -0.048830885
0.17288817 -0.13544334 0.11634223 0.06605485 -0.006651247 -0.09882316 0.040532436 0.2104742
0.03377084 0.13454045 0.09311094 -0.085361145 0.07160679 -0.00292415 -0.046670392 -0.026389915
0.13976932 -0.17078821 -0.13209754 -0.11429309 0.19071305 0.019944586 -0.09494328 -0.09768362
-0.0011355442 0.23218052 0.030159969 0.14927828 -0.059173446 -0.067349166 -0.08850633 -0.046273526
-0.13212104 0.019013071 -0.105706096 -0.11132299 0.04332808 0.21170244 0.15773405 -0.13186726
-0.009784916 -0.16239315 -0.0006892136 -0.008135809 0.06962628 0.19135684 0.22192396 -0.04082236
-0.17343935 0.041571826 0.021349091 -0.13895757 -0.12018118 0.048588496 0.103014804 -0.0814418
-0.013153072 0.11868632 -0.06882244 0.045017745 0.09650694 0.173087 0.21435893 -0.023326578
-0.15620455 0.002525925 -0.07263682 -0.18202206 0.10362429 0.22904441 -0.020542564 -0.09302155

convpool_layers.0.conv.bias f4 [128]
00000000: 35ff 5bbb 35fd cc3c 725c 3cbc a241 71bc
00000010: f623 823b 9e16 b8bb 6c76 f93b 3c69 5c3c
00000020: 1624 85bb 49d4 43bc 0d78 7dbc a82d f23c
00000030: 8bff 9d3c 30e3 11bc 67fe 47bb c5e6 063d
00000040: 3771 fcbb 15eb 373c 65b5 dc3b 1c75 5ab8
00000050: ec78 cf3b 5bfc 8739 f049 f5bc ad0a 7e3b
00000060: 162c 903c 973a 1abc c64f 193b 2f1e 5d3c
00000070: 3426 863c 2d4f ec3b 2114 5e3b feae 0e3d
00000080: e634 40bb 85b2 17bc 50dd 193c ef7c 72bc
00000090: 7a87 47bb cf43 6a3c 6c04 c4bc f5fb b93c
000000a0: 62f3 0e3c 83ef 4c3c 7dfb a23b d202 46bb
000000b0: e822 673c ef8b 203c c6cf e43c 75bd ae3a
000000c0: f271 c73b 7a8b 773c 147e aa3c ce32 86bc
000000d0: 0b70 8cbc c995 f8bc e899 19bc 7796 823b
000000e0: 3c3c b6ba 8d45 11bb 4e9c c13c 964f ea3b
000000f0: a297 2abb 45c8 3b3b a6e0 80bc d276 de3c
00000100: a623 e13a 1100 623c b4a6 d8bb 0377 553c
00000110: 1f6e 7ebc 9127 4bbc 74ce 83b9 a61f b4bb
00000120: 84e1 193c 669f fa3b 93c8 8a3b 50f4 253c
00000130: ac05 863c 8494 dcba 4ee3 1e3b 6122 6f3c
00000140: 66f7 9839 ae1a fc3c e77c 74bc 8bf4 3cbc
00000150: 07da 193c b47c d53b 8d06 ae3c b4ef 8b37
00000160: 3860 e23b 0641 8dbb a117 983c 0f18 9fbb
00000170: bb2a 1ebc 022a b83c 9336 6c3c 1bb8 193c
00000180: fdad 43bb b646 1d3c 03ae 2eb9 8912 3f39
00000190: ecff 883c 6a44 713c 1839 363d ecea be3b
000001a0: cfe0 093c 96ce b8bb c4d0 09bc ecff d83b
000001b0: 1baf 3c3c 43a3 e5bb c30c 993c 8ddc efbb
000001c0: 7717 163a 4e7d 863c 259b 703c 14ef 92ba
000001d0: af50 ba3a 7aa5 e23b e09b c13c 2669 2e3a
000001e0: f712 1d3c 6a6b 84bc 2f92 f83b 24c4 873c
000001f0: 5e44 c9bb 31ea be3c 3e95 353c 1fba 033c
-0.0033568863 0.025023082 -0.01149665 -0.014725121 0.003971572 -0.0056179306 0.007612994 0.013452824
-0.0040631397 -0.011952468 -0.015470517 0.029562786 0.019286891 -0.008904263 -0.0030516626 0.032934923
-0.007703926 0.0112254815 0.006735491 -5.2084317e-05 0.0063315537 0.00025937226 -0.029942483 0.0038763687
0.017599147 -0.009413383 0.0023393496 0.013495966 0.016375639 0.007211587 0.003388651 0.034834854
-0.0029328405 -0.009258871 0.009391144 -0.014800294 -0.003044574 0.014298393 -0.02392789 0.02270315
0.008725019 0.012508276 0.0049738274 -0.0030214083 0.014107443 0.009798988 0.027931105 0.0013331609
0.0060865814 0.015108937 0.020812072 -0.016381647 -0.01714327 -0.03034486 -0.009375073 0.003985222
-0.0013903449 -0.00221667 0.023634102 0.0071506007 -0.0026030322 0.0028653305 -0.01573212 0.027156267
0.0017176762 0.013793961 -0.0066116694 0.013028863 -0.015529185 -0.01239957 -0.00025140087 -0.005496937
0.009392146 0.0076483963 0.004235336 0.010129049 0.016360126 -0.0016828929 0.002424437 0.014595599
0.00029176025 0.03077444 -0.014922357 -0.011532913 0.009390361 0.00651511 0.021243358 1.6681712e-05
0.006908443 -0.00431073 0.018565955 -0.004855163 -0.009653742 0.022480968 0.014417308 0.009382273
-0.0029858344 0.009599378 -0.00016658758 0.00018222084 0.016723596 0.014725784 0.044488043 0.0058263447
0.008415415 -0.0056398613 -0.00841159 0.006622305 0.011516358 -0.0070079877 0.018682843 -0.007319993
0.00057255424 0.016417172 0.014685427 -0.0011210167 0.0014214719 0.006916699 0.023633897 0.00066532416
0.009587041 -0.0161645 0.007585786 0.01657302 -0.006142183 0.02330503 0.011082945 0.00803998

convpool_layers.0.pool.att f4 [1, 256]
00000000: a3d6 103d 50e7 20bd be72 a5bc f80f 243b
00000010: f260 0fbe 996d 16bd 58a2 26bd e7ab d63c
00000020: 8baa 3ebd 64da 373c 1e1a e7bb f9df 313c
00000030: aa8a 06bc b0e9 153e 880a 23be 31a2 edbd
00000040: ad4d 763d 69ea c8bb 7387 51bd 90d1 763b
00000050: 1b83 ed39 5192 553c 97f8 983b ef62 a93c
00000060: 3baa 0abd 9ffb 043b 6f4a 61bd 48b0 8c3d
00000070: 2b7a 8e3d 91ae adba 4665 2bbe 7c03 cd3d
00000080: 0071 44bb 8373 a53d f60a de3a 06b8 93bd
00000090: 7af6 943d b551 483d b743 113b 99eb 813b
000000a0: 6925 8fbb 8aa1 85bc 517d 60bb 6904 a43d
000000b0: 2f24 ebbd 28fe d0ba 9059 2d3e 3702 923a
000000c0: 5fec 28be 664b 833d 192f f23b 4b45 9dbc
000000d0: d631 71bd b035 ffbc 8936 e23d 605f bbbc
000000e0: 48f4 acbc bae0 f5bd 305f 85bc d2c6 ae3b
000000f0: aa2e 6e3d c82c 14bd 809f 903c 2a9b babc
00000100: 8c9b a1bd b349 d3bd 8556 833c 48dc 913a
00000110: 4eb1 343d c14d 22bd 8977 5cbd cec2 f5bc
00000120: c946 1c3d e9df e7bc 945e 0e3d 461a 1e3d
00000130: 0068 803d 2db4 5cbc 0024 cdbd 9fd6 f23c
00000140: 9c6e 6cb9 d630 04be 4c83 17bb 7e62 a2bc
00000150: d860 4e3d ccfa 89bc a60c e53c 178d 303e
00000160: 87a3 893c 43e2 cbbb ad5e 1b3b 44ce 233c
00000170: fa39 7ebc ebe9 aa3d 8d65 97bd f7a7 a9bb
00000180: 4cd9 053b 9ccb 933d d422 43ba 9d07 00bd
00000190: c964 d03c c3bf 153d 2815 673d 716a d83b
000001a0: 3559 1fbd 710c 46bd cd7c 22bb 2238 143d
000001b0: 26cf c23d 2b67 49bd 3cab f4bc 7798 d33d
000001c0: da25 19bd 34b7 32be 4bb3 633b 8f51 25be
000001d0: 9bec d13b e4d9 a13d 44c6 d7bd 473a e13c
000001e0: 24ba 883d dc74 25bc 0cc4 39bc e75d 093d
000001f0: ca6e c9bd bd38 283e 1fd6 d4bb c4ba 7ebb
00000200: 24e8 2bbb 6543 9bb8 a986 22bc 59a0 3ebc
00000210: 6d36 953c 56a4 16bb 94d5 233b 1849 89b9
00000220: 7f2f 9ebd d9bc a3b8 4207 ddbc 3f5e e33a
00000230: 12e2 2ab8 c3dd 0d3d 7e71 ceb8 f3e1 ba3a
00000240: 8a57 313d c2bc a0ba 3b3f efbd 9ad9 fa36
00000250: b00e 48b8 f0cf 8334 7313 0cbc 587f 80b8
00000260: eebc f6bc b6d4 1036 9893 4ab6 8185 c13c
00000270: bef1 9bbd c4bf 253c 0034 af3a 7a00 d4bc
00000280: 253c 11bc 41ed 8939 4a0b 2a3a 7a7c 533d
00000290: d108 95bd ac3a 903b 5fe7 34bc f1c4 41b8
000002a0: 844c bfb7 4e30 97b7 18fd deb6 4e39 4338
000002b0: 05ed f5ba b860 c03d 146a bd3c 32d2 f535
000002c0: 3902 7c3d a32d fe3c 447c 87b9 d028 113c
000002d0: a7e7 a83d 63b9 79bb 1574 6ebd ccc7 7638
000002e0: 7bf2 253a 8455 b1b5 69c5 923c 61ba 453d
000002f0: 572f c137 6012 07b7 24bd 3bba 48d6 65bd
00000300: b646 9bba b5a8 a4bd 3a9e b63b 8daa 8bb9
00000310: 02a0 6eba 29d0 9dbc 0fbb 14bd f301 0db8
00000320: a9e2 9e39 5f64 48bd 59ef 893c 0a7b 3aba
00000330: 60f9 45bd d07a f4ba 1916 b63a 5252 343d
00000340: 3d8b 5c3c 989e 033a 9b73 21bd 4c25 cebd
00000350: b5a1 34bb 5eee f4b8 da4d 49b7 27e9 d0b8
00000360: 413a a2bd c35a 16bb 898c b23c 09c3 4f39
00000370: 1523 133b e4c8 653d ca09 9bbd 98ef 62b5
00000380: 5c12 c3bc 8a92 c6b5 ef2b a33d 585b d7b8
00000390: c698 b5ba 955f b1bc 7203 ecba 6810 073c
000003a0: a8b8 fb3a 313f 59ba e206 17bb 6d03 03bd
000003b0: f805 99b7 f1c3 e3bb fa84 45bb 8248 2eba
000003c0: 7deb b33b a2e9 da3a 4e76 3039 78eb aab8
000003d0: b648 a23d f391 ccbd 34bc c03c 22a0 84b9
000003e0: f44b 10bd 8e0f 89bd 8dbd 893d 1eab eb3b
000003f0: ae7a b43d 53bc 01bc 76e1 5239 7e81 cbbb
0.035360944 -0.039283097 -0.020196315 0.0025033932 -0.14001825 -0.036725614 -0.040682167 0.026205016
-0.04654936 0.011221502 -0.007052674 0.010856622 -0.008211771 0.14639926 -0.15921986 -0.11603201
0.06013267 -0.0061314595 -0.051154565 0.003766153 0.00045301844 0.013035373 0.004668306 0.020677058
-0.03385375 0.002029158 -0.055002626 0.068695605 0.069568954 -0.0013250877 -0.16737852 0.1001043
-0.002997458 0.08078673 0.0016940522 -0.07212834 0.07273574 0.048906047 0.0022165605 0.003964853
-0.0043684733 -0.01631238 -0.0034254382 0.08008654 -0.11481511 -0.0015944885 0.16928697 0.0011139576
-0.16496418 0.064108655 0.0073908684 -0.01919808 -0.058885418 -0.03115353 0.11045558 -0.022872627
-0.021112576 -0.12005754 -0.01628074 0.00533376 0.05814997 -0.03617552 0.01765418 -0.022779066
-0.07890996 -0.103167914 0.016032467 0.0011128271 0.044114403 -0.039624933 -0.053824935 -0.030000117
0.038153443 -0.02830501 0.034758165 0.038599275 0.062698364 -0.013470692 -0.10016632 0.029643355
-0.00022547919 -0.12909254 -0.002311903 -0.019822355 0.050385326 -0.016843222 0.027960133 0.17241322
0.016801609 -0.006222041 0.0023707554 0.009997908 -0.015516752 0.083453976 -0.07392416 -0.0051774937
0.0020423708 0.0721657 -0.00074438495 -0.03125726 0.025438683 0.03655983 0.05641666 0.0066044857
-0.038903434 -0.04835171 -0.0024793625 0.036186345 0.09512167 -0.049170654 -0.029866807 0.10331815
-0.037389614 -0.17452699 0.0034744318 -0.16144393 0.0064063794 0.079028875 -0.10535863 0.02749361
0.066761285 -0.010098662 -0.011338245 0.033536818 -0.098355845 0.16427894 -0.006495252 -0.0038868645
-0.0026230896 -7.403529e-05 -0.009919801 -0.01163491 0.018214429 -0.0022986135 0.0024999129 -0.00026185135
-0.07723903 -7.807621e-05 -0.026981 0.0017346813 -4.0741703e-05 0.034635317 -9.843985e-05 0.0014258012
0.043296374 -0.0012263285 -0.11681982 7.4759128e-06 -4.7697395e-05 2.4551946e-07 -0.008549559 -6.127235e-05
-0.030119386 2.1581486e-06 -3.0186256e-06 0.02362323 -0.07614468 0.010116521 0.0013366938 -0.025879133
-0.008864437 0.00026307444 0.00064866676 0.051632382 -0.07277072 0.0044015255 -0.011041491 -4.61982e-05
-2.2804605e-05 -1.8023096e-05 -6.6455796e-06 4.6544992e-05 -0.0018762654 0.09393448 0.023121871 1.8315097e-06
0.061525557 0.03102762 -0.00025841792 0.008859828 0.08247309 -0.0038104884 -0.058216173 5.8837046e-05
0.0006330383 -1.3212416e-06 0.017916398 0.048273448 2.3029437e-05 -8.050905e-06 -0.0007161668 -0.056112558
-0.0011846635 -0.08039991 0.0055730613 -0.00026639216 -0.00091028225 -0.019264298 -0.036311205 -3.3618835e-05
0.00030304983 -0.048923846 0.016837763 -0.0007113671 -0.048333526 -0.0018652324 0.0013892084 0.04402382
0.013460931 0.0005020886 -0.03941689 -0.100657076 -0.0027562205 -0.00011679226 -1.199866e-05 -9.961641e-05
-0.07921267 -0.0022942282 0.021795528 0.00019813715 0.002245133 0.056099787 -0.075702265 -8.4540216e-07
-0.023812465 -1.4794798e-06 0.07967364 -0.00010269013 -0.0013854734 -0.021652022 -0.0018006398 0.008243658
0.0019204812 -0.00082873093 -0.0023044874 -0.03198569 -1.82418e-05 -0.0069508483 -0.0030139075 -0.0006648378
0.005490719 0.0016701708 0.0001682874 -8.150091e-05 0.07924025 -0.09988775 0.023527242 -0.0002529631
-0.035228685 -0.0669242 0.06725607 0.0071920296 0.08812462 -0.007918435 0.00020111151 -0.006210505

convpool_layers.1.conv.weight f4 [128, 128]
00000000: 4773 bcb6 7df0 e1b9 f37d dd3b d909 9339
00000010: 7f20 0dbd d446 62b9 15ca 01ba bff8 da38
00000020: f191 5a3d 355c 8a3c e266 94bc 6f35 0eba
00000030: 7805 fdb9 1de1 a3bc 5478 1e3d 6b0f 8939
00000040: 6218 543b 11f9 0abd 6c1f 203b a531 603c
00000050: dab1 633c 5432 443d 56dd 9a3c 9271 5838
00000060: 230e 5cb9 9405 38ba 78bc 53ba 3940 14b8
00000070: d05c 0239 533f 8839 d46f 1f3c 6c3c dfb9
00000080: fab8 57bc 4ed1 17ba 27a6 ae39 b8d3 773c
00000090: 0674 98b8 8a8f 19bb 36f9 3abd e640 62bc
000000a0: 7581 90ba c8f3 9a3a 28a1 003a 224b f13a
000000b0: cc6e 833c 31c7 30bd 60cf d1b9 30c1 50ba
000000c0: 666f 16bc 6097 4e3a 961a 21bd 4127 293d
000000d0: 7822 9e3b 18fa fcb9 cb58 ea3c fee4 35bc
000000e0: c097 6b38 c762 73bc 9158 06bb 90a1 24bd
000000f0: 94fa 4ebd f0e6 dbbb ffc6 f7ba 99fa e7bc
00000100: 8497 09b8 7074 afb7 24ce 2936 9c90 82bc
00000110: d232 0ebd 2e78 be39 835a 42bd 150c 6e3c
00000120: 403e 9739 b3cc 903c 72d3 d3b8 12f2 34bd
00000130: 3c21 97bc 9809 6239 aff8 873a 97d4 8b39
00000140: b575 fab7 0913 d9bc 706b 9db6 757c 263d
00000150: de4c bf3a 63dd a7b8 1293 e3bc dfcc 89b9
00000160: 73c8 8936 0c3e 143a df11 20bc 46d6 b3b9
00000170: 3817 28bd c6ff 49bd 89b3 a5bc cb26 4ebc
00000180: 7313 c9b9 d7e4 77b9 a4fd 2738 888a f4b8
00000190: 0bd8 1f3a dab7 02b8 da6a 4c3c 65ce b8b7
000001a0: d945 cd3c 160d 11bd d37e 6e3a aa03 563d
000001b0: 2d83 d8b8 d2b7 a23c 5dd6 e5b9 3e54 ad39
000001c0: fef6 2d3d d874 30bd 6608 e73c 9d49 b43a
000001d0: 6f61 23bd 89c7 21b9 bea0 743c cfb7 f3b7
000001e0: a16a 54b9 0dcc 603c 8c50 433d 86d0 ddbb
000001f0: d2e0 d8b8 ae9e 0cbd 8bfd 06bd 34cd b039
00000200: 80cc 5d3d f4c2 60bd 739d c2bc e972 1d3d
00000210: 0fae 2b38 7f37 193d 58fc e5bd 8ddb f3bc
00000220: 901c e838 666e 113c 2cb3 7dbd 3eb5 85bc
00000230: c334 88b8 bb22 1537 ae8f 023e 062f ee3b
00000240: 5356 4e3d 57d0 3dbc eeb7 4a3b b710 21bd
00000250: 6baf 7dbd b2e8 19bc 732e 473d 05e0 c7bb
00000260: 70b6 25b7 43e9 753d 16f4 3cbd 66b3 34bd
00000270: e437 443b 1038 97bd 28cd f83b e113 e33d
00000280: 3a1d 9c37 5e35 4a3b f784 a6bd 5197 273d
00000290: fab9 b53c 54c4 dd3b bb25 903c 48d9 c4bb
000002a0: 05a9 1d3d 8be7 5a3a 7d79 ed3d 9cc3 063d
000002b0: 9e59 50bd 18c3 5dbd 9740 853d e394 533c
000002c0: 548f 85b8 b0a4 0fbd 4210 293b 55c4 8d3a
000002d0: 47e8 2ebc 3616 953c 325a 50bb 63b3 5339
000002e0: 503d 283e e355 a73d ca00 c73d 13c2 abbb
000002f0: 04ab 233d 7702 cd39 efa7 ac3c cae0 56b7
00000300: ec84 6abc 07b8 08bc c6f8 923d c3d8 bbbc
00000310: 90f6 6e3d 1403 7738 9013 923d cff9 853d
00000320: b80c 243c 0365 bc3d 894c 38bd 8ca3 c03d
00000330: a862 4136 8e06 803d dac5 fbbb 6eb6 f6bc
00000340: 328b 7bbc d94f 9cbd 3ac3 c3bc fad0 1cba
00000350: f967 5c3d 23a9 4abc 1f4a 003a fe3a a53b
00000360: 3c28 9435 174b 6a3d d277 2ab8 230e d73b
00000370: b01b 923d 0a07 58bd b209 7cbd 7bb2 c9b8
00000380: 2ced e53a 76bc 03bd 6be8 f6bb 5cc5 e9bc
00000390: 1267 043e c0c4 8e3d 7d3e 96bb 9966 563d
000003a0: 1a31 813d 6cf5 ad36 14f6 873d f63e da3d
000003b0: 601b 5fb9 5d08 54bd 800e 1f3c 4072 c43d
000003c0: b079 bbbc 5ce1 bd3c ea8e a0b6 06a1 a73c
000003d0: babc 9dbc 9c19 8b3a e484 f4bc 0bff 30bd
000003e0: 1d2d 923b cc93 9837 5691 eeb5 38cb 943b
000003f0: 82b8 9a3c ac5d 143e 3e5e dc3d 761b b6bb
-5.6162567e-06 -0.00043094522 0.006759399 0.00028045362 -0.03445482 -0.00021579425 -0.0004951072 0.000104413826
0.053361837 0.01688967 -0.018115465 -0.00054248323 -0.00048259995 -0.020004803 0.038688973 0.00026142164
0.0032363166 -0.033928934 0.0024432791 0.013683711 0.013897384 0.04789956 0.01890437 5.1604184e-05
-0.00020986101 -0.0007019874 -0.0008077095 -3.534576e-05 0.00012432341 0.00025987122 0.009731252 -0.00042578892
-0.01316666 -0.00057913817 0.0003331166 0.015126161 -7.269536e-05 -0.0023431503 -0.045647822 -0.013809418
-0.0011024909 0.001182192 0.00049068267 0.0018409232 0.016044043 -0.043158714 -0.00040018093 -0.00079633575
-0.009181833 0.0007880833 -0.039331995 0.0412972 0.0048258863 -0.0004825152 0.028606793 -0.011101959
5.6169694e-05 -0.014855093 -0.0020499567 -0.04019314 -0.05053194 -0.0067108795 -0.001890391 -0.028317736
-3.2804455e-05 -2.0915846e-05 2.5302952e-06 -0.015938096 -0.034716435 0.00036329165 -0.0474496 0.014529248
0.00028847344 0.017675733 -0.00010100649 -0.04417617 -0.018448465 0.00021556614 0.0010373796 0.00026670538
-2.9857134e-05 -0.026498334 -4.691472e-06 0.040646035 0.0014595052 -8.004417e-05 -0.02778009 -0.00026283317
4.1062535e-06 0.00056549977 -0.009769886 -0.00034301187 -0.041037768 -0.04931619 -0.02022721 -0.012582491
-0.00038352198 -0.00023641005 4.0052124e-05 -0.0001166063 0.00060975616 -3.116564e-05 0.012476647 -2.203062e-05
0.02505772 -0.03541287 0.0009097878 0.052249588 -0.00010324116 0.019863043 -0.00043837997 0.00033059897
0.04247188 -0.04308018 0.028202247 0.0013754849 -0.03988784 -0.00015428489 0.014930902 -2.905345e-05
-0.00020257618 0.0137205245 0.047684237 -0.0067692427 -0.00010341559 -0.034331016 -0.03295664 0.00033722224
0.054150105 -0.05487342 -0.023756718 0.038439665 4.093168e-05 0.03740644 -0.112297714 -0.029767776
0.00011067942 0.008876419 -0.06193845 -0.016321775 -6.494813e-05 8.889178e-06 0.12750122 0.007268789
0.050375294 -0.011585317 0.0030932385 -0.03932258 -0.06193487 -0.009393858 0.04862828 -0.0060997033
-9.877243e-06 0.06003691 -0.046131216 -0.0441164 0.002994054 -0.0738374 0.007592816 0.11087776
1.8610259e-05 0.0030854563 -0.0813083 0.04091579 0.022183407 0.006767789 0.017596116 -0.0060073473
0.038491268 0.00083505426 0.11595438 0.03290139 -0.050866716 -0.054141134 0.0650646 0.012913915
-6.368631e-05 -0.035069168 0.0025797044 0.0010815958 -0.010675496 0.018199068 -0.0031792042 0.00020189355
0.16429639 0.081706785 0.097169474 -0.0052416413 0.039958015 0.00039102483 0.02107617 -1.2807732e-05
-0.014313918 -0.008344657 0.07176356 -0.022930508 0.05834061 5.8892256e-05 0.071326375 0.06541788
0.010012798 0.09198954 -0.044994865 0.09406194 2.8816667e-06 0.0625125 -0.007683498 -0.030116286
-0.015353011 -0.07632417 -0.023896802 -0.00059820677 0.053810094 -0.012369427 0.00048938574 0.005042433
1.1038569e-06 0.057200518 -4.064275e-05 0.0065629645 0.07134187 -0.052741088 -0.061532684 -9.6176715e-05
0.0017541996 -0.032162152 -0.0075350306 -0.028536491 0.12929943 0.06971121 -0.004585086 0.05234394
0.063081935 5.1843726e-06 0.066387326 0.1065654 -0.00021277135 -0.05176579 0.009708047 0.09592104
-0.022885174 0.023178749 -4.785009e-06 0.020462524 -0.01925503 0.0010612491 -0.029848523 -0.043211978
0.0044609443 1.8188635e-05 -1.777468e-06 0.004540827 0.018886808 0.14488858 0.10760163 -0.005557473

convpool_layers.1.conv.bias f4 [128]
00000000: edf0 943b 497c b53b 0000 0000 61a6 02bc
00000010: 0000 0000 5773 903c 8e62 58bc 0000 0000
00000020: c688 2037 db95 37bc 9b69 4dbc de71 113c
00000030: a4ca 63ba 0000 0000 5b72 d8ba 0000 0000
00000040: 031b 60bc 2722 243c 69bc 8abb e82d 4c3b
00000050: b034 10bc 0000 0000 472d 8d3c 10fe bcbb
00000060: 0000 0000 2557 273c 71d0 3fba 0000 0000
00000070: d244 923b add1 18bc 001e 1f3c a467 043d
00000080: 0000 0000 b0f9 85bc 5518 13bb 236e 1ebc
00000090: 0000 0000 5d95 8f3c 8888 0abc 33ff acbb
000000a0: 68ef be3a 8aa6 b63b fa43 a8bc 8936 853a
000000b0: ad11 30b9 0000 0000 6584 e73c d06a 72bb
000000c0: d3e5 3ebb d1c8 c1bb 0a35 ddbb 358a d2bb
000000d0: b6ef 7bbc 5643 40bc 5ee6 c1bb 875a e23a
000000e0: 2512 1a3d 22a2 93bc 76b2 303d 3dd7 8cbb
000000f0: 5f29 1fbc ca54 0d3b 135c 2dbc 0000 0000
00000100: 0000 0000 3831 993c 9550 01bc 744d a53a
00000110: 88d5 55bc 3e76 dc39 a56d 93bc 962f 973c
00000120: b1ca b03c 2473 5d3b 1d0b aa3b 1cc5 4b3c
00000130: 0000 0000 f4ae 033b 62ba 513c 8fd2 33bc
00000140: 0000 0000 c14c 623b f0f1 64bb bf95 03bc
00000150: 13b6 89bc 0000 0000 d472 ab3b 8125 fabb
00000160: 0000 0000 916d 7bbc 809f c6b8 69ff 68bb
00000170: 5b17 993c 0000 0000 6b3b 91bb 0000 0000
00000180: 3b4a b1ba ff4b 80b8 2124 ddbb a56a ffb9
00000190: 6e23 5b3c 5060 333b 6c5d 13bc 0000 0000
000001a0: 26c5 923b 72f6 64b9 67a1 46bb d64b 70bb
000001b0: 0000 0000 0000 0000 bc86 863c 8590 c8bb
000001c0: 7cca 013a dc97 7dbc 0000 0000 700b 883c
000001d0: 0000 0000 2457 29bc 7e86 05bc e82a 02bb
000001e0: a2fe 3d3c 45aa 38bb e5da 2f36 a632 b83c
000001f0: eab0 b4bb 328f be3c bf14 9cbb 8474 24bb
0.004545322 0.0055384976 0.0 -0.007974238 0.0 0.017633123 -0.013207091 0.0
9.568588e-06 -0.011205162 -0.012537385 0.008877246 -0.00086895586 0.0 -0.0016513573 0.0
-0.013678315 0.010017908 -0.004233886 0.0031155292 -0.008801624 0.0 0.017233504 -0.0057675913
0.0 0.010213648 -0.0007317132 0.0 0.0044637704 -0.009327334 0.009711742 0.032325402
0.0 -0.016354412 -0.0022444923 -0.009669813 0.0 0.017527277 -0.008455403 -0.0052794456
0.0014567198 0.005574052 -0.020540226 0.0010163347 -0.00016791253 0.0 0.028261373 -0.0036989935
-0.0029128685 -0.0059138318 -0.0067507075 -0.006425167 -0.015376976 -0.011734804 -0.0059173545 0.0017269411
0.03761496 -0.018021647 0.043138944 -0.0042981193 -0.0097144535 0.002156543 -0.010581034 0.0
0.0 0.018700227 -0.007892747 0.0012611584 -0.013051398 0.00042049767 -0.017996619 0.018455308
0.021581026 0.0033790553 0.005189313 0.012437131 0.0 0.0020093294 0.012800785 -0.010975494
0.0 0.0034530612 -0.0034934245 -0.008031308 -0.016810453 0.0 0.0052321944 -0.0076338653
0.0 -0.015345947 -9.471085e-05 -0.0035552627 0.018687895 0.0 -0.004432132 0.0
-0.0013526151 -6.117671e-05 -0.0067486917 -0.00048716847 0.013375146 0.002737064 -0.0089944415 0.0
0.0044790683 -0.00021835582 -0.0030308606 -0.0036666295 0.0 0.0 0.016421668 -0.0061207437
0.0004951132 -0.015478101 0.0 0.016607016 0.0 -0.010335717 -0.008149741 -0.0019862
0.011596354 -0.002817766 2.6204445e-06 0.022485089 -0.005514254 0.02326164 -0.0047632153 -0.0025093863

convpool_layers.1.pool.att f4 [1, 256]
00000000: fb69 863d 546b b83b 9340 7e39 20f7 473c
00000010: 859e 8ab9 7a23 463d 5ba4 743c cfec 1239
00000020: fe84 2eb8 75f3 673c 9749 0d3c b2fc 5a3d
00000030: d668 1d3c b0b2 bdbb 868b cebc 328c 8038
00000040: 92bb 2dbd 89df cb3c bad2 c539 5375 873c
00000050: 9a96 39be 6d54 0c3b 92ea 0b3d e86e e038
00000060: c153 ecbc 6210 033b 4be6 2cbd 6de5 fcb7
00000070: db4f 6e3c dcb8 1bb9 3a9b d03c e04d bb3c
00000080: e2db 17bd 12bc 513c 18cc 87bd 5936 bcbc
00000090: 48ea 8a3c 2f14 00bc 83aa 42bc 1729 3c3b
000000a0: fa9f b03a 5a16 2b3a 46d3 46bd 81de 4e3d
000000b0: 5540 663c 929d 693c 137d 2f3c a3f2 7abc
000000c0: 93e8 353a 88e5 7c3c 1ad7 68bb 98f1 bb3b
000000d0: ebfc 123e c547 5439 2a7f bf38 e697 193d
000000e0: 0d1d cabc 7430 eebb 8045 53bd c351 a0b7
000000f0: d720 89ba 4b98 023a 8539 33b9 eebd 0ebb
00000100: 7d01 843c 56c9 203c 447f 213c 3730 303a
00000110: 3f10 3e3d e9df 87b9 6a0b 1a3c c83e e63d
00000120: bad7 243c c7d8 a9bc 3bb2 8b3c 368c 3abd
00000130: 6b68 41b8 5c13 443d 0e95 023e a3cb 86bb
00000140: 2a70 4837 9ac2 803c 9efd 0a3e 5c17 013a
00000150: 3dec babc 103a dfbd a2ee 5839 7ec5 673d
00000160: e3d8 4339 9c77 973d ecbd 6e37 e62c 633c
00000170: b9ad 22bc 36f0 67bb 5a28 9239 682d b335
00000180: c157 e738 ca4a 7fbc df9a b23d 1b39 6439
00000190: 4af4 05bd 6b58 5f3c 28dc 2137 2291 8b39
000001a0: c9ac 683d 06c3 0dbd 9ea6 4b3d 87e1 413d
000001b0: 0cc8 e3b7 125b 1cbd a3c8 db3d 08d0 17be
000001c0: 61b0 7e3c d386 c23c 6ede 3739 6d13 f3bb
000001d0: a9e9 623d 40d5 2c3c 5c7a dcbb 932c dd3b
000001e0: 2244 51bd 27ea 0c3b 74da 7939 ff80 33bb
000001f0: 9d13 1b39 972e aa3c 0cf8 113d 7129 123d
00000200: d855 78bc 4d66 06b8 2b74 17bc 303f 90bd
00000210: 22ce 0eb8 232e 583c d403 373c c5aa c936
00000220: 65d0 efb8 25fb 0d3c 40f0 7f3b c6a8 2a3c
00000230: f6f1 3138 a39c f7b5 c445 6b3d 2fdd 7f37
00000240: 1c96 2c3c 56f6 18bd 38dd b239 aaf0 7238
00000250: e711 253c 10ae 7737 b611 83bc 9698 073c
00000260: 4096 2f39 aa02 7c3c edd6 313c e980 8eb8
00000270: ef32 fcbd 1530 cfb8 8ada f53c c3fa 2c3c
00000280: 807e d636 0fc6 893b 5483 973c d63f 8fb6
00000290: dfd9 13bc 35ff 19b9 cb63 413d bca8 11bd
000002a0: 8f9a ccbc cba1 89b7 b278 92bd 6c2e f835
000002b0: 7746 d0bd 58a1 6cbb 967a 7a3d e8f5 7639
000002c0: 2f16 a2ba f105 3e3c b1f5 0bbe b33f 08b8
000002d0: b9a6 05bd 067e 6738 1ed1 9137 98bb 5a38
000002e0: 800a 42bd 2c21 86bc 5b95 cdbd 5e8f d8bb
000002f0: 7568 95bc 9a19 3539 a354 043a 1a0a 84b7
00000300: 18a1 2fb7 51af 4e3c 9b4a 16b8 f488 5e38
00000310: 679c 833a f656 b83c 941b 16bc 8f6b 033d
00000320: 7fd9 713b abf5 7cbc b566 693c ac59 3c3c
00000330: 611a cdb7 7523 8dbb 243b 67ba 1d18 1838
00000340: 1869 80b8 42c0 4d3c 862d f6b7 b871 1037
00000350: c5e1 e7bc 3438 f33a b850 4cba 0c30 c5bd
00000360: 7b4d 6bbb 6276 5f3c 03da 3c3c b35a 7038
00000370: ab6f 3ebd 3c9d c33c ab6d 95bc 5cc2 8639
00000380: e8b2 cdb8 3246 4038 7b7c f7bc bad5 a5b7
00000390: 8b28 b83b 463f c43b 920b 9339 a81e c437
000003a0: 2cca 703c 86ac 11bd a8e9 443c 1ce2 bbbd
000003b0: dec9 303c 1bbe acbc f2ca 863c b9f7 423c
000003c0: d42d 23be 146a ed38 3286 49bd 8063 5ebc
000003d0: 80a9 6dbd 4224 073c c94a cc3d ac60 9638
000003e0: 3912 72bc 420f 7438 628c a936 059a a9b8
000003f0: fab1 9ab8 cde1 1e3b e40e cd3d c786 953c
0.06563183 0.005628029 0.00024247383 0.012204915 -0.00026439517 0.048373677 0.0149317635 0.00014011863
-4.160869e-05 0.014157166 0.008623502 0.053463645 0.009607514 -0.0057891235 -0.025213014 6.129629e-05
-0.04241521 0.024886863 0.00037731772 0.016535437 -0.18123856 0.0021412626 0.03415925 0.0001070181
-0.02884853 0.0019998779 -0.042211812 -3.0147576e-05 0.014545406 -0.00014850817 0.025464643 0.022864282
-0.03707493 0.012801187 -0.06630725 -0.022975134 0.016957417 -0.007817312 -0.0118814735 0.0028711015
0.0013475411 0.0006526463 -0.04854133 0.050505165 0.014053424 0.014258759 0.010710972 -0.015316638
0.00069392583 0.015435584 -0.00355286 0.0057355873 0.14354293 0.00020244632 9.131276e-05 0.037498377
-0.024672056 -0.0072689597 -0.051579952 -1.911156e-05 -0.0010462058 0.00049818 -0.00017092198 -0.0021780687
0.01611399 0.009813627 0.009857003 0.0006721052 0.046402212 -0.00025916033 0.009402135 0.11242443
0.010061199 -0.02073325 0.01705276 -0.04554387 -4.6112033e-05 0.047870025 0.12752172 -0.004113631
1.1947044e-05 0.015717793 0.1357331 0.000492444 -0.022817725 -0.108997464 0.00020688263 0.056584828
0.00018677446 0.073958606 1.4230125e-05 0.013865685 -0.009929114 -0.003539098 0.00027877354 1.3349754e-06
0.00011031284 -0.015581796 0.087209456 0.00021765048 -0.032703675 0.01363192 9.647607e-06 0.00026620278
0.056805406 -0.034609817 0.049719445 0.04733422 -2.7153663e-05 -0.03817279 0.10731628 -0.14825451
0.015544982 0.02374593 0.00017535102 -0.007418087 0.055398617 0.01054889 -0.0067284536 0.0067496984
-0.051090367 0.002150187 0.0002382787 -0.002739012 0.00014789258 0.020774169 0.035636947 0.035684053
-0.0151571855 -3.2043365e-05 -0.009244005 -0.07043302 -3.4047414e-05 0.013194594 0.011170346 6.010147e-06
-0.000114352246 0.008665835 0.0039053112 0.010416215 4.2425432e-05 -1.8448521e-06 0.05743958 1.5250683e-05
0.010533836 -0.0373443 0.00034115626 5.7921432e-05 0.010075069 1.4762874e-05 -0.015999656 0.008276125
0.00016745273 0.015381495 0.010854465 -6.795099e-05 -0.12314402 -9.879485e-05 0.030011434 0.010557833
6.3924235e-06 0.0042045186 0.01849524 -4.2691636e-06 -0.0090241125 -0.00014686289 0.04721431 -0.03556131
-0.024976043 -1.6407013e-05 -0.07151927 1.849095e-06 -0.1016969 -0.003610691 0.061152063 0.00023551995
-0.001236623 0.011598096 -0.13667943 -3.248425e-05 -0.032629702 5.519206e-05 1.7382725e-05 5.214996e-05
-0.047373295 -0.01637324 -0.10038253 -0.0066088876 -0.018238286 0.00017271042 0.0005048012 -1.574033e-05
-1.046832e-05 0.012615041 -3.583227e-05 5.3056472e-05 0.0010041118 0.022502404 -0.009161849 0.032084998
0.003690332 -0.015439431 0.014245679 0.011495989 -2.4450188e-05 -0.0043072053 -0.00088207633 3.626208e-05
-6.123091e-05 0.012558045 -2.9346684e-05 8.609546e-06 -0.028305897 0.0018556179 -0.00077940105 -0.09628305
-0.0035904336 0.0136390645 0.011526587 5.730493e-05 -0.046493214 0.023878686 -0.01824077 0.0002570328
-9.8084856e-05 4.584174e-05 -0.030210724 -1.9769057e-05 0.0056200675 0.005988988 0.00028046645 2.3379296e-05
0.014696639 -0.03556492 0.012018599 -0.09173986 0.010790316 -0.021086743 0.016454194 0.011899882
-0.15935451 0.00011320799 -0.049200244 -0.013573527 -0.058022976 0.008248391 0.09975202 7.170564e-05
-0.014774852 5.8188343e-05 5.052935e-06 -8.087236e-05 -7.376443e-05 0.0024243474 0.10012606 0.018252743

convpool_layers.2.conv.weight f4 [128, 128]
00000000: e343 123b 9458 15bd b58c 943d 8292 8138
00000010: 8c3b 5f3c 65fa 14bd 96d3 843d a5a3 6e3c
00000020: b74a 13bc c433 513d 695e f4bb c4d8 003c
00000030: 357a a0bd 9a2f 6fbd 0edb df3d af76 1036
00000040: 57e0 beba 5d09 913c 8a54 5cbc dcc9 233e
00000050: a5ab 5139 004f b03d 4cef 8bbc 7c84 043b
00000060: 33d2 afbc 4327 093e 8252 eb3d af22 e53d
00000070: 457e 85bd f0c0 cf36 4245 873c 9729 8239
00000080: bfc4 ca3d 38cf 0e3e 90b7 b33b 9c6c a63c
00000090: 3de1 b8bc 8188 513d 9acd 3a3b ade8 cfbd
000000a0: 1b27 253d 42c7 3fbb 2904 9dbd 3ab6 00bd
000000b0: 4403 5abd ec6b 1b3d ef0d 4cbc 1047 4437
000000c0: 1a25 563c f670 debc c43c 203b 7feb 7fbb
000000d0: f819 46bd f10c 08bc ce40 2a3d 9487 1c3c
000000e0: 87f2 ee3d 9ea6 90bc 805e 063d a110 58bd
000000f0: a9e3 92bc 6bb5 84b8 e6c9 20ba b6c8 c7bc
00000100: fa77 373b 17e8 65bd 76d5 b63d 18ea d83c
00000110: 4eb5 533d 460b 84bc dfb7 a73c 56b3 c2b7
00000120: 951d a9bd 8e78 d637 16fa 2d39 65bb cfbb
00000130: a0b0 37b8 81d8 373b 894f 083e edb2 51bd
00000140: e2e4 57bd 6e6b fb3d 52d8 b33c 227a 9bbd
00000150: a701 a13d 85f4 cc3d 3ff9 9f3b 9cb1 3e3d
00000160: b6cb 103d 1b75 6e3d e5ba dcbb 93e1 803d
00000170: 0c68 983d f2c6 f63d a979 c13d 66c8 563c
00000180: 5033 07b5 2047 9238 2e92 b73c 4a89 2fb8
00000190: 280c 53bd 20d2 b83c d9e1 4dbd 6356 c1ba
000001a0: 029a b33d d47f dbb6 4828 8b3d 0238 d43a
000001b0: 5406 34bd fae4 1439 1c61 153d d229 53bd
000001c0: 871b 903c da81 83b9 3104 b43d 4458 bc3d
000001d0: 36aa 98bd 3862 5db8 0bb4 c5bd 9d94 be3b
000001e0: 3a8d 1a3c 67b1 9fbd b7ae 8e3d f17d 5b3b
000001f0: 6c93 a5bc 4e5a 723c 9618 57bd 1c00 223c
00000200: dd76 253d ded6 7dbb 2fef 003d db3f 3cbc
00000210: e822 1d39 c0bf 063d 24ba 5f3b b005 9339
00000220: a584 93bc f521 72bb ade1 babb 60dd febb
00000230: 98b5 213d e85e d83b a88d 22bc 21ad 77bb
00000240: 9d66 6fbc 8a0c b2bc 1776 813c 70e2 073c
00000250: f89f a5bc 7230 de3b 3f7f 8bb7 5a36 ce3b
00000260: 5e8a 8bb9 d35a 023b 3141 973b 7760 353b
00000270: 6b8d 4bbd 6196 1e3c 4ff5 cfbb fed4 0cb7
00000280: 3941 7bba 4995 4ebc c24e 543d 39ee 943c
00000290: fce3 2cb7 bbfe 623d 1685 aebb 5c92 073c
000002a0: 880a 423d 87e2 98bb c1bc 1c3c c482 503b
000002b0: a2a6 483b ba7a b8b7 de4d 87b7 71d3 debb
000002c0: 930b e53c cc04 233d 8864 003c b57f a4b9
000002d0: 040e ae38 f437 a0bc 1b66 1a3d ffc3 cfb6
000002e0: 00af dcbb 2110 0bbd 20e0 5d3d 6c70 ecbb
000002f0: 3f2d 343d a46a 5736 61ab 1e3c d47b 413d
00000300: 56c3 b4bb 1b40 8fbc 9330 efbb f016 d83a
00000310: bb85 74bc 1cef bb3b c084 b735 ffde bc3c
00000320: 5c0d ecbb 542b 28b8 3dcc e5bc 6f66 5c3d
00000330: bca4 9438 9ce1 00b8 0f72 053c 82f0 ef3b
00000340: 3d9b babb aebb 19bd 456d d8b8 521e 053a
00000350: 9249 8abc 620c 053c 1f78 3a3c 59f0 10bc
00000360: 6d0b 36bc 490e 393d b23c 31bd f665 e43c
00000370: 290d 7a39 8740 bfbb 82ea debb bafd b13b
00000380: 1e14 55bc 24e5 efb7 d004 66b9 e5b0 bbbc
00000390: 9295 2739 d752 3a3d e37c 453d eeb4 163d
000003a0: 767c f03b 874c 0db7 7b78 953a ea3b 4a3c
000003b0: a0a9 70bc ddc1 a5bb a695 5bba 0bf1 1b3b
000003c0: 942f fb3b 3ed8 6ebb ab06 093c 87d3 72bb
000003d0: 733f 4a3a 06fe 74bc 7c97 f6bb 855d 533b
000003e0: 1c24 5ebc e070 b73a 37a7 ad3b 435d f5bc
000003f0: ccdf 733b d107 46bd b72c 8b37 8a39 0d3d
0.0022318296 -0.036461428 0.072534 6.1784885e-05 0.013625037 -0.036371607 0.06485669 0.014565383
-0.008989981 0.05107476 -0.0074575436 0.007864181 -0.07835809 -0.058395006 0.10930453 2.1526755e-06
-0.0014562708 0.01770466 -0.01344789 0.15994972 0.00019995736 0.08608818 -0.01708188 0.0020220568
-0.021462535 0.13393883 0.114903465 0.11188256 -0.065182246 6.1915416e-06 0.016512517 0.0002482652
0.099008076 0.13946235 0.005484529 0.02031546 -0.02256834 0.05115557 0.0028503896 -0.10151801
0.040320497 -0.0029263054 -0.07666809 -0.031423785 -0.05322577 0.03794472 -0.012454494 1.1699056e-05
0.013070369 -0.027153473 0.0024450282 -0.0039050279 -0.04836461 -0.008303867 0.04156571 0.009553809
0.11667352 -0.017657574 0.032804966 -0.052750234 -0.017930822 -6.328042e-05 -0.0006133601 -0.024387699
0.0027995096 -0.05612954 0.08927433 0.026478812 0.051686577 -0.016118657 0.020473419 -2.3210112e-05
-0.082575954 2.5566926e-05 0.0001659173 -0.006339478 -4.3795095e-05 0.002805263 0.1331159 -0.051196028
-0.052708514 0.1227635 0.021953736 -0.07591654 0.07861643 0.10007576 0.0048820074 0.0465561
0.035350524 0.05821715 -0.0067361468 0.06293025 0.0744172 0.120496646 0.09447033 0.013109302
-5.036609e-07 6.9750706e-05 0.022408571 -4.185111e-05 -0.051525265 0.022561133 -0.050264213 -0.0014750477
0.08769609 -6.5415898e-06 0.067947924 0.0016191008 -0.043951347 0.0001419968 0.036469564 -0.051553555
0.017591251 -0.00025083014 0.08789862 0.09196523 -0.0745434 -5.278198e-05 -0.09653481 0.005816056
0.009433085 -0.07797509 0.06966918 0.0033491815 -0.020211898 0.014792038 -0.05251368 0.009887721
0.04039656 -0.0038732807 0.031478103 -0.011489834 0.0001498569 0.03289771 0.0034138048 0.00028042262
-0.018007586 -0.003694651 -0.005703172 -0.007777855 0.039479822 0.0066031106 -0.009921469 -0.0037792402
-0.014611867 -0.021734495 0.01580338 0.008293733 -0.02021788 0.0067806775 -1.6629345e-05 0.0062931003
-0.00026615238 0.0019890561 0.0046159257 0.0027675906 -0.049695414 0.009679408 -0.0063463817 -8.394241e-06
-0.0009584609 -0.012608835 0.05183292 0.01818 -1.0305081e-05 0.05541871 -0.0053259237 0.008274641
0.047373325 -0.004665676 0.009566487 0.0031816224 0.00306169 -2.1991658e-05 -1.6129514e-05 -0.006800108
0.02795962 0.039799497 0.0078364685 -0.00031375667 8.299577e-05 -0.01955793 0.03769503 -6.1918977e-06
-0.006734729 -0.03395093 0.05416882 -0.00721555 0.043988463 3.209957e-06 0.009684415 0.047237232
-0.00551645 -0.017486623 -0.0072994917 0.0016486328 -0.014924462 0.005735291 1.3673198e-06 0.023055552
-0.007203741 -4.0094674e-05 -0.02805149 0.053808626 7.087874e-05 -3.0727693e-05 0.0081448695 0.007322372
-0.0056947754 -0.0375325 -0.00010320036 0.00050780654 -0.016880784 0.008120628 0.011381178 -0.008846366
-0.011111123 0.04517964 -0.043270774 0.02788065 0.0002384676 -0.0058365497 -0.006802858 0.005431858
-0.013005285 -2.8597722e-05 -0.00021936302 -0.022911498 0.0001598208 0.04548916 0.048214804 0.03679364
0.0073390556 -8.422073e-06 0.0011403704 0.012343386 -0.014688879 -0.0050585107 -0.00083764864 0.0023794796
0.007665584 -0.0036444808 0.008363406 -0.003705235 0.0007715143 -0.014953142 -0.0075253826 0.0032251787
-0.013558414 0.0013995431 0.0052994746 -0.029951697 0.003721225 -0.048347298 1.6590913e-05 0.0344787

convpool_layers.2.conv.bias f4 [128]
00000000: d593 a0b9 3880 8abc 4f7f 19bc ec4a 20bb
00000010: 9e5d bebb da95 cabb cdba adbc ba09 2bbc
00000020: de64 89bc 85e2 68bb cbd8 c5bc 650f 00bc
00000030: ea2c 5bbc c1c3 48bc aeb6 43bc 0000 0000
00000040: 14e8 e8bb 1966 cc3a b498 95b9 4132 52bc
00000050: 0000 0000 f3ba a0bc b4ee 51bb 5c10 92bc
00000060: 2314 2cbc 6a14 b1bb bae1 82bc 878f 15bc
00000070: 4c58 ffba 7170 873a dc6a 3cbc 0000 0000
00000080: 91dd b4bc ab3b 88bc f5d7 92bc 345b 62bc
00000090: 3445 9fbb 2b9a ccbb 6f4a d8bb 70a1 83bc
000000a0: d3d0 f33a bcfc 3bbb b847 84bc db4e 7ebc
000000b0: 0000 0000 0000 0000 0000 0000 1d1a c5b9
000000c0: f5ee 34bc 5fe5 69bb 5de6 5dbc 34a4 433d
000000d0: 5a71 58ba 5d3b 01bc fc5f 87bb 1671 4839
000000e0: e13e 8cbc d12a c7ba 947d 833d a6f8 d4ba
000000f0: 0000 0000 1282 1dba ca6f 81bb 2194 c6bc
00000100: e0c1 2dbc 09de 72bc 6650 09bb 0000 0000
00000110: 3205 f3bb 86c8 5db6 0000 0000 0000 0000
00000120: 8a3e b83a 7181 3cbb 29c0 37b8 e448 38bc
00000130: f45f bcbb 1d93 8eb8 5f0b b4bb 0077 11bc
00000140: 0000 0000 cf69 11bc c6e0 8fbc 2c53 e8bc
00000150: 5f14 97bc 347e 53bc cbf1 7dbc ca8e 7ebc
00000160: 2390 cfbc ef43 9bbc 86a3 84bc e696 62bc
00000170: ad34 66bc fc3b 3fbb 9d86 5abd 168a 6abc
00000180: 0000 0000 0ab8 be3a 6483 5b39 0278 d7b9
00000190: 0000 0000 f98e ddbb a61e 2abb 9b89 c0b9
000001a0: 159f 23bc 677d 2eb9 0dce 4ebc 0000 0000
000001b0: ebab 99bb 0000 0000 1eb1 bc38 ee07 91bc
000001c0: b0fe 84bb 0000 0000 e511 09bc b967 8bbc
000001d0: bca5 0bbc 8311 acba 70ca de3a 0dfd b3bb
000001e0: 0000 0000 404c 41bb 9062 c1bb 7553 0abc
000001f0: eaee 8abc 49d2 833b 0000 0000 8eba f33a
-0.00030627722 -0.016906843 -0.009368732 -0.002445872 -0.0058095 -0.0061824145 -0.021207238 -0.010439331
-0.01677173 -0.0035535407 -0.024151227 -0.00781617 -0.013377408 -0.012253703 -0.01194541 0.0
-0.007107744 0.0015594392 -0.00028533267 -0.012829364 0.0 -0.019620394 -0.0032033147 -0.017830066
-0.010502848 -0.005404045 -0.015976775 -0.009128458 -0.001948127 0.0010333193 -0.011500087 0.0
-0.022078307 -0.016630014 -0.017925242 -0.01381569 -0.0048605446 -0.006243964 -0.00660067 -0.01606819
0.0018601663 -0.0028684577 -0.01614748 -0.01552173 0.0 0.0 0.0 -0.00037594224
-0.0110433 -0.0035689694 -0.013543692 0.04776402 -0.0008256637 -0.007887688 -0.0041313153 0.00019115614
-0.017119827 -0.0015195255 0.064204365 -0.0016248419 0.0 -0.00060084567 -0.003950094 -0.024240555
-0.010605305 -0.014823445 -0.0020952462 0.0 -0.007416391 -3.3048286e-06 0.0 0.0
0.0014056724 -0.0028763677 -4.3809563e-05 -0.011247847 -0.005748743 -6.7984896e-05 -0.0054945196 -0.0088784695
0.0 -0.008875324 -0.017563235 -0.028359972 -0.01844233 -0.012908507 -0.0154995425 -0.015536973
-0.025337284 -0.018953292 -0.016191255 -0.013829922 -0.014050645 -0.002918004 -0.053351033 -0.014315149
0.0 0.0014550698 0.00020934414 -0.00041097408 0.0 -0.0067614284 -0.002595821 -0.00036723618
-0.009986659 -0.00016640649 -0.0126223685 0.0 -0.0046896837 0.0 8.997529e-05 -0.017703976
-0.0040586814 0.0 -0.008366083 -0.017017232 -0.008523401 -0.0013127777 0.0016997587 -0.0054928125
0.0 -0.0029494911 -0.005901642 -0.008442749 -0.016959626 0.0040228707 0.0 0.0018595026

lin1.weight f4 [128, 256]
00000000: 44e6 2f3d 9348 5abd 0c8f bbbc 7dec 7bbd
00000010: 2d0a 20bd 692d c13c d6f3 19bc 568b 08bd
00000020: 0cf2 85bd c556 713c 4348 9fbd 25d4 b43c
00000030: b451 51bd 146b 6cbd a9a7 d1bb 0c83 e33c
00000040: b25d 153c cbac 9a3c b165 2d3d e96d a9bc
00000050: 6c62 b5bc b6cd 71bc f6d1 c0bc d227 2abc
00000060: d631 55bb ab14 33bd 01b7 0cbd 5eb7 6abd
00000070: b0c2 1fbd 5155 81bb d348 1c3d 690f 613d
00000080: 85de cdbb ab79 a4bd 0245 79bb 0b61 53bd
00000090: ac8c 60bc 5c82 7abd 7b86 043d f4a3 c4bd
000000a0: 77fb 54bc 1efd 6ebc 71b6 57bd bae6 b8bb
000000b0: 6732 80bc d2ad 84bc 85d1 da3c 6cfa 89ba
000000c0: 52b0 68bb 1d23 fb3c b288 e6bc 68ee 2bbd
000000d0: aa70 60bd a76f 17bd a054 30bd c9de f8bb
000000e0: 4aed 01bc a52b 08bd 6eda 0d3c 3d4b c2bb
000000f0: 4adf 513b 799e 5dbc 4838 0a3d 16fe 83bc
00000100: bdf3 fcbc f1af 8bbd 2a90 26bd 7e34 59bc
00000110: 93b0 6dbd 06ee e3ba effd 12bd f4dc 2a3d
00000120: 95ef c23b c578 36bc 9545 8b3c 48d1 70bc
00000130: 6493 4dbd d5a8 d2bb 53e6 9ebd b0ca 9dbc
00000140: 11fe 64b9 2de5 b2bc 5b7f 3fbd cf05 593c
00000150: 37e7 9dbc e732 5abd 2cda f2bc 61bd 22bd
00000160: 5eda 9fbd d7ba bcbc 2661 e2bc 8006 b4bc
00000170: c98e a23c fde9 02bd 5b2f 8ebc eb7e ecbb
00000180: 1d79 1fbb cfd3 78bb 392e 093a 1b4a 8cba
00000190: 4a0a 4a3c 605c 3f3d d926 6a3d f59d abbb
000001a0: 0ddc 5abd b79a e13c efb3 97bd 7b8e 2f3c
000001b0: e869 56bc 99d6 9ebc bcf3 1dbd 0ca6 09bd
000001c0: 4b98 46bb 177f 853c ab2a 8abd f98b d5bc
000001d0: cd4a 4e3d 32f5 fe3c 68fe 72bd 59dd e83b
000001e0: ee2b 2ebc 8be0 1cbd 1ca4 b9bb ceb6 76bc
000001f0: 8060 823c e2df 5ebd e9a6 64bd ee5c 643c
00000200: dae9 543d 6cbe 903d 8600 bd3c 66ff 2bbd
00000210: d8f9 70bc b151 7a3d bf82 c93b 2a68 383d
00000220: 56c3 903d a2c1 31bd b4b3 f8bc eac8 19bd
00000230: d230 d4bb bcc1 003d f08e d03c b741 573c
00000240: 6f30 c8bc 7135 3ebd 9b8f c1bc 56e5 9b3b
00000250: dd4b 07bd a847 083b 465d 2c3d edcc 77bc
00000260: b50f a7bc 665f 17bd eec8 69bc 7090 583c
00000270: 9d66 12bd 12be a1bb 9481 023d a125 f6bc
00000280: e755 1a3c 1269 483c 76f8 2cbd 7032 2d3d
00000290: 1ecc 5e3d b893 d1bc d4ce 753d 2d30 40bc
000002a0: 9863 993c 4bbb 21bd 2b53 44bd fff4 163d
000002b0: 77a9 f8bc a0f1 9ebc bd44 9e3b b243 bdbb
000002c0: f649 67bc 2c7f 883d c34e 29bc 561e 8abc
000002d0: 80c9 17bd bf4d 5c3d 5d44 82bc 1209 7d3c
000002e0: 8aa8 e93b fdbd 233c 83d1 1a3c 6311 903d
000002f0: bcfe b23a dd08 0f3c e468 8e3d 1adc a9bc
00000300: 71c0 cebb 598a 833d 5d39 7d3d 1cbf 28bc
00000310: 6474 3abd 980e 40bc f7ce d83b 6282 163d
00000320: cefc 903d ca53 673d f9f4 c7bc a5ed 42bb
00000330: 1883 89bb dcc8 b63c 23ce 4a3d 5b66 b2bc
00000340: 847d 95ba 799a 943d ffb4 bc3c 845d 9ebc
00000350: ac8a 623d 967f 243c a7fe 2b3d ca81 87bc
00000360: e8f2 a13c cc14 feb8 a593 fa3c f012 b2bc
00000370: 14de 6e3d 2293 afbc df49 35bd 345b 9bbc
00000380: 0c43 deba f325 543a 6116 5339 dfb5 8ebb
00000390: b1eb c13c 349d b1bc ad0f 5c3d 7588 9dbc
000003a0: c4b1 e3bc e4f9 bb3c 3193 023d d945 03bd
000003b0: 5641 82bb 58a0 473d 578e 923d 23f4 2f3d
000003c0: 321c a13c 5bba 923c e222 1b3d aa94 643d
000003d0: 1bf6 1b3c cea2 583d e4c0 8d3d e9cc d1bb
000003e0: 81c4 d2bc 4660 d43c 5bd5 72bb b205 953b
000003f0: d2dd 29bd 0a2f 653c e14d 653d cffa a03a
0.042944208 -0.05329187 -0.022895359 -0.06150483 -0.039072204 0.023581224 -0.009396514 -0.033336006
-0.065403074 0.01473016 -0.07777455 0.022073815 -0.05110331 -0.057719305 -0.0063981605 0.027772449
0.009116577 0.018881222 0.04233331 -0.020682292 -0.022141658 -0.014758518 -0.023537617 -0.01038547
-0.0032530925 -0.043720882 -0.034354214 -0.05730378 -0.039004028 -0.003946938 0.038155388 0.054946337
-0.00628263 -0.08031019 -0.0038035517 -0.05160622 -0.013705414 -0.061159477 0.032354813 -0.09601584
-0.012999407 -0.014586715 -0.052664224 -0.005642739 -0.015649034 -0.016196165 0.026711235 -0.0010526902
-0.0035505486 0.030656392 -0.028141353 -0.04197541 -0.054794945 -0.036971714 -0.043049455 -0.0075949174
-0.007930109 -0.033244748 0.008658035 -0.0059293793 0.003202396 -0.013526552 0.03374508 -0.016112369
-0.030877942 -0.068206675 -0.04066483 -0.013257144 -0.058029722 -0.0017389662 -0.0358867 0.041714624
0.0059489706 -0.011137192 0.017000953 -0.014698334 -0.05018939 -0.0064288178 -0.077587746 -0.019261688
-0.00021838422 -0.021837795 -0.046752315 0.013246014 -0.01927529 -0.0532712 -0.029645048 -0.039731387
-0.07805322 -0.02303831 -0.027634215 -0.021975756 0.019843476 -0.03196143 -0.017356565 -0.0072172782
-0.0024333664 -0.0037968045 0.0005233023 -0.0010703237 0.012331555 0.046718955 0.057165954 -0.005237336
-0.053432513 0.027539594 -0.074073665 0.010715122 -0.013086773 -0.019389438 -0.03856252 -0.03360562
-0.0030303176 0.016295953 -0.067464195 -0.02606772 0.050364304 0.031122778 -0.059324652 0.007106465
-0.010630591 -0.03830008 -0.0056653153 -0.0150582325 0.015915155 -0.05441273 -0.05582324 0.013938172
0.05198083 0.0706757 0.023071539 -0.041991614 -0.014708005 0.061113063 0.0061496194 0.045021214
0.070685074 -0.043397553 -0.030359127 -0.037545122 -0.0064755464 0.03143476 0.025458783 0.013138226
-0.024437157 -0.046437684 -0.023628047 0.0047575636 -0.033031333 0.0020794664 0.04208114 -0.015124542
-0.020393232 -0.036956213 -0.014269097 0.01321803 -0.03574239 -0.004935988 0.031861857 -0.03004724
0.009419895 0.012232082 -0.04222914 0.04228443 0.05439388 -0.025583133 0.0600117 -0.011730236
0.018724248 -0.039485257 -0.047930878 0.03685474 -0.030354245 -0.019402325 0.0048299716 -0.005775892
-0.014116755 0.06664881 -0.01033372 -0.016860168 -0.0370574 0.053785082 -0.015901739 0.015444057
0.007130687 0.009994027 0.009449366 0.07034566 0.0013656239 0.0087301405 0.069536 -0.020734835
-0.006309562 0.06422872 0.061822284 -0.01029947 -0.045521155 -0.011722229 0.006616469 0.036745436
0.07079469 0.05647639 -0.024408804 -0.0029743698 -0.004196536 0.022312574 0.049512994 -0.021777323
-0.0011405204 0.07256026 0.023035524 -0.019331701 0.05530803 0.0100401845 0.041990902 -0.01654138
0.019769147 -0.000121155375 0.03058798 -0.021737546 0.05831726 -0.021432463 -0.044259902 -0.018964387
-0.0016957237 0.0008092813 0.00020130865 -0.004355177 0.023671957 -0.021681406 0.053725887 -0.019230107
-0.027794726 0.022946306 0.031878654 -0.032049034 -0.003975074 0.0487369 0.071560554 0.042957436
0.019666765 0.017911127 0.037875064 0.05580584 0.009519125 0.052889638 0.069215566 -0.006402601
-0.025728466 0.025924813 -0.003705344 0.004547798 -0.04147131 0.013988266 0.055982474 0.0012281778

lin1.bias f4 [128]
00000000: 1096 b0bc 5433 fcb8 f438 a03b f26b abba
00000010: 71ac 04bd e155 22bc 96fc 863a 0217 b6ba
00000020: 02f9 98b8 cadc 0c3b 2607 0cbb ed22 ebbb
00000030: 3977 843a e04e d939 be55 5e3a 2275 273d
00000040: 2a58 1dbb 0874 203d 99a8 b8bc b225 d53c
00000050: 1701 a63c b546 cbbc c82c b0bb 98cd 813d
00000060: 18ea 2eb9 85c9 1a3d 9b38 903c 3ff1 0e3d
00000070: 6e42 9abb 17ab 4f3c b353 f73c f6c1 d23c
00000080: 6ecb 9d3c a482 3d3b bb57 babc 51e3 763c
00000090: d56c 13bd 2fc2 34bd 66fb 3bba 9336 c239
000000a0: 4901 f3bc 3a44 523d 7607 28bc db78 89bb
000000b0: e490 8a39 f0bb 553d 7270 08bb 3a3b 043d
000000c0: 7343 56bc 4956 eabb 7e59 4d3d d083 de3c
000000d0: 71e2 94bb a78c 56b9 8049 8f34 515a 12bd
000000e0: d125 8f3d 9dec 1cbb dfe0 7c3c 941a 64bc
000000f0: 707f d73a 2500 143c 5d0f 1fba 5fc0 553d
00000100: 96e2 89bb 5e6c 49bb 6be8 9b3c dfe4 c6bb
00000110: f9ee 30ba 36cf b2bc e6f4 33bd 3d2c dd3b
00000120: 9092 89bc aa5e 0c3d 0744 48ba 16f2 4d39
00000130: 3443 26bd 7f8d ccbc 75c8 25bd 959c 07bd
00000140: cf17 5e3b 84af ed39 0633 45bd 4eb8 a336
00000150: b4fb c3b8 5132 703d 7055 583d 7627 bdbc
00000160: 1daa 6cb9 9e77 f43c 39a6 3abd 38cb e338
00000170: 4200 15b9 3b46 37ba fd12 22bb 10df d3ba
00000180: ace5 2db8 50be 88ba ca1f 883b def4 fcb9
00000190: 9607 db3c 06ba f03a 0056 b0b5 b6fc d3b9
000001a0: 147d 1ebb 2096 36bd 569c 54bd 5da0 32bb
000001b0: ec5d 273c 734a 383d 455b 2dba 5c8d 753b
000001c0: c2ba ebbb 5e2b cfb8 10f5 0e3d 0da0 83b9
000001d0: f252 bc3a d833 9f3b e9a0 983b af20 513c
000001e0: 679b d0ba 133f c6bc 18ba 0cbd be7e 2d3d
000001f0: eb8a 37b9 ac79 bdb8 24b1 2b3d 9655 cdbb
-0.02155593 -0.00012025857 0.004889602 -0.0013078435 -0.032391015 -0.00990817 0.0010298665 -0.0013892355
-7.294306e-05 0.0021493905 -0.0021366565 -0.0071757943 0.0010106332 0.00041448232 0.00084814045 0.04088319
-0.0024008849 0.039173156 -0.022541331 0.026018951 0.020264192 -0.02481399 -0.005376432 0.06338042
-0.0001668114 0.03778984 0.017605117 0.03489804 -0.004707626 0.012675068 0.030191278 0.025727253
0.019262042 0.002891698 -0.022746911 0.015068845 -0.035992462 -0.0441305 -0.0007170945 0.00037043224
-0.029663699 0.051334597 -0.010255685 -0.0041953153 0.00026429363 0.052181184 -0.0020818976 0.032283045
-0.013077605 -0.0071513993 0.050134175 0.027162462 -0.0045435955 -0.00020461027 2.6689304e-07 -0.035730664
0.06989635 -0.0023944743 0.015434473 -0.013922352 0.0016441178 0.009033238 -0.0006067658 0.052185412
-0.0042079194 -0.0030734758 0.019031724 -0.006069764 -0.0006749477 -0.021827321 -0.043934725 0.0067496584
-0.01679352 0.034269966 -0.00076395314 0.00019640508 -0.040591434 -0.024969814 -0.040474374 -0.033108313
0.0033888703 0.00045334932 -0.048144363 4.8792344e-06 -9.345208e-05 0.058641735 0.052815855 -0.023090106
-0.00022570086 0.029842194 -0.04556868 0.00010862056 -0.00014209843 -0.0006991361 -0.0024730556 -0.00161645
-4.1460313e-05 -0.0010432694 0.00415418 -0.00048247626 0.026737016 0.0018365986 -1.3138051e-06 -0.0004043334
-0.002418344 -0.044576764 -0.051906906 -0.0027256228 0.010215264 0.044992875 -0.00066130265 0.003746829
-0.007193894 -9.878607e-05 0.03490168 -0.00025105514 0.0014367981 0.004858475 0.004657854 0.01276414
-0.0015915454 -0.024199998 -0.03435716 0.0423572 -0.00017503991 -9.0348854e-05 0.04191698 -0.006266306
