models/Original/best_model_3conv2pool_epoch30.pth (torch, 305826 bytes, 14 tensors)

convpool_layers.0.conv.weight f4 [1, 128]
-0.16999057 -0.013941176 -0.14089492 0.033684086 -0.056209862 -0.15498461 0.06705251 0.11802282
0.03357559 0.00010239233 -0.12164279 0.06312287 -0.0034724586 0.05508037 0.084923156 -0.03190528
0.17066742 -0.19974595 0.0007459569 -0.023183508 0.023551643 0.025777107 0.12316069 0.15749413
0.14758277 -0.033274338 -0.116187476 0.16028605 -0.09894566 -0.06355641 0.08163222 0.11371414
-0.15865383 -0.02082736 -0.01710248 0.21031933 -0.1523371 0.044576965 0.1106741 -0.00913321
-0.004790506 -0.0024904425 -0.05111574 0.09989011 0.06162699 -0.18292749 -0.1225834 -0.0017853292
0.017496165 0.10129216 0.028003447 0.15219396 -0.0040657283 0.2076188 0.20951252 0.20707496
-0.08763032 -0.00085898314 -0.058290154 0.045013644 0.1682338 -0.043285877 -0.032573916 -0.075302556
0.093664154 0.21658163 -0.103458084 -0.011193836 -0.07608802 -0.07634057 -0.118105575 0.21624568
-0.17266876 -0.14461415 0.13844639 0.0022415994 -0.15595974 0.05054483 0.09022506 -0.14728737
-0.17414407 0.2051752 -0.12084395 0.1267562 0.18597876 0.09620107 -0.08360386 -0.008188345
-0.0039523 -0.01860859 -0.11988348 -0.008768476 -0.16486019 -0.1953897 -0.00034405582 0.10748681
0.18356454 -0.1117716 -0.15851943 0.16010533 -0.07781303 -0.05440609 0.19886741 0.14847624
0.12878947 -0.13731267 -0.00895472 -0.08733511 0.1867238 -0.115193866 -0.053257067 0.15842682
0.04709559 0.11876179 0.1956144 -0.0050281053 0.20560424 0.14269227 0.19913273 -0.01602288
-0.10210106 -0.107367694 0.12307075 -0.0106661515 0.14333108 -0.044151504 0.2093521 0.21875264
00000000: 0212 2ebe 8869 64bc c246 10be 53f8 093d
00000010: 503c 66bd 49b4 1ebe d452 893d f3b5 f13d
00000020: 8f86 093d 77bb d638 db1f f9bd 9046 813d
00000030: 3092 63bb f49b 613d 31ec ad3d 1caf 02bd
00000040: 71c3 2e3e 348a 4cbe 528c 433a 57eb bdbc
00000050: 60ef c03c 832a d33c ac3b fc3d 2446 213e
00000060: f01f 173e ac4a 08bd b3f3 edbd 0722 243e
00000070: 06a4 cabd dd29 82bd cb2e a73d f6e2 e83d
00000080: 2676 22be 249e aabc 801a 8cbc f35d 573e
00000090: 42fe 1bbe 5696 363d 1aa9 e23d 76a3 15bc
000000a0: adf9 9cbb b136 23bb bd5e 51bd 3093 cc3d
000000b0: 956c 7c3d 5851 3bbe 010d fbbd b501 eaba
000000c0: 1e54 8f3c 4472 cf3d 7c67 e53c bcd8 1b3e
000000d0: cd39 85bb 069a 543e 738a 563e 750b 543e
000000e0: 8677 b3bd 622d 61ba a8c1 6ebd 3a60 383d
000000f0: 7b45 2c3e 884c 31bd 3a6c 05bd 3a38 9abd
00000100: fed2 bf3d 93c7 5d3e d5e1 d3bd 5a66 37bc
00000110: 09d4 9bbd 7258 9cbd 56e1 f1bd 826f 5d3e
00000120: 14d0 30be bb15 14be e4c4 0d3e cce7 123b
00000130: e9b3 1fbe 1808 4f3d ebc7 b83d 80d2 16be
00000140: d352 32be 7319 523e 087d f7bd 61cc 013e
00000150: 3771 3e3e 1105 c53d 8038 abbd 6828 06bc
00000160: 4c82 81bb 0b71 98bc 7885 f5bd a7a9 0fbc
00000170: 1cd1 28be 3d14 48be 6462 b4b9 0b22 dc3d
00000180: 58f8 3b3e 82e8 e4bd eb52 22be a7f2 233e
00000190: 705c 9fbd ecd8 5ebd e6a3 4b3e 280a 183e
000001a0: 63e1 033e b19b 0cbe d1b6 12bc c0dc b2bd
000001b0: 8634 3f3e c3ea ebbd 1524 5abd a43a 223e
000001c0: 4ee7 403d 6239 f33d 244f 483e cec2 a4bb
000001d0: eb89 523e ec1d 123e 73e9 4b3e 6a42 83bc
000001e0: 5c1a d1bd 98e3 dbbd 840c fc3d 15c1 2ebc
000001f0: 62c5 123e 35d8 34bd 6660 563e b100 603e

convpool_layers.0.conv.bias f4 [128]
-0.0017661708 -0.0032101911 -0.010193137 0.028678404 0.011116853 -0.00654677 0.013937262 0.032609224
0.0043194373 -0.026510341 0.0071548834 0.033430245 -0.0038058984 0.003910522 -0.020175735 0.0015408702
-0.004228286 0.014174392 0.009643118 -0.0035072265 -0.029893674 0.016100876 0.018104402 0.0038312268
-0.012596678 0.0154174855 1.0400596e-05 -0.010371158 0.004400221 0.0059360284 0.016882172 0.03629643
0.0024278902 -0.0040697725 0.0015706829 -0.005394596 0.007230345 0.011288465 0.035376243 0.002963135
-0.0038321256 0.00033043145 -0.0052993367 -0.007078597 0.001617321 0.012219412 0.0027332192 -0.005609648
0.00096567575 0.018334078 -0.0036756173 0.023561817 -0.008377404 0.008611215 0.006983049 0.01646162
-0.0010088308 -0.012371833 0.009007366 0.0037653241 0.025327565 0.00022656485 -0.008739449 0.006507013
0.0111103095 0.00078965403 -0.0029540188 -0.016121542 0.0061797868 0.0047810497 0.005214994 -0.00068855967
0.013571453 0.01663162 -0.00060867914 -0.015657349 0.012965304 0.028271511 0.012607939 0.0069047613
0.02127141 0.03704262 0.016885238 0.011535852 -0.0042650746 -0.0033520027 0.0036668244 0.002838458
-0.0030966299 -0.007437548 0.0064215623 -0.0046535544 0.010870304 0.018162316 0.008105567 0.025360312
0.0030862845 0.0120757595 0.016485257 0.034225125 0.0041939495 -0.002844682 0.00061188656 0.0348027
0.02607015 0.011471128 0.0023707317 0.005568075 0.018159313 0.0045280857 -0.0074210805 0.024587557
-0.04009451 0.012369409 0.014958194 -0.002243024 0.016595606 0.023403283 0.029077156 -0.010737346
-0.010211178 0.0092782965 -0.00043844362 -0.0035269223 -0.008277922 0.00048077753 0.027270604 0.018401321
00000000: dc7e e7ba 1262 52bb 1e01 27bc f9ee ea3c
00000010: 7623 363c 4a86 d6bb 1d59 643c 4091 053d
00000020: 118a 8d3b 372c d9bc 8373 ea3b 27ee 083d
00000030: 616c 79bb d623 803b 9547 a5bc 06f7 c93a
00000040: 6f8d 8abb b63b 683c 2bfe 1d3c 7fd9 65bb
00000050: 94e3 f4bc fce5 833c af4f 943c 5215 7b3b
00000060: 4c62 4ebc 9f99 7c3c 387e 2e37 caeb 29bc
00000070: bb2f 903b 0483 c23b 7b4c 8a3c 91ab 143d
00000080: 3d1d 1f3b ba5b 85bb 5fdf cd3a 27c5 b0bb
00000090: 88ec ec3b 41f3 383c aee6 103d 2831 423b
000000a0: 6624 7bbb c23d ad39 0fa6 adbb 93f3 e7bb
000000b0: 4afc d33a ee33 483c cf1f 333b 23d1 b7bb
000000c0: 6725 7d3a 5931 963c a0e2 70bb b604 c13c
000000d0: 6141 09bc 0e16 0d3c 10d2 e43b 85da 863c
000000e0: bf3a 84ba 3bb3 4abc a293 133c a8c3 763b
000000f0: c17b cf3c 0a92 6d39 e82f 0fbc c838 d53b
00000100: 0408 363c c900 4f3a 3698 41bb 5311 84bc
00000110: cf7f ca3b 5aaa 9c3b 8ae2 aa3b 7580 34ba
00000120: cd5a 5e3c 093f 883c c48f 1fba d743 80bc
00000130: 6d6c 543c a899 e73c 8791 4e3c 5641 e23b
00000140: 6141 ae3c 01ba 173d e952 8a3c df00 3d3c
00000150: 0ac2 8bbb 46ad 5bbb 1b4f 703b 6c05 3a3b
00000160: d4f0 4abb adb6 f3bb f86b d23b d87c 98bb
00000170: 5c19 323c 23c9 943c 36cd 043c 6ec0 cf3c
00000180: 4343 4a3b 68d9 453c 170c 873c a52f 0c3d
00000190: 666d 893b d86d 3abb 0367 203a 478d 0e3d
000001a0: 1191 d53c 66f1 3b3c 475e 1b3b 6674 b63b
000001b0: d7c2 943c 5660 943b 892c f3bb d86b c93c
000001c0: 243a 24bd 10a9 4a3c 3713 753c b3ff 12bb
000001d0: 82f3 873c 3eb8 bf3c 3733 ee3c b1eb 2fbc
000001e0: c94c 27bc ff03 183c e8de e5b9 f023 67bb
000001f0: 1fa0 07bc de10 fc39 9a66 df3c 5ebe 963c

convpool_layers.0.pool.att f4 [1, 256]
-0.02593511 -0.0035958816 -0.055738784 0.0059228768 -0.012032196 -0.06846556 -0.0060358616 -0.017487649
-0.07848221 -0.008293325 -0.021763708 -0.012366352 0.0067340643 0.07474693 -0.10044251 -0.0073794997
-0.0052834735 -0.072665304 -0.0038410297 -0.008311774 -0.034193333 -0.050376568 0.026876543 0.014868151
-0.07033563 -0.0072367433 0.0039252853 -0.07495239 0.017328585 -0.014145968 0.067393005 0.00198636
-0.034372326 -0.029347071 -0.0037512893 -0.07476338 -0.0327807 0.03887178 -0.00073101476 -0.0020441243
0.043758124 1.04776445e-05 -0.01312846 0.07481907 0.06984645 -0.0026345316 -0.03233804 -0.0004823288
-0.015566138 -0.013994571 0.046840552 -0.025707973 -0.0010484252 0.045986477 0.032213826 -0.06332502
-0.022254974 0.0031675778 -0.012506017 -0.21935494 -0.013926925 -0.011527451 -0.008233216 -0.015875017
0.06270151 0.11880784 -0.037980717 -0.0028196292 -0.015718145 -0.014663754 -0.017374594 -0.028741883
0.016445441 -0.017954197 -0.10923243 -0.00626574 -0.02512309 0.014260071 -0.16488704 -0.048523977
-0.06333679 0.0031958027 -0.05154047 0.019103428 -0.02486545 -0.083315164 -0.028598968 -0.0027849465
-0.017140368 -0.005905014 -0.021153998 -0.0026559634 -0.025025355 -0.027042117 -0.00020487542 -0.10578739
-0.03357009 -0.019161858 -0.024398481 0.016753998 -0.06377147 0.07273136 -0.093221344 -0.04932053
-0.15033792 -0.022902144 -0.0024307175 -0.007898454 0.092243835 -0.029553214 -0.0120908655 -0.058751598
0.051249884 -0.025208138 0.05750892 -0.00037209547 -0.10358184 -0.097600445 0.0073420056 -0.0042507024
-0.023089511 -0.02105101 0.04480704 -0.047855563 -0.009122053 -0.067257546 0.013131885 -0.018379556
0.024645774 0.007062489 -8.411105e-06 0.048471455 -0.005521981 -2.0608695e-06 -4.116681e-06 0.050914023
-0.03452073 1.2190288e-06 1.1119558e-05 0.0010059285 6.6185035e-05 1.4400439e-05 -2.1172284e-06 0.018860964
2.9976459e-06 -0.006602665 0.0022773945 -0.0017095455 -0.006548301 0.05136884 -0.0062034247 0.0009913163
-2.0134878e-06 8.098936e-05 0.08919852 3.0359468e-05 -2.4007948e-06 -3.8836573e-05 -1.8152332e-05 -1.3984256e-06
-1.4310809e-05 2.0760655e-05 5.3501142e-05 -0.13163699 -9.280294e-06 -0.012568073 -3.1828953e-05 -0.018120013
7.5390394e-06 0.028909253 -0.0033536647 2.644857e-06 0.000103602244 0.007997228 -1.0993565e-05 0.00070232985
2.218294e-07 0.008505105 5.0114554e-06 -2.4672922e-06 0.0008426281 -9.4777015e-06 0.005566502 -0.07127041
1.6009324e-07 0.00011284875 -3.776373e-05 0.000113488946 6.113725e-05 -6.986531e-06 -0.058843505 -0.004437451
-0.0019685996 3.0677172e-06 -1.3778337e-05 -0.00353164 -0.014796961 -3.2549993e-05 -1.1067144e-05 -5.105823e-06
4.6969676e-06 2.1066353e-05 0.00010985001 -0.009591909 -2.44866e-06 2.2158404e-06 -0.100266755 1.5637625e-07
0.03172867 0.00010740893 -8.425084e-06 0.00010878837 -0.03150614 -0.0068468587 -1.2744989e-05 4.693955e-07
-2.606006e-06 3.8977703e-08 -1.6482438e-05 7.3544334e-07 -0.03781117 8.243055e-06 0.022398002 0.07418853
1.2058347e-05 -0.009050679 -1.3411028e-06 -0.00010480608 9.982217e-05 4.0101182e-05 0.0003145874 -1.0381949e-05
-2.4609865e-06 -0.023389788 -1.2364109e-06 0.016226834 -7.678773e-08 1.9635374e-06 0.0644585 4.296114e-06
-3.121746e-06 6.4242445e-06 -0.0024836727 0.00085214997 3.319982e-05 -2.835308e-06 -0.006101141 -2.1158037e-05
8.790751e-06 -2.0575584e-05 3.9438422e-05 0.00022893454 -0.047106087 7.701075e-05 -2.5285917e-06 2.89813e-06
00000000: de75 d4bc e2a8 6bbb 5a4e 64bd b114 c23b
00000010: b022 45bc ac37 8cbd 7ac8 c5bb 4242 8fbc
00000020: 48bb a0bd bae0 07bc ce49 b2bc 3d9c 4abc
00000030: 6da9 dc3b eb14 993d cdb4 cdbd bbcf f1bb
00000040: fd20 adbb 8cd1 94bd c9b9 7bbb 1b2e 08bc
00000050: 4f0e 0cbd a957 4ebd 322c dc3c 8c99 733c
00000060: 200c 90bd 3422 edbb ae9f 803b a380 99bd
00000070: adf4 8d3c 7dc4 67bc 5805 8a3d 972d 023b
00000080: ffc9 0cbd 4569 f0bc 31d8 75bb 8b1d 99bd
00000090: 0e45 06bd 0438 1f3d 92a1 3fba b7f6 05bb
000000a0: b83b 333d 24c9 2f37 c118 57bc be3a 993d
000000b0: a80b 8f3d 1ba8 2cbb e574 04bd 13e1 fcb9
000000c0: 1d09 7fbc 7c49 65bc e1db 3f3d 8799 d2bc
000000d0: 506b 89ba 515c 3c3d a5f2 033d 8cb0 81bd
000000e0: 1050 b6bc 2397 4f3b 0ae6 4cbc 959e 60be
000000f0: c22d 64bc a2dd 3cbc 9ce4 06bc 530c 82bc
00000100: a669 803d 8651 f33d ab91 1bbd 87c9 38bb
00000110: 57c3 80bc 3e40 70bc 2a55 8ebc 1974 ebbc
00000120: 97b8 863c ae14 93bc 41b5 dfbd d650 cdbb
00000130: f0ce cdbc 13a3 693c 26d8 28be 14c1 46bd
00000140: b8b6 81bd ac70 513b 1a1c 53bd cb7e 9c3c
00000150: a1b2 cbbc 24a1 aabd 6248 eabc a683 36bb
00000160: f569 8cbc d97e c1bb 264b adbc ac0f 2ebb
00000170: f901 cdbc 6e87 ddbc d4d3 56b9 0fa7 d8bd
00000180: ca80 09bd 54f9 9cbc 53df c7bc ae3f 893c
00000190: 9e9a 82bd 2ef4 943d d5ea bebd 5304 4abd
000001a0: 2ff2 19be 479d bbbc ac4c 1fbb 8468 01bc
000001b0: 56ea bc3d 9519 f2bc c418 46bc 84a5 70bd
000001c0: 66eb 513d 4c81 cebc 798e 6b3d cf15 c3b9
000001d0: b722 d4bd bee2 c7bd 3595 f03b 7a49 8bbb
000001e0: 3726 bdbc 2b73 acbc 9687 373d 3204 44bd
000001f0: aa74 15bc 53be 89bd 1e27 573c b990 96bc
00000200: efe5 c93c 746c e73b 6c1d 0db7 018a 463d
00000210: bcf1 b4bb 784d 0ab6 0522 8ab6 398b 503d
00000220: 9c65 0dbd 839d a335 238e 3a37 5cd9 833a
00000230: d2cc 8a38 6a99 7137 b515 0eb6 4f82 9a3c
00000240: 2a2b 4936 2b5b d8bb 5740 153b d412 e0ba
00000250: 2193 d6bb 2268 523d 1946 cbbb 0eef 813a
00000260: 751f 07b6 d5d8 a938 b7ad b63d 76ac fe37
00000270: 571d 21b6 74e4 22b8 d645 98b7 8ab1 bbb5
00000280: 7518 70b7 2b27 ae37 6a66 6038 d9cb 06be
00000290: 8fb2 1bb7 52ea 4dbc 1480 05b8 6c70 94bc
000002a0: dbf7 fc36 19d3 ec3c 28c9 5bbb 4c7e 3136
000002b0: 0845 d938 ce06 033c 0171 38b7 8f1c 383a
000002c0: 0030 6e34 ff58 0b3c 1328 a836 c293 25b6
000002d0: d1e3 5c3a 6b02 1fb7 3467 b63b 39f6 91bd
000002e0: 18e6 2b34 36a9 ec38 7f64 1eb8 ea00 ee38
000002f0: d036 8038 d86d eab6 e305 71bd 0968 91bb
00000300: 9f03 01bb fbde 4d36 8229 67b7 1673 67bb
00000310: f46e 72bc 4a86 08b8 06ad 39b7 b052 abb6
00000320: a59a 9d36 a6b7 b037 465f e638 6227 1dbc
00000330: a953 24b6 d9b3 1436 a858 cdbd 60e8 2734
00000340: ecf5 013d bb40 e138 7659 0db7 5025 e438
00000350: 950c 01bd 9d5b e0bb 50d3 55b7 3a01 fc34
00000360: d8e2 2eb6 7068 2733 c443 8ab7 486b 4535
00000370: e3df 1abd a74b 0a37 047c b73c 28f0 973d
00000380: 354e 4a37 4d49 14bc f1ff b3b5 56cb dbb8
00000390: 9f57 d138 5132 2838 35ef a439 222e 2eb7
000003a0: 6d27 25b6 f19b bfbc c1f2 a5b5 23ee 843c
000003b0: 80e6 a4b3 51c5 0336 d102 843d 5727 9036
000003c0: 307f 51b6 d78f d736 1dc5 22bb d162 5f3a
000003d0: 0940 0b38 3846 3eb6 15ec c7bb 8a7c b1b7
000003e0: fd7b 1337 bb99 acb7 af6a 2538 260e 7039
000003f0: 50f2 40bd d580 a138 e0b0 29b6 7f7d 4236

convpool_layers.1.conv.weight f4 [128, 128]
0.017363785 0.006914327 -0.03547542 -0.00013680519 4.3315376e-06 0.027623441 -0.0052548493 0.033663124
-0.0074838866 -0.0020689536 -0.021322118 4.80196e-06 -1.1340708e-05 -0.019732345 0.0066984515 -0.008520246
-0.005957229 0.009146181 9.830037e-06 0.00010255735 0.00054037105 8.820025e-06 -0.0073336344 0.043262336
-0.0006900797 0.0035544997 0.0008995178 0.008326344 -0.0114579 -0.013833132 0.0016911407 0.01473489
0.0008305699 0.00083116355 0.002571072 -0.0059148534 7.5342377e-06 0.012854122 -0.016718503 -1.1652184e-05
-0.02271407 1.3111717e-05 0.00058507646 -0.020051884 -0.01725575 0.0015234132 0.004907654 0.011058956
0.001665112 0.015548443 -0.0015738609 -0.0002814603 -0.00011814463 0.00051485095 0.00053250574 -1.1553676e-06
0.020986045 0.0009784746 0.031944018 0.00069046614 0.0009397896 0.008687628 0.0003426215 2.1056503e-05
-2.0123627e-05 0.0008361141 0.01634006 0.0045190305 -0.0031803937 -0.030487606 0.00058242056 0.0011484952
0.0061088884 -0.03805397 0.00010322425 -0.007042774 -0.030083517 0.00052329875 -0.000110559806 0.020291882
-0.006589638 -0.016575968 -0.021673443 -0.01936355 -0.03221645 0.007566542 0.008740053 0.00028286217
0.03533118 0.016363015 0.00080169254 0.024312472 -0.014339064 -7.5106623e-06 -0.035756603 -0.0011354943
0.010355588 1.9873812e-06 -0.03778471 0.00021766368 0.018819226 0.0003557479 0.03631956 4.1628497e-05
0.0003367116 -0.0019364161 -3.101933e-06 -0.0030634599 -0.00013218561 0.00020880136 0.0064457147 -0.00017705356
-0.009621696 0.00048767665 0.005395702 0.003608497 0.00097368844 -0.029985026 0.0061460063 9.899777e-05
0.00088587735 0.020423565 -3.809608e-05 0.031011065 0.0030200765 -3.7171456e-05 0.0095586395 -0.0033428802
0.0011477303 6.090895e-05 0.02159856 2.4975428e-05 -9.633814e-06 -0.026354218 0.038787264 1.3941111e-05
-0.031822182 0.0061496915 -0.0021838227 0.0002331055 0.000786401 0.0006666383 -0.002033392 -0.017617464
-0.016707066 -2.503852e-07 -0.023316575 -0.0037328987 0.0026345905 -0.00023699613 -0.00431911 -0.001078532
1.4071318e-05 -0.011449278 -0.0013631206 0.0146037 -6.186001e-07 1.5665737e-05 -8.1434766e-05 3.119741e-05
-0.0005467381 -3.3910004e-05 1.7885566e-06 -7.776322e-06 4.859226e-06 2.9206371e-06 0.024062421 2.020107e-06
2.7037742e-05 -5.8793457e-06 -0.017704012 0.017412504 -0.021288736 0.0015484039 1.1085107e-05 -0.00722753
-0.00096829067 2.0070225e-05 -6.775805e-05 -0.011131079 0.0032163337 -5.5424185e-05 -0.0003551445 0.006489749
-3.827873e-06 0.038273294 1.6059845e-05 0.022981275 0.00013664538 -0.02701303 -2.8800765e-05 0.026123438
1.451684e-06 -4.503608e-05 0.0016628918 -0.016408497 5.865601e-05 0.0035427585 -3.8334234e-05 0.00080227264
-0.031185959 0.0024395024 -0.008742763 8.123859e-06 0.036698185 5.7913792e-05 0.0004419969 0.0013204796
-6.851429e-06 -0.00020486332 -0.001121499 0.012049561 0.027402595 -1.0397878e-07 4.370037e-05 -7.897694e-06
5.204978e-06 7.0129485e-05 0.00016004573 9.729148e-05 -0.02984472 -0.0025849594 -1.8255872e-05 1.7166053e-06
-0.008279824 2.5818996e-05 0.004164397 0.02708883 -0.019484159 0.00013070379 0.00017408402 0.00010950895
-2.7001703e-05 -1.97126e-05 -1.2754726e-06 0.0045686495 -5.900361e-05 1.9779232e-05 2.051624e-05 -0.0029473891
0.0010814036 -6.96761e-05 -5.7424677e-05 -0.0024538778 8.611033e-05 -0.013170479 -0.0054011745 0.03464735
0.00022569773 -9.56805e-08 0.0006106527 -0.030008942 9.27545e-05 -8.827103e-05 -3.1797733e-06 -6.895267e-05
00000000: 7f3e 8e3c 9491 e23b ad4e 11bd 5d73 0fb9
00000010: a057 9136 8e4a e23c df30 acbb 58e2 093d
00000020: 643b f5bb 4897 07bb b9ab aebc 8620 a136
00000030: f843 3eb7 baa5 a1bc af7e db3b 8098 0bbc
00000040: dc34 c3bb ddd9 153c b0eb 2437 0f14 d738
00000050: b0a7 0d3a b8f9 1337 fc4e f0bb d933 313d
00000060: 77e6 34ba 9cf2 683b 9ecd 6b3a 386b 083c
00000070: eab9 3bbc 5ca4 62bc 44a9 dd3a 9c6a 713c
00000080: 9aba 593a 71e2 593a 6e7f 283b 63d1 c1bb
00000090: 9cce fc36 189a 523c 3ef5 88bc c07d 43b7
000000a0: db12 babc 65fa 5b37 d15f 193a d943 a4bc
000000b0: ee5b 8dbc 44ad c73a 63d0 a03b a030 353c
000000c0: e33f da3a e6be 7e3c 024a ceba f690 93b9
000000d0: 6ac4 f7b8 10f7 063a db97 0b3a 2112 9bb5
000000e0: edea ab3c 2940 803a bbd7 023d 6600 353a
000000f0: 365c 763a 8e56 0e3c e1a1 b339 7fa2 b037
00000100: 29cf a8b7 ab2e 5b3a 97db 853c 6014 943b
00000110: 276e 50bb 25c1 f9bc 95ad 183a 1b89 963a
00000120: 122d c83b 7bde 1bbd 197a d838 12c7 e6bb
00000130: b571 f6bc fc2d 093a 58dc e7b8 293b a63c
00000140: e4ed d7bb 53ca 87bc 818c b1bc 4fa0 9ebc
00000150: 65f5 03bd c1f0 f73b 7032 0f3c 1e4d 9439
00000160: 6db7 103d bb0b 863c ad28 523a f32a c73c
00000170: 65ee 6abc 1904 fcb6 8475 12bd ded4 94ba
00000180: 7caa 293c f35e 0536 24c4 1abd a63c 6439
00000190: c72a 9a3c ad83 ba39 d2c3 143d 429a 2e38
000001a0: aa88 b039 58cf fdba ce2a 50b6 54c4 48bb
000001b0: 4e9b 0ab9 b0f1 5a39 9336 d33b 74a7 39b9
000001c0: 51a4 1dbc daae ff39 6ece b03b 897c 6c3b
000001d0: 203f 7f3a 28a3 f5bc 7064 c93b 069d cf38
000001e0: 393a 683a 524f a73c 5bc9 1fb8 eb0a fe3c
000001f0: 7aec 453b 8ce8 1bb8 d79b 1c3c 3914 5bbb
00000200: 706f 963a 7d78 7f38 77ef b03c 5382 d137
00000210: eba0 21b7 cde4 d7bc 65df 1e3d 9ee4 6937
00000220: fa57 02bd 5a83 c93b 771e 0fbb c86d 7439
00000230: 7a26 4e3a 57c1 2e3a a842 05bb 8052 90bc
00000240: 42dd 88bc ae6c 86b4 6702 bfbc a6a3 74bb
00000250: 18a9 2c3b 2a82 78b9 5287 8dbb 875d 8dba
00000260: da13 6c37 c195 3bbc bdaa b2ba 5b44 6f3c
00000270: e00d 26b5 ea69 8337 f5c7 aab8 f7d9 0238
00000280: f952 0fba 973a 0eb8 560e f035 0c77 02b7
00000290: 6f0c a336 2a00 4436 8e1e c53c 2d91 0736
000002a0: 1ccf e237 3247 c5b6 0108 91bc aba4 8e3c
000002b0: b765 aebc d0f3 ca3a 2cfa 3937 ead4 ecbb
000002c0: e3d4 7dba 7b5c a837 5319 8eb8 215f 36bc
000002d0: 20c9 523b 4477 68b8 b032 bab9 f6a7 d43b
000002e0: 2e71 80b6 75c4 1c3d 41b8 8637 3a43 bc3c
000002f0: 7748 0f39 6e4a ddbc 2c99 f1b7 d200 d63c
00000300: 7cd7 c235 1fe5 3cb8 64f5 d93a 1d6b 86bc
00000310: 6905 7638 a02d 683b 12c9 20b8 9b4f 523a
00000320: b279 ffbc 0fe0 1f3b ce3d 0fbc b54b 0837
00000330: d650 163d 76e8 7238 d2bb e739 f113 ad3a
00000340: 54e5 e5b6 94d0 56b9 43ff 92ba 866b 453c
00000350: 687b e03c f04a dfb3 ea4a 3738 5680 04b7
00000360: 6ca6 ae36 7b12 9338 f3d1 2739 f708 cc38
00000370: ea7c f4bc 6c68 29bb 3024 99b7 1c66 e635
00000380: 19a8 07bc df95 d837 7e75 883b 65e9 dd3c
00000390: 3e9d 9fbc 880d 0939 538a 3639 2ba8 e538
000003a0: b781 e2b7 7c5c a5b7 e830 abb5 9cb4 953b
000003b0: a57a 77b8 94eb a537 4a1a ac37 fc28 41bb
000003c0: e2bd 8d3a 121f 92b8 47db 70b8 3dd1 20bb
000003d0: 2296 b438 fec8 57bc 56fc b0bb 61ea 0d3d
000003e0: 46a9 6c39 e978 cdb3 3614 203a 50d5 f5bc
000003f0: 3185 c238 261e b9b8 1764 55b6 af9a 90b8

convpool_layers.1.conv.bias f4 [128]
-0.0012966027 0.002564227 0.020246059 0.018400086 0.0 0.019735448 -0.002581402 1.2159431e-05
0.0 0.0 0.0 -6.1783053e-06 0.00020380106 -0.0014006238 -0.015056914 -0.0009873323
0.009851693 0.0 6.446767e-07 9.8001976e-05 0.016614858 0.0 -0.0041851667 -0.007946968
-0.007436407 0.0021389574 0.0055178497 -0.0021817763 -2.390955e-05 -0.004528242 0.019290619 0.027659437
-0.0063753687 0.0044520097 0.0 0.0 0.0 1.0356139e-05 -0.008578428 -0.0051685236
-0.0037757934 -0.0036984335 0.015503865 0.010080094 0.02414712 -0.0060647586 -1.4371049e-05 0.023960585
-3.1253283e-05 0.021806756 -0.002656839 0.0 -2.8871204e-06 -0.01839078 0.00045177306 -0.0005884562
-0.0026152136 0.019492127 -0.005622786 -0.00886306 0.031381845 -0.010328329 -0.0009530633 -0.0031072465
0.0 -0.005363174 0.01718839 0.014038566 -0.009827835 0.0 -0.0007033634 0.008886114
-1.0092015e-05 2.6574253e-05 0.0 -0.0029264663 -0.0012819913 0.021313788 0.020262895 0.019659266
-0.012516326 0.00472236 0.0 0.0 -0.0036040966 -0.016806653 0.0 0.0
-0.0063267723 0.027599324 -0.013101905 -0.00704023 0.0 -0.024914935 1.7127526e-06 0.038797107
0.0 0.0 0.0 0.0037198453 -2.624224e-05 0.006737511 -0.0157692 -0.007278868
0.0018298422 -9.233778e-06 0.0 -0.007391948 -0.0009954199 0.008928768 0.015223106 0.020227239
-0.0022895746 0.021165712 0.016248588 -0.012640926 -7.937564e-06 0.0 0.00512801 -0.02285562
0.0022149822 -1.2781011e-05 0.0 0.0 0.013869207 -0.009565331 3.2220094e-05 0.00010135328
00000000: c4f2 a9ba 970c 283b 10db a53c c7bb 963c
00000010: 0000 0000 3cac a13c bd2c 29bb 5c00 4c37
00000020: 0000 0000 0000 0000 0000 0000 3d4f cfb6
00000030: 6eb3 5539 2395 b7ba 46b1 76bc 6069 81ba
00000040: ff68 213c 0000 0000 d80d 2d35 6986 cd38
00000050: e21b 883c 0000 0000 b923 89bb 0034 02bc
00000060: 1aad f3bb c02d 0c3b 14cf b43b 22fc 0ebb
00000070: 5e91 c8b7 a661 94bb 5c07 9e3c 0b96 e23c
00000080: 78e8 d0bb 2ae2 913b 0000 0000 0000 0000
00000090: 0000 0000 47bf 2d37 898c 0cbc b85c a9bb
000000a0: 4d73 77bb 6b61 72bb ec03 7e3c fb26 253c
000000b0: 2ed0 c53c e2ba c6bb 2f1b 71b7 fd48 c43c
000000c0: f515 03b8 15a4 b23c 5d1e 2ebb 0000 0000
000000d0: 5ac0 41b6 43a8 96bc f4db ec39 a142 1aba
000000e0: 0164 2bbb f4ad 9f3c 593f b8bb 5e36 11bc
000000f0: 408a 003d 2738 29bc ffd6 79ba f2a2 4bbb
00000100: 0000 0000 90bd afbb abce 8c3c 0302 663c
00000110: ed04 21bc 0000 0000 eb61 38ba 1097 113c
00000120: e050 29b7 c6eb de37 0000 0000 f5c9 3fbb
00000130: 7d08 a8ba 419a ae3c 5ffe a53c 780c a13c
00000140: 4711 4dbc 07be 9a3b 0000 0000 0000 0000
00000150: b532 6cbb 1bae 89bc 0000 0000 0000 0000
00000160: d050 cfbb fa17 e23c 5fa9 56bc bbb1 e6bb
00000170: 0000 0000 681a ccbc bbe1 e535 b7e9 1e3d
00000180: 0000 0000 0000 0000 0000 0000 a6c8 733b
00000190: c822 dcb7 57c6 dc3b 692e 81bc 9283 eebb
000001a0: 51d7 ef3a c6ea 1ab7 0000 0000 2738 f2bb
000001b0: c078 82ba f849 123c 566a 793c 98b3 a53c
000001c0: b00c 16bb b763 ad3c c21b 853c e31b 4fbc
000001d0: 942b 05b7 0000 0000 de08 a83b b63b bbbc
000001e0: 3c29 113b 066e 56b7 0000 0000 0000 0000
000001f0: ac3b 633c e8b7 1cbc 1024 0738 a18d d438

convpool_layers.1.pool.att f4 [1, 256]
0.06423695 0.06488215 0.19701646 -0.004931059 2.0495454e-05 -0.071982704 -0.011599175 3.6632036e-07
0.005530957 -3.4420376e-07 1.038458e-05 0.09076001 0.043571115 8.418437e-06 5.272789e-05 -0.0032556106
0.0803201 -0.0028084635 -1.5073618e-05 0.00019721269 -0.023607198 0.000103124505 -0.011784404 3.3924232e-05
8.022899e-06 0.022847576 0.01479609 0.03038501 0.06797181 0.015845235 -0.029914912 -0.01696536
0.0010539559 0.031547595 -2.1623575e-06 -0.029196005 -0.017855542 0.0038944122 0.016835943 0.00030576062
1.8437704e-05 -5.179922e-05 0.014181394 -0.036370482 0.047528636 -0.024478251 -1.0306503e-05 -0.056520194
1.3403016e-05 -0.01929396 8.399033e-06 -0.0010324976 -1.9697861e-06 0.013936936 0.00044731604 1.736405e-06
0.052425824 0.0028340442 3.293884e-05 -0.006971006 0.063741334 -0.0072409394 -0.15806678 -0.034608938
5.9196755e-06 0.079225406 -0.016529104 4.1166204e-05 -0.062098704 0.010487894 0.00019099689 0.124312155
-0.00057761127 8.056424e-06 2.9490732e-06 0.023798255 3.845043e-06 -0.009683597 0.004097123 -0.033695873
-0.002019624 -0.0013170146 -2.819911e-06 0.023833932 0.025960252 0.0051686214 -1.1128557e-06 0.0027242396
6.030685e-07 0.082843795 -0.07021905 -0.004284719 3.931124e-06 -0.044528354 0.053514633 -0.13306327
-2.3637253e-06 -5.949884e-07 2.6902944e-05 0.025983104 3.3632597e-05 -0.1624676 -0.0059076184 -0.0077185887
0.025783613 1.1268561e-05 -1.1995306e-05 -0.0027324161 -0.0008999033 -0.0115786195 0.027683033 -0.074366406
1.8249608e-05 0.047789376 -0.0023163846 -9.0490954e-05 5.1849643e-06 -1.42798e-05 8.760378e-05 0.03231991
0.20360224 0.0018088426 -0.04427693 0.0010315683 0.059533868 -0.0027886578 -3.7608067e-06 2.2209006e-05
3.9891884e-06 -8.704425e-07 0.0063797585 0.081026375 5.242365e-05 1.2716132e-06 -0.05935874 -0.0046994216
8.47107e-06 4.8922117e-05 -0.0035048912 -4.131792e-06 -0.0317144 -0.07879808 1.779654e-05 -2.8381546e-05
0.13254225 1.4072357e-05 4.5332363e-06 -1.421685e-05 -4.3105942e-06 1.2027822e-06 -3.526563e-05 -3.7431855e-05
9.056044e-06 -2.7368817e-06 -0.042117853 6.0332444e-05 -9.772856e-05 3.3719111e-06 1.12868065e-05 -1.50207325e-05
-2.5741679e-06 3.3028139e-06 0.000746619 -9.151735e-06 0.0026432031 -3.807922e-06 -0.046870142 3.451128e-05
-3.7613376e-05 -3.042016e-06 1.204234e-05 -0.015756361 3.9388928e-05 8.1730075e-05 1.0324e-05 1.0563932e-05
1.6663587e-05 -0.0032506639 -0.01007405 -0.01427776 0.025612324 -0.00010990475 0.0026418343 -0.009829806
0.00011219766 -1.8308621e-05 0.0013112797 0.025929205 0.095747754 -0.003504661 2.2212987e-05 -1.0329339e-05
-0.05071083 -1.312591e-05 1.4600784e-06 0.00018000184 -4.8888855e-06 -0.029478861 0.05119812 1.5299216e-05
1.641497e-05 -0.04560835 -2.016111e-05 0.0013412049 1.4991923e-06 3.0394917e-06 0.012737581 -9.65431e-05
-0.012300789 -2.212152e-06 1.4508138e-05 1.6112824e-07 -0.0013257872 3.4526754e-05 -0.011211899 2.0702062e-05
0.00010317125 -9.073102e-06 -0.002959887 -0.022847207 7.276217e-06 -7.976358e-06 -0.00010162968 4.109311e-06
0.0018445345 2.1142368e-05 -5.2148143e-06 0.0044789943 6.9362636e-06 5.608472e-07 -9.0786394e-05 0.0438397
-0.09234655 -8.704151e-05 2.1315505e-05 0.014094418 1.6739052e-05 -1.15690345e-05 0.00063199666 1.0805165e-05
-0.024686584 2.1739876e-05 -8.071183e-06 -0.00010175916 -3.3296863e-07 0.10894872 -0.0062583247 -0.0088407025
0.0013206069 -3.622908e-06 -7.726974e-05 3.7648537e-05 0.025704764 7.471562e-05 -0.0103497 -0.065677375
00000000: a98e 833d efe0 843d afbe 493e b994 a1bb
00000010: a7ed ab37 ab6b 93bd 770a 3ebc b0aa c434
00000020: 083d b53b 01cb b8b4 6e39 2e37 62e0 b93d
00000030: a077 323d e93c 0d37 2428 5d38 155c 55bb
00000040: dd7e a43d 330e 38bb b2e4 7cb7 e1ca 4e39
00000050: e263 c1bc 8c44 d838 5f13 41bc de49 0e38
00000060: 179a 0637 d72a bb3c 4d6b 723c fce9 f83c
00000070: ce34 8b3d decd 813c 1e10 f5bc f0fa 8abc
00000080: e424 8a3a 0d38 013d 051d 11b6 762c efbc
00000090: c945 92bc 6539 7f3b 88eb 893c 7f4e a039
000000a0: abaa 9a37 fd42 59b8 1459 683c 37f9 14bd
000000b0: 63ad 423d 9d86 c8bc 18ea 2cb7 b881 67bd
000000c0: 84dd 6037 5e0e 9ebc 92e9 0c37 df54 87ba
000000d0: ab30 04b6 bf57 643c be85 ea39 6c0e e935
000000e0: 76bc 563d 5fbb 393b cf27 0a38 096d e4bb
000000f0: d18a 823d 6745 edbb 42dc 21be 1ac2 0dbd
00000100: a0a1 c636 ee40 a23d 0b68 87bc e0a9 2c38
00000110: 365b 7ebd 6ad5 2b3c 5646 4839 5f97 fe3d
00000120: d66a 17ba 142a 0737 b1e8 4536 8ff4 c23c
00000130: ab04 8136 f3a7 1ebc 2941 863b af04 0abd
00000140: ab5b 04bb ad9f acba b43d 3db6 613f c33c
00000150: 98aa d43c 8a5d a93b 6e5d 95b5 2889 323b
00000160: 8de2 2135 02aa a93d 01cf 8fbd d466 8cbb
00000170: 19e8 8336 5d63 36bd 2932 5b3d bd41 08be
00000180: 7ea0 1eb6 4bb7 1fb5 a2ad e137 85da d43c
00000190: ba10 0d38 e85d 26be b294 c1bb 37ec fcbb
000001a0: 2838 d33c 1a0e 3d37 723f 49b7 5612 33bb
000001b0: 7de7 6bba 40b4 3dbc 87c7 e23c 6a4d 98bd
000001c0: bc16 9937 cbbe 433d 7cce 17bb f6c5 bdb8
000001d0: 81fa ad36 4693 6fb7 ecb7 b738 e261 043d
000001e0: 1b7d 503e b016 ed3a ba5b 35bd b035 873a
000001f0: c9d9 733d eac1 36bb 2b62 7cb6 7a4d ba37
00000200: deda 8536 5aa8 69b5 4b0d d13b 28f1 a53d
00000210: 77e1 5b38 4cac aa35 2622 73bd 9bfd 99bb
00000220: f81e 0e37 b931 4d38 51b2 65bb d3a3 8ab6
00000230: f5e6 01bd e360 a1bd c749 9537 e814 eeb7
00000240: 28b9 073e 5018 6c37 341c 9836 e884 6eb7
00000250: b9a3 90b6 486f a135 2fea 13b8 2600 1db8
00000260: 6aef 1737 45ab 37b6 c583 2cbd 780d 7d38
00000270: 9ff3 ccb8 fe48 6236 775c 3d37 8e01 7cb7
00000280: debf 2cb6 e9a5 5d36 c1b8 433a 678a 19b7
00000290: 9739 2d3b 9a8b 7fb6 e8fa 3fbd 34c0 1038
000002a0: 0ec3 1db8 7025 4cb6 7509 4a37 7c13 81bc
000002b0: 8a35 2538 8066 ab38 3e35 2d37 be3b 3137
000002c0: c8c8 8b37 1709 55bb a10d 25bc 44ed 69bc
000002d0: f0d0 d13c aa7c e6b8 a022 2d3b 320d 21bc
000002e0: a94b eb38 7795 99b7 3fdf ab3a 7c69 d43c
000002f0: 6617 c43d 74ae 65bb 0756 ba37 2c4c 2db7
00000300: 29b6 4fbd 5b37 5cb7 e9f7 c335 e0be 3c39
00000310: 350b a4b6 a77d f1bc 1fb5 513d d156 8037
00000320: e1b2 8937 d2cf 3abd a71f a9b7 5ecb af3a
00000330: db37 c935 12fa 4b36 49b1 503c 2f77 cab8
00000340: 4089 49bc 7b74 14b6 fa67 7337 9802 2d34
00000350: 09c6 adba d2d0 1038 1db2 37bc 57a9 ad37
00000360: a55d d838 ad38 18b7 aafa 41bb 112a bbbc
00000370: 3a26 f436 32d2 05b7 0522 d5b8 b6e2 8936
00000380: 4fc4 f13a e45a b137 eafa aeb6 87c4 923b
00000390: 0dbe e836 208d 1635 9364 beb8 4291 333d
000003a0: 3020 bdbd 0e8a b6b8 b3ce b237 46ec 663c
000003b0: d76a 8c37 a018 42b7 94ac 253a d547 3537
000003c0: 853b cabc 075e b637 7869 07b7 8867 d5b8
000003d0: dcc2 b2b4 8220 df3d a212 cdbb 98d8 10bc
000003e0: 3718 ad3a 1621 73b6 e00b a2b8 cfe8 1d38
000003f0: cc92 d23c a5b0 9c38 ca91 29bc dc81 86bd

convpool_layers.2.conv.weight f4 [128, 128]
0.06770476 0.07212118 -0.004023859 1.0773185e-05 0.03397704 0.025257375 0.029553238 -0.05473568
-0.022822283 0.11820879 0.13007559 0.012716587 -0.0014126312 -0.005332668 -0.063350715 0.06640665
-2.99281e-06 0.0023554498 -0.041109934 0.10482973 -5.717472e-06 -0.004402903 1.1910258e-05 -0.0020373485
2.7536427e-05 -0.017945284 0.020188218 0.06950325 5.931811e-06 -0.000111526526 -2.5770532e-06 -0.010342982
0.07403935 -8.231227e-06 -0.016608072 0.0010605281 1.0438373e-05 0.039544933 1.2550625e-05 -0.028469618
-0.0076022553 3.7979124e-05 0.03310662 -0.037421457 -0.0046098554 0.027959425 0.06857815 0.036013443
0.052505 0.01225651 0.025783848 0.03851978 0.071517676 0.078493476 -0.038285814 0.021053715
0.03796239 -0.004191162 -0.006486489 0.0064387796 -0.0071341023 3.013421e-05 0.0029400033 0.004024375
-0.045732822 -0.012075979 0.011326538 -0.032395054 0.0061332122 0.10634287 0.031177063 -0.0114714205
-0.004870114 -7.3652177e-06 -1.4976878e-05 0.006311479 -0.09007629 0.093613215 -0.09669728 -0.025917478
0.00019990548 0.062000606 0.076281406 -0.041120358 -0.05692405 0.09857393 0.053217474 0.027738359
0.05988088 0.0054576937 0.02764005 0.1043396 0.0047529005 0.01932489 0.010627613 -0.031218497
-0.11576884 0.114130326 0.050274085 -0.0018456988 0.081406355 -0.019152965 0.13627219 -0.040286347
-0.024502054 -0.006293074 -0.007944454 0.084886014 8.671917e-06 -0.0003035735 -0.049302287 -0.00011585477
0.0950814 -0.009768412 -0.065030746 -0.0015930256 -0.0024342365 -0.01999744 -0.032973208 -0.014068715
0.010654011 0.093756475 -0.00061240856 -0.048475 0.07914374 0.008733807 -0.009359735 0.070809826
0.08768089 0.07387008 -0.0022601695 -0.019789105 -1.5369304e-05 -0.072303206 -0.019077817 -0.017478785
-1.064159e-06 0.045821495 0.056016944 0.006281565 0.00047858816 -0.012878905 0.019957 -0.07514035
0.014616527 -3.8316804e-05 0.0067569055 -0.034208387 -0.0025170397 0.0013022756 -0.008331554 -0.036454827
2.7123242e-05 -0.08921406 0.043096285 0.111905016 1.5287285e-05 0.000112221715 0.0017281444 -0.034589037
0.05844315 9.997601e-05 -0.04432405 0.000110263405 -5.3213003e-05 -0.0077128494 -1.4638333e-05 0.026018614
-0.008018333 -9.4277027e-07 2.0372663e-05 0.06154815 -0.035620734 0.07932109 0.10189646 0.0040916014
0.0026664606 -0.010013699 0.02382894 -1.4607089e-05 0.006739232 0.052407075 -1.2168899e-05 0.05287789
-0.008922862 -0.0043016137 -1.904361e-05 0.015975364 0.033583596 -0.03185099 0.045691025 -4.6759908e-07
-0.08194554 0.0323204 -0.0015168315 9.287885e-08 7.348105e-06 -0.045672074 -0.02003032 0.083035596
0.058203373 0.00041713542 -1.6559996e-05 -0.001161173 -0.0070162527 0.025947113 -0.0004667122 0.0058012162
-0.022281064 0.10196428 0.008879813 -0.011186375 0.11983639 0.07174401 0.042240564 0.025494004
0.09745619 -3.600153e-05 0.008934045 -0.05214649 0.021048963 -0.04692787 8.882658e-05 -0.011030972
-4.7480455e-05 0.07305199 0.10835761 -0.0006273348 0.071102805 0.0027351095 0.13456658 -0.046433475
-0.058033444 0.009727059 0.008276871 0.11452904 3.377506e-06 -0.00010903765 0.014414322 0.003343294
-0.048066292 0.025844518 -0.03497052 -0.004848309 -0.026717817 -0.0025379907 -0.09402075 -0.008712925
0.041709043 0.06275289 0.013833929 0.13185644 0.05865508 -0.0028989508 -0.003789497 0.06659015
00000000: cba8 8a3d 45b4 933d 93da 83bb 7abe 3437
00000010: 822b 0b3d 8ee8 ce3c a219 f23c 8532 60bd
00000020: ccf5 babc 7317 f23d 8932 053e 3b59 503c
00000030: 0a28 b9ba a9bd aebb 05be 81bd 3600 883d
00000040: 16d8 48b6 e45d 1a3b e462 28bd f8b0 d63d
00000050: b6d8 bfb6 3a46 90bb 2bd2 4737 0985 05bb
00000060: 07fe e637 fd01 93bc c361 a53c b857 8e3d
00000070: de09 c736 59e3 e9b8 70f1 2cb6 9c75 29bc
00000080: f1a1 973d da18 0ab7 a70d 88bc 6b01 8b3a
00000090: 7820 2f37 def9 213d 8690 5237 1e39 e9bc
000000a0: 571c f9bb c64b 1f38 cf9a 073d 3e47 19bd
000000b0: 450e 97bb 2a0b e53c b372 8c3d d582 133d
000000c0: 7c0f 573d 87cf 483c a638 d33c ebc6 1d3d
000000d0: dc77 923d 30c1 a03d 96d1 1cbd d778 ac3c
000000e0: 737e 1b3d 0456 89bb 9d8c d4bb 66fc d23b
000000f0: 30c5 e9bb b9c8 fc37 12ad 403b e8de 833b
00000100: 5752 3bbd 54da 45bc f292 393c adb0 04bd
00000110: 1df9 c83b 4aca d93d 0a67 ff3c a0f2 3bbc
00000120: 7a95 9fbb bd22 f7b6 3445 7bb7 86d0 ce3b
00000130: eb79 b8bd 49b8 bf3d 3909 c6bd e450 d4bc
00000140: b89d 5139 59f4 7d3d 6d39 9c3d d26d 28bd
00000150: 3129 69bd 21e1 c93d 91fa 593d 8e3b e33c
00000160: a745 753d 74d6 b23b 636d e23c 00b0 d53d
00000170: 38be 9b3b 3b4f 9e3c 711f 2e3c efbd ffbc
00000180: 3718 edbd 29bd e93d 33ec 4d3d 60eb f1ba
00000190: 60b8 a63d aee6 9cbc f08a 0b3e 4c03 25bd
000001a0: 88b8 c8bc 2236 cebb 7529 02bc b8d8 ad3d
000001b0: 9a7d 1137 f228 9fb9 32f1 49bd 0ef7 f2b8
000001c0: 09ba c23d b10b 20bc d72e 85bd 12cd d0ba
000001d0: b687 1fbb acd1 a3bc ea0e 07bd 7880 66bc
000001e0: 298e 2e3c 6503 c03d 0b8a 20ba b98d 46bd
000001f0: 1d16 a23d 3e18 0f3c 9359 19bc be04 913d
00000200: 0a92 b33d 3249 973d 5a1f 14bb c31c a2bc
00000210: 54ed 80b7 b413 94bd 1549 9cbc ab2f 8fbc
00000220: 3ad4 8eb5 52af 3b3d 0672 653d 96d5 cd3b
00000230: 04eb fa39 0b02 53bc dd7c a33c 2fe3 99bd
00000240: 287a 6f3c 5bb6 20b8 0869 dd3b 181e 0cbd
00000250: ebf4 24bb 1eb1 aa3a 1281 08bc a851 15bd
00000260: b886 e337 dcb5 b6bd bb85 303d 752e e53d
00000270: 323d 8037 9358 eb38 e782 e23a 3cad 0dbd
00000280: 1662 6f3d 36aa d138 238d 35bd 373d e738
00000290: 0731 5fb8 12bc fcbb 2997 75b7 fd24 d53c
000002a0: 545f 03bc ae12 7db5 f6e5 aa37 ea19 7c3d
000002b0: 0ce7 11bd 1873 a23d 17af d03d d712 863b
000002c0: c9bf 2e3b 7f10 24bc e934 c33c f810 75b7
000002d0: c7d4 dc3b cda8 563d 0629 4cb7 7d96 583d
000002e0: 3231 12bc 8df4 8cbb d7bf 9fb7 c4de 823c
000002f0: f48e 093d 2f76 02bd 8326 3b3d 540a fbb4
00000300: 10d3 a7bd 6562 043d 6bd0 c6ba b074 c733
00000310: be8f f636 a412 3bbd a016 a4bc 910e aa3d
00000320: a966 6e3d f8b2 da39 52ea 8ab7 8032 98ba
00000330: 98e8 e5bb 0a8f d43c 0db1 f4b9 2118 be3b
00000340: c786 b6bc a6d2 d03d a37c 113c 0f47 37bc
00000350: c86c f53d 86ee 923d 7104 2d3d cdd8 d03c
00000360: 1c97 c73d 5900 17b8 1a60 123c 8f97 55bd
00000370: e06e ac3c 7037 40bd 6848 ba38 40bb 34bc
00000380: c025 47b8 489c 953d 98ea dd3d ba73 24ba
00000390: 599e 913d 863f 333b d2cb 093e 0731 3ebd
000003a0: 7ab4 6dbd 3e5e 1f3c b79b 073c 348e ea3d
000003b0: 1ca9 6236 25ab e4b8 0c2a 6c3c 2a1b 5b3b
000003c0: 29e1 44bd e2b7 d33c 3f3d 0fbd 90de 9ebb
000003d0: 53df dabc 6b54 26bb f38d c0bd a8c0 0ebc
000003e0: 1ad7 2a3d 9684 803d b4a7 623c 6005 073e
000003f0: 4f40 703d 53fc 3dbb 3659 78bb 6b60 883d

convpool_layers.2.conv.bias f4 [128]
-0.016595159 -0.022551842 0.0 -2.781249e-05 -5.5215074e-05 -0.004950761 -0.005356531 0.03763301
0.0 -0.015085445 -0.015080295 -0.010293187 -8.016841e-06 0.0 -0.0202615 -0.0053758984
0.0 0.0 -0.0033434269 -0.023590926 0.0 -2.254697e-05 0.000103906226 -0.0019612384
0.0 -0.01916211 -0.016008936 -0.012763605 0.0 0.0 0.0 -0.0052704015
-0.015897848 1.6678976e-05 -0.01706618 0.0 0.0 0.03125733 0.0 0.0
-0.006681166 0.0 1.18578555e-05 -0.014524826 0.0 -0.01885103 -0.010430078 -0.009453004
-0.021420887 -0.0056405594 -0.0050534825 0.0 -0.01399928 -0.028475348 0.0 -0.0075769788
0.02712442 0.0020338944 0.0 1.2836725e-05 0.0 0.0 -0.014435402 1.5589074e-05
0.007160733 -0.017234234 -0.0068882434 0.0 -1.2038477e-05 -0.0070332102 0.0027207725 -0.017197985
-0.010414651 -0.00021830908 -1.9645897e-05 0.012261818 -0.008491868 -0.0022218428 0.00762629 3.1358628e-05
-0.0025126108 -0.008622156 -0.01660192 -0.016431592 -0.017694997 -0.027816985 -0.020945136 -1.2880885e-05
-0.014140018 0.0 -0.009131677 -0.009276683 0.00027183583 -0.002989683 9.868523e-07 0.0
0.0043454943 -0.017868442 -0.017311877 0.0 -0.011186518 -4.9075315e-06 -0.016124373 0.00545656
-0.017321015 -0.00576139 -0.0005906306 -0.01043348 -4.0519993e-07 0.0 -0.0015426361 0.003853997
-0.03433494 0.0 -0.0014122247 -0.0056171743 -0.019684339 0.0 0.008181788 0.026367128
0.0024624548 -0.022372436 1.6690676e-05 -0.016223295 -0.019037748 3.7188775e-06 2.3934763e-05 0.012814441
00000000: 92f2 87bc a4be b8bc 0000 0000 de4e e9b7
00000010: bc96 67b8 fe39 a2bb d785 afbb 1225 1a3d
00000020: 0000 0000 f128 77bc 5713 77bc c1a4 28bc
00000030: 1280 06b7 0000 0000 72fb a5bc 4e28 b0bb
00000040: 0000 0000 0000 0000 651d 5bbb c241 c1bc
00000050: 0000 0000 4023 bdb7 3be8 d938 1f88 00bb
00000060: 0000 0000 dbf9 9cbc 2c25 83bc 711e 51bc
00000070: 0000 0000 0000 0000 0000 0000 55b3 acbb
00000080: 343c 82bc d4e9 8b37 60ce 8bbc 0000 0000
00000090: 0000 0000 b007 003d 0000 0000 0000 0000
000000a0: afed dabb 0000 0000 1af1 4637 89f9 6dbc
000000b0: 0000 0000 7a6d 9abc ebe2 2abc c6e0 1abc
000000c0: db7a afbc 71d4 b8bb af97 a5bb 0000 0000
000000d0: 3c5d 65bc 2245 e9bc 0000 0000 4e48 f8bb
000000e0: 0834 de3c 164b 053b 0000 0000 505d 5737
000000f0: 0000 0000 0000 0000 7782 6cbc 48c5 8237
00000100: 95a4 ea3b cf2e 8dbc c6b6 e1bb 0000 0000
00000110: ddf8 49b7 d876 e6bb fd4e 323b cae2 8cbc
00000120: 36a2 2abc e6e9 64b9 3ecd a4b7 cbe5 483c
00000130: 7a21 0bbc 569c 11bb f5e5 f93b 1287 0338
00000140: 9daa 24bb f243 0dbc c000 88bc 8c9b 86bc
00000150: 19f5 90bc 72e0 e3bc 2295 abbc fb1a 58b7
00000160: 89ab 67bc 0000 0000 089d 15bc 3bfd 17bc
00000170: 3085 8e39 8fee 43bb fd73 8435 0000 0000
00000180: a664 8e3b d760 92bc a3d1 8dbc 0000 0000
00000190: a847 37bc 60ab a4b6 4317 84bc f1cc b23b
000001a0: cde4 8dbc 0bca bcbb 8cd4 1aba 30f1 2abc
000001b0: 418a d9b4 0000 0000 4732 caba 5793 7c3b
000001c0: cba2 0cbd 0000 0000 661a b9ba 4610 b8bb
000001d0: 0d41 a1bc 0000 0000 e80c 063c e0ff d73c
000001e0: 2361 213b 6646 b7bc f402 8c37 b7e6 84bc
000001f0: 0df5 9bbc d491 7936 83c7 c837 a9f3 513c

lin1.weight f4 [128, 256]
0.031292673 0.03181511 0.03309312 -0.0006530181 -0.0007808141 0.027358858 0.029528787 0.033267062
-0.0024294036 -0.00035825084 -0.006570693 -0.04651224 -6.811e-05 -0.0042698015 0.040222995 0.01937608
0.005292886 -0.00035960664 -0.005410311 0.024776122 -0.03554028 -0.03105088 -0.030988412 0.021835705
0.018451927 0.025395907 -0.032632098 0.04844502 -0.0006997961 -0.00069674855 -0.048519287 -0.013057719
0.016043019 -0.0119870575 0.011974542 -0.017005358 -0.00081947714 0.022725604 -0.025363507 -0.00012220134
4.307656e-06 -4.1809857e-05 0.019202312 -0.008403039 -0.041829493 -0.01891346 0.01595043 0.024505014
0.019841595 -0.0366235 0.00970203 0.039048757 -0.010541489 0.0034813285 -0.059038367 0.025889197
-0.00016196007 -0.031150145 -0.0006511731 -0.02183493 -0.06028381 -0.01588873 -0.010106359 -0.00088948105
0.040002678 -0.011010272 -0.019902397 0.017917262 -0.0016167713 0.01960481 3.0001953e-05 -0.0076860953
0.022514952 -0.000986811 0.022871193 2.3213702e-06 0.0019360941 -0.041088797 -0.0012645855 -0.02951092
-0.0005576225 -0.027726794 -0.0037435512 -0.028605467 -0.017000014 -0.014523864 0.011520977 -0.00013822515
0.03117072 0.0408619 -0.0055630486 0.01674339 -0.00087123405 6.692735e-05 7.5230506e-05 -0.02396714
0.005619912 0.011016946 0.021958435 0.04807448 -0.01241514 0.0230172 -0.0003343952 0.023667017
0.022145174 -0.0009983081 -0.00012354375 0.002410419 -0.00938476 -0.0001697815 0.01668197 -0.018072382
-0.016312528 -0.05065361 0.047028635 2.4546598e-06 -0.012710294 -0.037519537 0.019871602 0.0057370723
-0.014743811 0.015018402 -0.031898826 0.026429743 0.030069297 -0.0008018182 0.026372798 0.0069402275
0.009324881 -0.043878585 -0.022065192 -0.018127616 0.003503245 0.040455617 -0.053972982 -0.037660148
-0.042264957 -0.0201135 -0.003969288 -0.0036809188 -0.0006022974 -0.018602155 0.035454296 0.029052446
-0.025761766 0.035978287 -0.0029798837 -0.007877575 0.0048361057 -0.031592067 -0.04992617 0.031036695
-0.012606995 -0.029249448 0.051289223 -0.011357225 -0.020207917 0.0018200102 -0.030501066 0.04223547
-0.02618603 0.00026322933 0.0021822848 0.013298935 0.027053932 -0.03841681 -0.021368016 -0.0015622011
-0.001012604 -0.00043133646 0.030282792 0.04396333 0.008774546 -0.018886961 0.037505433 0.012906667
0.022758001 0.01651539 -0.023909718 -0.009724247 0.014824785 -0.0030704373 -0.052709498 -0.04221465
-0.013853912 0.014895336 0.0043870425 0.02299686 -0.047743846 -0.0037247392 0.019517908 0.012611249
0.023744546 -0.055541225 0.01849864 -0.018986374 -0.0065672644 -0.0038463837 -0.0060881823 0.0011375557
-0.0057774116 -0.008729618 -0.048318617 -0.0038838577 0.009880298 -0.025961356 -0.0025260334 -0.034784395
-0.023653982 0.026056046 0.028026856 0.027029464 0.04617576 0.035154928 0.035367526 -0.0015089079
0.0053112484 0.01801638 0.04500685 0.014379904 -0.01830943 0.023780955 -3.8371145e-05 0.014859985
-0.051869493 -0.03001403 0.041712712 0.011993016 0.007511215 0.02377071 -0.017615365 0.01936415
-0.05908895 0.0053988188 -0.0013140554 0.019197509 0.0033571417 0.011174444 -0.02217109 -0.034357805
0.017273588 0.005473026 -0.021892205 -0.0009090246 -0.011521044 -0.0487256 -0.047324564 0.018462934
-0.012997968 0.03862244 0.019904317 0.029274624 -0.040477637 0.0017202104 -0.06584459 0.008816094
00000000: bf2c 003d 9050 023d a78c 073d 4e2f 2bba
00000010: 8caf 4cba af1f e03c 5be6 f13c 0b43 083d
00000020: a136 1fbb 9dd3 bbb9 f84e d7bb 9e83 3ebd
00000030: 47d6 8eb8 b1e9 8bbb dec0 243d 96ba 9e3c
00000040: f26f ad3b 9689 bcb9 fa48 b1bb 4bf7 ca3c
00000050: af92 11bd 6a5e febc 69db fdbc cbe0 b23c
00000060: 7f28 973c 140b d03c 3ca9 05bd 496e 463d
00000070: 8572 37ba 01a6 36ba 29bc 46bd 0bf0 55bc
00000080: a66c 833c 5d65 44bc df30 443c d24e 8bbc
00000090: 2ed2 56ba 0c2b ba3c 21c7 cfbc 2c23 00b9
000000a0: 7c8a 9036 fe5c 2fb8 2b4e 9d3c e6ac 09bc
000000b0: 6755 2bbd 67f0 9abc 7aaa 823c bdbe c83c
000000c0: d78a a23c 8602 16bd 43f5 1e3c 97f1 1f3d
000000d0: 36b6 2cbc 0027 643b 37d2 71bd 9515 d43c
000000e0: d3d3 29b9 972e ffbc 7db3 2aba 2bdf b2bc
000000f0: 28ec 76bd 1529 82bc 2495 25bc 102c 69ba
00000100: d9d9 233d 6e64 34bc 5a0a a3bc 39c7 923c
00000110: d8e9 d3ba 449a a03c b4ac fb37 a4db fbbb
00000120: 4771 b83c e257 81ba 5e5c bb3c d6c8 1b36
00000130: 8ac4 fd3a ba4c 28bd 73c0 a5ba e3c0 f1bc
00000140: 6a2d 12ba 4d23 e3bc 5e56 75bb 0356 eabc
00000150: 9d43 8bbc 80f5 6dbc 7bc2 3c3c 88f0 10b9
00000160: bd59 ff3c cf5e 273d 3c4a b6bb 6f29 893c
00000170: 8763 64ba 595b 8c38 12c5 9d38 bc56 c4bc
00000180: 3d27 b83b 6c80 343c 2de2 b33c bfe9 443d
00000190: df68 4bbc 918e bc3c c451 afb9 55e1 c13c
000001a0: cc69 b53c a9d9 82ba 868b 01b9 1ff8 1d3b
000001b0: 89c2 19bc 6007 32b9 a0a8 883c 880c 94bc
000001c0: daa1 85bc 297a 4fbd 19a1 403d bcba 2436
000001d0: d63e 50bc 16ae 19bd c5c9 a23c 0dfe bb3b
000001e0: 0790 71bc be0f 763c 58a8 02bd 3083 d83c
000001f0: e353 f63c 1c31 52ba c40b d83c d96a e33b
00000200: 63c7 183c 08ba 33bd 10c2 b4bc 5e80 94bc
00000210: b396 653b cab4 253d c612 5dbd 8741 1abd
00000220: 051e 2dbd 11c5 a4bc cd10 82bb 923b 71bb
00000230: 7fe3 1dba 8c63 98bc 8638 113d 65ff ed3c
00000240: 570a d3bc f85d 133d 274a 43bb f210 01bc
00000250: 3278 9e3b af66 01bd 627f 4cbd ab40 fe3c
00000260: 928d 4ebc 8a9c efbc a614 523d a713 3abc
00000270: 138b a5bc 698d ee3a 5fdd f9bc 1aff 2c3d
00000280: 1684 d6bc 0b02 8a39 aa04 0f3b c7e3 593c
00000290: 35a0 dd3c f25a 1dbd fa0b afbc c5c2 ccba
000002a0: 5ab9 84ba 0025 e2b9 9e13 f83c e512 343d
000002b0: 1dc3 0f3c d4b8 9abc 4c9f 193d 7c76 533c
000002c0: fd6e ba3c 484b 873c 50de c3bc 7352 1fbc
000002d0: a8e3 723c 6439 49bb eae5 57bd 45e9 2cbd
000002e0: 85fb 62bc 910b 743c 2ec1 8f3b e963 bc3c
000002f0: 0d8f 43bd c11a 74bb 05e4 9f3c 6a9f 4e3c
00000300: ec83 c23c 327f 63bd 768a 973c 5089 9bbc
00000310: 3532 d7bb 9c13 7cbb 607f c7bb 091a 953a
00000320: 7150 bdbb ac06 0fbc bee9 45bd 5288 7ebb
00000330: f9e0 213c e9ac d4bc cf8b 25bb 157a 0ebd
00000340: ffc5 c1bc 7d73 d53c 9498 e53c e56c dd3c
00000350: cb22 3d3d 9dfe 0f3d 8add 103d 8cc6 c5ba
00000360: fb09 ae3b 1697 933c 1a59 383d b099 6b3c
00000370: a8fd 95bc 47d0 c23c b4f0 20b8 4b77 733c
00000380: 1b75 54bd fcdf f5bc f3da 2a3d 5b7e 443c
00000390: a320 f63b cbba c23c 194e 90bc 91a1 9e3c
000003a0: 4107 72bd 93e8 b03b 623c acba 1844 9d3c
000003b0: 7e03 5c3b 0415 373c 25a0 b5bc c5ba 0cbd
000003c0: 5781 8d3c 1257 b33b 4857 b3bc 9c4b 6eba
000003d0: c3c2 3cbc 7f94 47bd 67d7 41bd 943f 973c
000003e0: 6ef5 54bc 9032 1e3d 610e a33c 56d1 ef3c
000003f0: e1cb 25bd af78 e13a 87d9 86bd 6171 103c

lin1.bias f4 [128]
-0.008078496 0.015703093 -3.627838e-06 3.3720396e-05 -0.002443728 0.012179055 0.010425769 -0.005425349
0.000372344 -0.026377434 -0.0005477583 0.0036987877 -0.032368336 9.150896e-05 -0.0022781286 -0.00082209636
-0.00010013515 0.0028138342 -0.03612329 -3.3416825e-05 -2.1161843e-05 2.9269555e-05 0.022433303 -0.050560236
0.014151983 -0.046834834 4.8704205e-05 -0.0069377013 0.026682267 0.04910092 -0.057690408 -0.0011462667
0.00010742639 0.032527827 -0.00070176856 -0.0034542915 0.06960299 -0.0061973105 -0.0016256208 1.8164288e-05
-3.8962375e-05 -0.009796354 0.070276394 0.043002125 -0.00010999773 -0.011565025 2.9981276e-05 -0.00015559868
-0.011874868 -0.00012351385 -0.0005462855 -0.008444686 -0.018343559 0.045030206 -0.00010150009 0.005834125
0.039697696 0.01050026 0.03785217 0.048643447 -0.007914599 -0.0015259322 -2.7145792e-05 5.1123534e-05
-0.010879824 -0.029351896 -0.0039057212 -0.0036439511 0.014037444 -0.061997637 0.014239746 -0.008955288
-0.04189581 -0.00064624555 0.02613677 -0.026238197 0.03437997 0.06811181 -0.04164786 -0.020278567
-0.00029722686 0.006116035 0.016079543 -0.0054983413 -0.0102992 0.0001087574 -4.1371386e-06 0.039137803
-0.0302938 -0.0035204256 -0.005580446 -0.034904134 -0.0036544125 -0.001690683 -0.06550473 -0.007738135
0.057306577 0.059530802 -0.0058535454 0.016199863 -0.001014916 -0.0004209225 -0.021522004 -0.03591095
8.733917e-05 -0.003154549 0.055942632 -0.01850653 0.01709103 0.002114999 0.00047937199 0.00012628245
-0.02037224 -0.018426571 0.013523618 0.0021983986 -0.0010995303 -0.033615336 0.026333852 -0.018376922
0.0140509065 -6.286595e-05 0.025112232 -0.006757265 0.00012352818 -0.0004149675 0.0031725161 0.032302372
00000000: ab5b 04bc c6a3 803c c875 73b6 006f 0d38
00000010: f426 20bb a98a 473c d8d0 2a3c 20c7 b1bb
00000020: 2a37 c339 7d15 d8bc 7097 0fba 5c67 723b
00000030: a994 04bd 80e8 bf38 a84c 15bb f481 57ba
00000040: a6ff d1b8 4e68 383b 04f6 13bd 0b29 0cb8
00000050: b684 b1b7 e487 f537 0cc6 b73c 4018 4fbd
00000060: b8dd 673c e2d5 3fbd be47 4c38 a855 e3bb
00000070: c594 da3c 0c1e 493d c74c 6cbd 543e 96ba
00000080: 1b4a e138 e63b 053d e4f6 37ba 6561 62bb
00000090: 038c 8e3d cf12 cbbb c812 d5ba 835f 9837
000000a0: 886b 23b8 e380 20bc 12ed 8f3d ff22 303d
000000b0: 95ae e6b8 3b7b 3dbc 4d80 fb37 3428 23b9
000000c0: ce8e 42bc 7f83 01b9 9934 0fba 955b 0abc
000000d0: 3b45 96bc 9871 383d 72dc d4b8 302c bf3b
000000e0: 0d9a 223d 4809 2c3c e10a 1b3d 5a3e 473d
000000f0: 3cac 01bc ca01 c8ba 25b7 e3b7 7a6d 5638
00000100: 4a41 32bc 6373 f0bc 21f7 7fbb 5bcf 6ebb
00000110: 4ffd 653c 3cf1 7dbd d34d 693c 33b9 12bc
00000120: f19a 2bbd ce68 29ba c81c d63c 7df1 d6bc
00000130: 03d2 0c3d 347e 8b3d f296 2abd 3d1f a6bc
00000140: 1dd5 9bb9 0569 c83b 3fb9 833c 6e2b b4bb
00000150: fabd 28bc af14 e438 c0d1 8ab6 f64e 203d
00000160: b42a f8bc f1b6 66bb 2ddc b6bb a3f7 0ebd
00000170: de7e 6fbb e899 ddba 5827 86bd 2e90 fdbb
00000180: 4dba 6a3d 92d6 733d 19cf bfbb 93b5 843c
00000190: ee06 85ba 43af dcb9 ea4e b0bc 5c17 13bd
000001a0: dc29 b738 8dbc 4ebb 1a24 653d 029b 97bc
000001b0: 7d02 8c3c cc9b 0a3b 3854 fb39 b06a 0439
000001c0: afe3 a6bc 52f3 96bc 2a92 5d3c 0213 103b
000001d0: 1d1e 90ba 3cb0 09bd 17ba d73c 338b 96bc
000001e0: c635 663c e6d6 83b8 2bb8 cd3c 0c6c ddbb
000001f0: 5887 0139 ff8f d9b9 fde9 4f3b 7e4f 043d
