models/1conv1pool/best_model_1conv1pool30epoch.pth (torch, 170915 bytes, 9 tensors)

convpool_layers.0.conv.weight f4 [1, 128]
000000 b0 b9 96 3d 52 45 25 3e 7b 77 22 3e 87 31 4a bc
       0.07359636 0.16139725 0.1586589 -0.01234091
000010 a8 2f 2e bd 91 8a f3 bd 5e 49 0f be 69 44 9c 3d
       -0.042525917 -0.11891664 -0.13992831 0.07630236
000020 26 c7 68 3e ca 6d b0 bd b7 11 57 bd 45 c6 e5 3d
       0.22732219 -0.086146906 -0.05250713 0.112194575
000030 6f 84 8b bb 48 de f1 3d ca 41 42 be 24 e7 ff bd
       -0.0042577307 0.11809975 -0.18970409 -0.124952585
000040 ef 60 14 be 93 d4 60 3e c3 fb 3b 3e bf 86 0d 3d
       -0.14490102 0.2195609 0.18357758 0.034552332
000050 05 65 e2 bc d9 fa 07 be 3a 07 ac bd db cb 1f 3d
       -0.02763606 -0.13279285 -0.08399816 0.03901277
000060 c9 48 83 bd 99 18 f2 bb 36 9b 1d be fa 00 f5 bd
       -0.06410367 -0.007388186 -0.1539124 -0.11963077
000070 b9 f5 a8 3d 7b 2d 1d bd 18 34 da bc c2 19 27 3d
       0.08249993 -0.03837345 -0.026636168 0.04079605
000080 04 d5 2f be 71 1d 14 be ae 88 2f be 79 57 8e bb
       -0.17171103 -0.14464356 -0.17141983 -0.0043439236
000090 06 da 66 3e 64 26 4d 3e 4e 35 f3 bb 9a 1e 05 be
       0.22544107 0.20034176 -0.007422126 -0.12999955
0000a0 32 67 09 be c0 85 2c be a6 fb a7 bd 87 cb 26 3e
       -0.13418272 -0.16847897 -0.08202295 0.16288577
0000b0 28 38 0d bd 45 30 63 3d 1d a4 a6 bc 1b bf 56 3d
       -0.034477383 0.055465955 -0.020341927 0.052428346
0000c0 32 6e 5d 3d 77 94 91 bd 80 24 3e 3e 0e 0e 45 3e
       0.05406017 -0.071083955 0.18568611 0.19243643
0000d0 f8 01 48 3d 9f d7 b0 3d 44 a6 9e bd ba 58 d2 bd
       0.048830003 0.086348765 -0.077465564 -0.102708295
0000e0 fb fa 36 be ff cd 34 be 80 e5 ea 3d ca a9 a8 bd
       -0.17869179 -0.17656706 0.11469555 -0.0823551
0000f0 52 7e 3a 3e 64 0b c2 3c 9f 9d 0d 3e aa 2e 2e bc
       0.1821225 0.023687072 0.13829659 -0.010631243
000100 04 d0 2d bd e2 5e 0c be b4 24 9d bb 9e d5 50 3e
       -0.042434707 -0.1370807 -0.004795635 0.20393988
000110 ad c2 05 3e 05 e3 4b 3e c4 f4 1f be 50 99 05 3e
       0.13062544 0.1991082 -0.15620714 0.13046765
000120 01 4a 56 bd 4d c6 6a 3e 31 40 66 bb f7 e6 2d 3d
       -0.05231667 0.22927208 -0.0035133476 0.042456593
000130 33 2a 40 3d 3c 47 11 be e9 50 e5 bd 58 de 38 3e
       0.046915244 -0.1418733 -0.11197073 0.18053567
000140 44 62 dd bc d6 d0 e1 bd 34 af 33 3e 42 d3 d8 bb
       -0.027024396 -0.110261604 0.17547303 -0.006616981
000150 03 a7 53 3d f2 e7 fd bd 88 ad 2f be c9 26 93 bc
       0.051672947 -0.12397756 -0.1715604 -0.01796283
000160 3d 78 45 3e 32 4c 33 bd 60 33 33 be 82 08 a1 3d
       0.19284149 -0.043773837 -0.17500067 0.07862951
000170 d2 56 22 3e c2 1f 0d be 3e 39 6d bb 3a ca 01 3e
       0.15853432 -0.13781646 -0.003619745 0.126748
000180 06 b9 a1 3b a0 c3 21 3e be c0 59 3d 5d 51 cb bd
       0.0049353866 0.15797281 0.05316233 -0.09927628
000190 bc bd 7d 3d 2a d8 39 3e 4d d6 fc bd ae bd 2d be
       0.061948523 0.18148866 -0.12345562 -0.16966888
0001a0 a3 83 90 bd f9 40 c3 bd d4 fd d8 bd 56 82 18 be
       -0.07056358 -0.09533877 -0.10595289 -0.14893469
0001b0 14 94 c0 bc 76 81 38 3e 75 bc 07 be 75 a5 dc bd
       -0.02350811 0.18018135 -0.13255484 -0.10773746
0001c0 3e e5 a0 3b a4 5a 29 bd f0 79 a6 3d e1 db 49 bd
       0.0049101403 -0.041346207 0.081287265 -0.04928196
0001d0 24 c1 cb 3d 6b ba 44 be 59 ae 4b bd cc 51 60 bd
       0.09948948 -0.19211738 -0.049726818 -0.054765508
0001e0 3e da e7 bd eb 0e 54 3e 19 94 10 be bc f4 0d 3e
       -0.11320923 0.20708816 -0.14118995 0.1386289
0001f0 61 84 a0 bb 25 f8 c3 bd 56 18 b8 3d 31 ad 2b be
       -0.0048985933 -0.09568814 0.08989017 -0.16765286

convpool_layers.0.conv.bias f4 [128]
000000 a5 f6 c9 bc 12 ce e2 bc c3 4e 99 bc c2 87 33 bb
       -0.024653742 -0.027686153 -0.018714314 -0.002739415
000010 4a 85 eb bb a5 bb 08 bc f0 4e 26 bc 2a 17 81 bc
       -0.00718752 -0.008345519 -0.010150656 -0.015758116
000020 c9 39 a8 bc 02 02 e0 ba 18 a2 36 bc 4f a9 35 bd
       -0.020535367 -0.0017090442 -0.011147045 -0.04435092
000030 7e 46 34 ba 36 d4 46 bd 75 63 69 bc 1a b2 53 3c
       -0.0006876959 -0.048542224 -0.014244904 0.012920881
000040 e1 9e 24 ba fc ea 66 3b 96 d1 36 bc 8d 0c 4e 3b
       -0.00062797783 0.0035235276 -0.011158368 0.0031440586
000050 a7 d5 38 3a 92 b9 03 bc f0 e4 93 b9 c0 3b b5 bc
       0.00070508796 -0.008039849 -0.00028208597 -0.022123218
000060 8f c7 b2 bb 76 6f 61 bb 54 5a d8 3b 96 3e 2d bb
       -0.005455918 -0.0034398711 0.006602565 -0.002643501
000070 96 28 f2 bc 04 78 dc ba 5a d9 54 3a 22 3a ff bc
       -0.029560369 -0.0016820435 0.0008119546 -0.03115565
000080 4d 8c d7 3b cd 51 eb 3b 6f 7a 7f 3c 69 59 ec b9
       0.0065780045 0.0071813823 0.015593155 -0.00045080043
000090 cf 46 b7 bc 97 ae 5a bc 01 23 04 3b 83 8b 57 3b
       -0.022372631 -0.0133472895 0.0020162466 0.0032889552
0000a0 f4 76 46 3c ba 33 c4 39 dc b1 56 38 8d 4d 9c bc
       0.012113322 0.00037422572 5.118722e-05 -0.019079948
0000b0 86 49 51 b8 12 95 b1 bb a4 d0 e8 3b e6 3d 43 bd
       -4.9897957e-05 -0.005419382 0.00710495 -0.047666453
0000c0 f6 29 c8 bc 31 4f 12 3c 0d 44 07 bd a2 bf 8c bc
       -0.024434071 0.0089300135 -0.033023883 -0.017181221
0000d0 5d 0d a7 bc 80 21 b7 bc bc d1 ee b7 e6 eb 57 ba
       -0.020392114 -0.022354841 -2.8469476e-05 -0.0008236751
0000e0 6d 29 3d 3c ba 5b 03 3b 88 70 82 bc 5e 9d ba 39
       0.011545521 0.0020043687 -0.0159228 0.00035593932
0000f0 f7 84 9a bc 9b ae 50 bb 6c 91 93 bc 05 4c 71 bb
       -0.01886223 -0.0031842354 -0.018013678 -0.0036818993
000100 a6 9e 60 bb 06 92 c5 ba 45 4c bd ba f3 bd 5c bc
       -0.003427425 -0.0015073426 -0.0014442286 -0.013473022
000110 50 1e 8f bc 58 61 e6 3b 57 d7 91 3b 5b d5 d9 bc
       -0.017470509 0.0070306472 0.0044507193 -0.026590994
000120 6a 7a d4 3b 20 bc fd bc 79 4d b8 39 12 b7 17 bd
       0.0064843195 -0.030973494 0.00035152936 -0.037039824
000130 f3 28 79 bc c2 88 72 bc 8c ff 21 3c bb ae da bc
       -0.015207517 -0.014803113 0.009887587 -0.026694646
000140 77 ca e9 bb 77 07 d8 3a 73 d1 2a 3b de 7f 9d ba
       -0.0071347314 0.0016481717 0.0026064783 -0.0012016257
000150 dc a0 41 bd 92 71 4a ba d5 1d 81 3b 93 4f 2d 3a
       -0.047272548 -0.0007722612 0.003940324 0.0006611284
000160 f4 6a 55 3a 86 b8 51 3b 69 81 04 3c 70 f8 d4 3b
       0.00081412424 0.0032000854 0.008087494 0.0064993426
000170 5b f2 02 bd e2 2b ec 3b bf 42 3a ba 3a 27 82 bb
       -0.03196941 0.0072073797 -0.0007105283 -0.0039719613
000180 7e e1 0c bc 6b c8 c9 bc 80 6c 06 3c 8e 4d bb 3b
       -0.008598683 -0.0246317 0.008204579 0.0057160323
000190 86 24 bd bb 56 63 80 39 9c 6b f5 3b 28 61 54 3c
       -0.005772176 0.00024488074 0.0074896347 0.012962617
0001a0 13 3f 1b b9 74 8d a8 3b 6e da 31 bc fa a8 89 bb
       -0.00014805449 0.0051438157 -0.0108553 -0.004201052
0001b0 a0 71 b7 bb 2f 2d 1f 3c a6 6b f8 3b 2e 6e ee 3b
       -0.005598262 0.009715362 0.007581192 0.007276318
0001c0 e4 30 0a bd 4d 45 0b ba 5e 98 af bc bc 19 b9 39
       -0.033738032 -0.0005312756 -0.021434959 0.00035305123
0001d0 f2 9b 58 bc 57 d4 34 bc 62 1f 69 3c 61 63 97 3b
       -0.013220774 -0.011036954 0.014228674 0.004620001
0001e0 45 a1 f3 3b 9c 64 26 bd 1c 93 13 3c 0f 67 e7 bc
       0.0074349963 -0.040623292 0.009007242 -0.028247384
0001f0 80 31 71 3a 42 97 7f 3b 6b 79 ed bc 80 62 17 3c
       0.00092007965 0.0039000069 -0.02898856 0.009239793

convpool_layers.0.pool.att f4 [1, 256]
000000 84 3d d4 3d 1e a9 e9 3d 1a d5 3c 3d 2d 76 5d bd
       0.10363296 0.1140921 0.046101667 -0.05406778
000010 cb 27 f5 3d ee 6e bb 3d b7 64 5e 3c a3 64 10 bc
       0.119704805 0.091520175 0.013573817 -0.008813056
000020 6f a1 ba 3c 37 0c 0e 3e 57 7a a0 3d 68 79 6c bd
       0.022782056 0.13871847 0.078358345 -0.05773297
000030 e3 24 a0 3a 52 47 ed bd dd 84 0a 3e 93 fd 1c 3e
       0.0012218024 -0.11585869 0.13527246 0.15331106
000040 c2 d8 bc bc 2b f4 f9 3d 00 a5 23 3d 1f f4 3f 3c
       -0.023052577 0.122047745 0.039952278 0.011715918
000050 78 8f 3e be 81 cb 11 bd dd 3d 9d 3d 7e 1e c5 3d
       -0.18609416 -0.035594467 0.07677815 0.096249565
000060 87 4e 99 bc 63 6b c7 bd da 26 ca bd 13 21 8d bd
       -0.018714203 -0.09737279 -0.098706916 -0.06891074
000070 bf 71 c0 bd 72 c9 07 be 39 9e 30 bd a6 73 0f 3d
       -0.09396695 -0.13260439 -0.043119643 0.0350224
000080 8f cd 8c bd 6e 59 39 3d 0d b0 8d bd b4 b5 28 be
       -0.06875145 0.045251302 -0.06918345 -0.16475564
000090 03 80 0a be b9 37 94 3d 45 12 98 bd 60 70 26 be
       -0.13525395 0.07237191 -0.0742536 -0.16253805
0000a0 cb cb 62 3d a6 7c 89 bd 42 44 eb 3c 63 9f 65 be
       0.055370133 -0.06713228 0.028719071 -0.22424082
0000b0 a9 40 0d 3c 6c a4 34 bc 19 1a 5a bd 54 2d 48 3d
       0.008621373 -0.011025529 -0.053247545 0.048871353
0000c0 d7 76 50 bd b5 5c 30 3d 55 ca 65 bd 05 0f 14 bd
       -0.050894585 0.043057162 -0.056101162 -0.036147136
0000d0 72 ae 94 3c 45 38 dd 3d 10 d6 c4 bc 34 ef cd bd
       0.018149588 0.10801748 -0.024027854 -0.1005539
0000e0 8f 24 34 3e 5a 15 eb bc 3d 5b c6 bd 0e 59 80 3d
       0.17592071 -0.028696705 -0.09685371 0.06266986
0000f0 1d 09 ba bd c4 a0 ea bd 61 6d c6 bd 92 c3 49 3d
       -0.090837695 -0.11456445 -0.09688831 0.049258776
000100 d0 81 43 bd 47 f0 70 bc 3e 40 c5 bc 7c 1d 98 bc
       -0.04773122 -0.014705724 -0.024078485 -0.018568747
000110 a7 0e af 3c 10 cb de bd 42 b2 03 3e cb cf 8d 3d
       0.021369291 -0.10878575 0.12860969 0.06924399
000120 5a 82 9c 3c 9d 3f 2e be a9 0e c9 bc 9c 7d 03 be
       0.019105125 -0.17016454 -0.024543123 -0.12840885
000130 51 fa f7 3c 86 0b 7c bd 37 4d 12 bd d5 1a dd 3d
       0.030270727 -0.061534427 -0.03571817 0.107961334
000140 4d 0d 7d 3e 8f a1 49 3c 51 db 04 3e 9b 46 f7 bc
       0.24712105 0.012306585 0.12974288 -0.030185034
000150 df d7 c0 bd bd d6 c8 bd 07 c5 46 3d 7e df 3d 3d
       -0.09416174 -0.09806583 0.048527744 0.046355717
000160 e6 6a 0c 3e fd 99 36 bd d3 0a 60 bd 91 a5 1f 3d
       0.13712654 -0.04458045 -0.054697823 0.038976256
000170 55 6b 02 bb bb 7b ba bd 05 4c a6 3c 20 82 a5 bd
       -0.00199004 -0.09105631 0.02029992 -0.0808146
000180 ae 63 8c 3d 2e 67 ea 3c c7 e2 18 3d f9 ae d3 3c
       0.0685495 0.028613653 0.037325647 0.02584027
000190 da d7 27 3e 5c 77 2b 3d 7b 34 56 bd 6f e1 12 bc
       0.16390935 0.041861877 -0.052296143 -0.00896488
0001a0 06 c2 ac bc 68 de ad 3d ca 89 9f bc 44 76 a4 bd
       -0.021088611 0.08489686 -0.019474883 -0.0803037
0001b0 c7 bb ab bd c4 21 11 3e e0 7b 91 bd 91 26 bf b9
       -0.08385425 0.14173037 -0.071037054 -0.00036459093
0001c0 5b ac 2b be 4f 9f 27 3d be d8 b6 3c 86 c5 bb 3b
       -0.16764967 0.040923413 0.022320148 0.0057303337
0001d0 36 27 c4 bd 8a 18 ca bc eb fa 9f 3d 3c 9c 01 3e
       -0.095777914 -0.024669904 0.07811531 0.12657255
0001e0 38 c1 85 3d 24 83 ec bc 1b fe af 3d 95 6b 32 3c
       0.06530994 -0.028871126 0.08593389 0.010889907
0001f0 74 2a 33 3d 0a 77 35 3d 10 a4 d8 bd 12 c5 b3 bc
       0.04374166 0.044302978 -0.105781674 -0.021944556
000200 d1 32 39 be d9 4f 85 bd 4b 5e e9 3d ae 77 96 3d
       -0.18085791 -0.0650937 0.11394938 0.07347046
000210 b9 d3 44 3d f7 2a 91 bd 48 e3 77 3d 6f 7d 02 be
       0.048053477 -0.07088273 0.060519487 -0.12743162
000220 8b 27 a4 bd c0 bf e4 bc 9b b4 6f 3d 0b 8e 8e bd
       -0.08015355 -0.027923465 0.05852185 -0.06960686
000230 cf ee a4 3c ac 1b 52 3d c4 60 d8 3d ce 43 2a 3e
       0.020133404 0.05129592 0.105653316 0.16627428
000240 7a 6f a9 bd a5 95 6a 3d a1 1c 1e 3d e8 62 46 bd
       -0.082732156 0.05727162 0.03860152 -0.048434168
000250 55 65 b9 bc 87 fa 61 3e 69 e3 3f bd 51 39 13 3e
       -0.022631327 0.22068225 -0.046847735 0.14377333
000260 e8 c2 a3 3d 88 19 01 be bc 65 4e 3c a7 7c 89 bd
       0.0799616 -0.12607396 0.012597498 -0.06713229
000270 31 6c 19 be d6 39 0e be 0d 77 05 bc 3d 75 12 3e
       -0.14982678 -0.1388925 -0.00814606 0.14302535
000280 a7 eb 69 3d 8e 83 bb bd da 7b a1 bc 18 79 db 3b
       0.0571095 -0.091559514 -0.019712377 0.006697785
000290 89 3e 2e 3d 51 c1 ed bc 60 34 1a bd bd 71 83 bd
       0.042540107 -0.029022845 -0.037647605 -0.06418178
0002a0 1b cf 61 3b 41 a5 3b 3d dd 99 87 3d 7b 5b 37 3d
       0.003445572 0.045811895 0.06621144 0.044764977
0002b0 b4 2e 00 be 2c d7 a1 bb 52 d9 95 3d b0 f5 95 3b
       -0.12517816 -0.0049389806 0.07316841 0.0045764074
0002c0 b9 cc 40 be 09 48 c1 3a 0d 77 a4 bd 94 8a 8f bc
       -0.18828095 0.00147462 -0.0803052 -0.017522134
0002d0 82 1b 40 bd 7a 0d 92 bd 37 65 ef bc c5 c9 38 3d
       -0.046901233 -0.07131477 -0.029223068 0.045114297
0002e0 95 22 b4 bb 96 9f 3f 3d bd 2e 41 3b c5 4e 11 3c
       -0.0054972866 0.046783052 0.002947732 0.008868878
0002f0 ef 47 90 bd 91 75 41 bd cd e1 ad 3d 70 05 11 3d
       -0.0704497 -0.04723126 0.08490334 0.035405576
000300 5e 49 15 bd ab b5 8e bd ec c2 e8 3c 4f 48 1a bd
       -0.03644692 -0.06968244 0.028413258 -0.037666615
000310 4c 20 bf 3d 7e c7 e0 bb 29 34 55 3d 24 14 88 3d
       0.09332332 -0.006859719 0.052051697 0.066444665
000320 10 c9 f7 bc 4b 9d fb 3d 52 f3 01 bd fe 45 dc 3c
       -0.030247241 0.12285861 -0.03172619 0.026888844
000330 9e 14 17 3c af 2f ae bd 4b 01 cb 3d 44 75 f2 3d
       0.009221224 -0.08505189 0.09912356 0.11838773
000340 f5 b2 0e be 54 f4 33 3d 1b f7 ec 3d 4a ae 8d 3d
       -0.13935454 0.04393418 0.11570569 0.069180086
000350 12 e0 5e bd b0 09 63 3d 12 8a 61 3d 6b bd 46 bd
       -0.05441291 0.05542916 0.055063315 -0.048520487
000360 24 66 db 3c 1e 2e b1 bd 31 14 ee bd b8 7e f6 bc
       0.026782103 -0.08651374 -0.11624945 -0.030089721
000370 9b 64 9b 3c ee aa 8b 3d 64 de fd bd 4b f1 3b bd
       0.01896887 0.068197116 -0.12395933 -0.04588441
000380 8a 1c fc bc e5 ff d4 bd 26 3f 7e bc fd 03 c0 bd
       -0.030775327 -0.104003705 -0.015517985 -0.09375761
000390 9e 51 26 3c 77 76 6c ba ed a4 d4 3d b8 7a b6 3c
       0.010151295 -0.0009020338 0.103830196 0.022275314
0003a0 b3 4c 8a bd 3f 01 cc bd f1 1e 07 3d 59 ec a5 bc
       -0.067529105 -0.09961175 0.032988492 -0.0202543
0003b0 ae 0a e9 bb 03 36 7e 3d bd 78 31 3d 9d a9 a5 3d
       -0.007111869 0.06206323 0.043328036 0.08088992
0003c0 c1 3a 4b 3d 28 b4 b2 3d 24 b8 24 bd b2 33 87 3d
       0.04961658 0.08725768 -0.040214673 0.06601657
0003d0 22 c6 62 bd 68 f0 4c bc 34 e0 03 bd 87 d4 0e bd
       -0.055364735 -0.012508489 -0.03219624 -0.03487065
0003e0 bf 63 95 ba ed 8a c5 bc d5 66 6a bd 87 2d d9 bd
       -0.0011397525 -0.024114097 -0.057226975 -0.10604387
0003f0 23 29 d1 bd e5 90 3a ba 9c bf 00 bd c2 38 e6 3d
       -0.10212924 -0.0007116928 -0.031432733 0.112412944

lin1.weight f4 [128, 256]
000000 03 cd cd bc c2 c8 45 bc f8 a4 8b bb 27 ea 80 38
       -0.025122171 -0.01207179 -0.004261609 6.14713e-05
000010 3b 23 4d b9 b8 b0 97 35 aa 12 ec b9 a4 a1 b8 bc
       -0.00019563448 1.1301809e-06 -0.00045027334 -0.022538014
000020 a8 4a e6 bc e5 a3 13 38 60 1e 0e 39 f5 5d c8 bc
       -0.02811177 3.520017e-05 0.00013553491 -0.024458865
000030 2e 30 b3 38 8d 02 4c bc 3f c5 0a b9 cc af 8c b6
       8.544359e-05 -0.01245178 -0.00013234185 -4.1927906e-06
000040 f4 6c cd b9 a2 f4 b3 bc 2a 1f 87 bb 72 66 5a 3a
       -0.00039181823 -0.021967236 -0.004123588 0.00083313056
000050 59 67 04 b7 ab 92 c1 b7 e9 21 02 3a 71 1a 5a bc
       -7.891876e-06 -2.307569e-05 0.00049641595 -0.013311968
000060 a9 d4 2c 38 57 1f da 36 b6 25 39 39 e6 2d 9a b7
       4.120605e-05 6.5005547e-06 0.00017657023 -1.8379604e-05
000070 13 3d a9 bb 44 cb 8d 38 7a d3 4d 37 7e 85 89 3c
       -0.0051647513 6.761265e-05 1.226819e-05 0.016787287
000080 7f e2 1b b9 5e f3 10 b9 4b 1a f6 b7 86 5f 76 37
       -0.00014866328 -0.00013823571 -2.9337729e-05 1.4684983e-05
000090 79 d7 09 3d 0a cd 0b bd 2a 71 26 38 4f 69 05 38
       0.033652756 -0.034131087 3.9682876e-05 3.1807747e-05
0000a0 14 c7 20 b9 25 95 85 b8 70 8b 9f b8 89 15 e3 bc
       -0.00015332951 -6.3697145e-05 -7.607683e-05 -0.02772023
0000b0 93 4f 1e 37 6c 0b 7d 3c 3b e7 49 38 b2 5f 05 3c
       9.436061e-06 0.015444618 4.8137485e-05 0.008140491
0000c0 25 9b 9c bb 5a d8 52 b7 2c f1 d4 ba c6 2e 08 bd
       -0.004779237 -1.2567349e-05 -0.0016246191 -0.03324773
0000d0 86 50 b1 39 af 20 af 3c 02 b4 d4 b7 7e 60 60 3a
       0.00033820065 0.02137789 -2.5356192e-05 0.00085593003
0000e0 82 17 90 b7 d1 74 68 b7 40 d7 c2 3b b0 89 9a b8
       -1.7177084e-05 -1.3855476e-05 0.00594607 -7.3689385e-05
0000f0 9a 84 28 bc 51 30 f3 b8 e8 f6 01 bc bd ad 0a b8
       -0.010285521 -0.000115961426 -0.007932402 -3.306357e-05
000100 1f 6a 91 38 09 20 6f b8 7c fd 4b 38 10 86 01 3d
       6.9339054e-05 -5.7011875e-05 4.8635047e-05 0.031621993
000110 27 e9 2e ba ce ec 0d bd a4 2a 44 39 27 83 c0 bc
       -0.00066723156 -0.034649663 0.00018707901 -0.023500038
000120 3e 7e bb b7 95 16 74 3c aa 87 2a b9 13 89 94 bb
       -2.2350923e-05 0.014897962 -0.00016263002 -0.004532942
000130 55 85 63 3b 19 50 ba 38 6f 02 6c b7 29 b0 98 bc
       0.0034716923 8.8840905e-05 -1.4067263e-05 -0.018638687
000140 12 fa 51 b9 ba 38 02 b8 1b 6d 26 bd 74 2b 04 b9
       -0.00020024952 -3.1047246e-05 -0.040631395 -0.00012604689
000150 e3 e1 1e 3a 00 a2 62 b7 33 1a 12 b9 9a 1c af 37
       0.00060608814 -1.3508368e-05 -0.00013933405 2.0874944e-05
000160 90 b2 14 bc 2c ee 7a b5 73 c2 13 b9 45 82 ae bc
       -0.009075776 -9.3478843e-07 -0.0001409145 -0.021302352
000170 8d 6a bb 3c b6 f0 31 b9 55 8f ae b8 9b 2c 0d 3c
       0.022877956 -0.00016969707 -8.323664e-05 0.008616592
000180 88 0b d8 ba d9 e2 e2 3c 7c 07 65 3a 0b af 08 38
       -0.0016482929 0.02769606 0.0008736772 3.258795e-05
000190 e9 52 4e bb 97 c9 2c bd da 0c 4f 39 3d 89 5f b8
       -0.0031482524 -0.04218444 0.00019745846 -5.3295156e-05
0001a0 1e e2 a3 39 fe 85 66 38 61 0f a7 b8 73 8c 91 b8
       0.00031258253 5.4961063e-05 -7.966045e-05 -6.9402995e-05
0001b0 93 4d 36 38 fe 85 d4 bc 19 22 bc b8 a2 61 07 b9
       4.3464428e-05 -0.025942799 -8.97089e-05 -0.00012910974
0001c0 ea 8b cb b6 ab d9 2d b7 27 56 ae 3c 16 af fc 36
       -6.0661596e-06 -1.0362283e-05 0.021281315 7.530568e-06
0001d0 59 e4 ba 3a 1c e2 a3 b6 c1 87 4a b6 64 d4 13 b7
       0.0014258727 -4.884101e-06 -3.0179365e-06 -8.811334e-06
0001e0 80 c3 47 38 6a 4a 62 3c 7a 15 db b7 2c 8e 13 bd
       4.762737e-05 0.013811687 -2.6116835e-05 -0.036024258
0001f0 59 f6 a0 39 9b 09 98 b7 09 8a 9e 3b 9a 76 26 b8
       0.0003070112 -1.8124285e-05 0.0048382324 -3.968794e-05
000200 b7 87 9b bc b9 f6 e0 bb de 5b 99 3c b0 e0 8a 38
       -0.018985612 -0.006865349 0.018720564 6.622204e-05
000210 85 4b f7 39 3d a8 08 bb df e1 29 bd a0 fb 17 bd
       0.00047167778 -0.002085223 -0.041475173 -0.037105203
000220 79 c5 c7 3c ea c7 81 3c f8 7c 32 3c a9 fa 82 3c
       0.024386154 0.015842397 0.010894053 0.015988665
000230 6b 32 ad 37 45 27 fc bb d0 5a 51 bb af 86 10 bd
       2.0646685e-05 -0.007695111 -0.0031944998 -0.035284694
000240 6f 90 06 3c 27 34 47 b9 8c e5 c1 bc 4f 4a 4f bb
       0.008213147 -0.00018997547 -0.023669027 -0.0031629985
000250 41 18 21 3b a6 35 a1 3c ac a5 c2 bc cf 67 cd bc
       0.0024581107 0.019678902 -0.02376064 -0.025073914
000260 04 14 9b 3c df a5 98 37 a2 74 12 3c 7c de 5a 3b
       0.018930443 1.8197052e-05 0.00893894 0.0033396771
000270 e0 8e 7b 3c dc 38 04 3b aa 01 9e ba c1 39 8d bc
       0.015353888 0.0020175492 -0.0012054939 -0.017239453
000280 d0 77 1a bd 73 0b 9a bc db 45 e7 bb f9 7a a9 b8
       -0.03771192 -0.018804288 -0.007057888 -8.0814534e-05
000290 60 f2 17 3b 60 6b b8 bc 80 be f7 ba cd e1 80 bc
       0.0023185238 -0.022512138 -0.0018901378 -0.01573267
0002a0 bd e1 ec bb e6 62 ce 3c e8 6f 4a bc f0 c4 e2 3c
       -0.0072290585 0.025193643 -0.012355782 0.027681798
0002b0 0c fc 36 bb fc a2 f9 3b ed 91 a3 ba 51 8d 17 3d
       -0.0027921228 0.007618306 -0.0012479402 0.037000004
0002c0 2a 27 17 bb 1e 06 51 3c 98 b5 56 3a 75 61 8c bc
       -0.0023064115 0.012757806 0.0008190512 -0.017136315
0002d0 01 02 d6 ba 72 33 10 3d 5d 2e b4 bb 3a 46 03 3d
       -0.0016327502 0.035205312 -0.005498691 0.032049395
0002e0 ae 45 d5 bc ad 2a 3d bd 68 0d 26 3d 02 2e d6 3c
       -0.026034202 -0.046183277 0.04054013 0.026144985
0002f0 3e 2f c2 3b c8 75 17 bc 48 cd a9 bc 2f 27 0c bb
       0.005926042 -0.00924439 -0.020727769 -0.002138566
000300 15 8d a8 39 fb ea 73 3c 1e 5e 39 38 a2 19 57 bd
       0.0003214857 0.014887567 4.419509e-05 -0.05251468
000310 76 55 f6 3c f9 59 c7 bc b4 a7 e4 3c ea e0 80 bc
       0.030070048 -0.024334894 0.027911998 -0.015732247
000320 61 2b 3a 3c 1e 03 81 3c 21 ae 54 b7 f2 69 73 3c
       0.011362881 0.015748557 -1.2676727e-05 0.014856802
000330 fd 60 81 bc af cd ae bc b0 a0 e6 3b ea 0d 36 3d
       -0.015793318 -0.021338312 0.0070381984 0.044446863
000340 63 e5 d7 b9 b4 69 81 3c 71 2e a4 39 7a 4e 88 3a
       -0.00041178902 0.015797473 0.0003131512 0.0010399364
000350 92 14 fe ba 76 b0 da bc e6 c0 fb bc 8d 39 38 3b
       -0.0019384793 -0.026695471 -0.03073163 0.0028110475
000360 03 99 01 bd e3 8e 0d bb 45 fc dc 3c 72 3a e5 3c
       -0.031640064 -0.002160006 0.02697576 0.02798197
000370 19 bc 31 3d 8c 6f 2e 3c da 90 f7 b6 90 0a 90 bc
       0.043392275 0.010646712 -7.3780366e-06 -0.017583162
000380 1e e9 0e 3c 49 7a 64 3a 32 81 57 bb 43 fe 27 bb
       0.008722572 0.00087157317 -0.0032883403 -0.002563373
000390 3a 99 26 3c a3 2b 81 bc d3 36 ac bc 8d 3c e4 3c
       0.010168368 -0.015767878 -0.021022236 0.027860904
0003a0 08 0a 8b bb b0 b6 42 3b 0c ef 0a 3d f2 87 b2 3c
       -0.004243139 0.002971094 0.03391938 0.02179334
0003b0 9f b1 f7 39 d0 9a b0 3c ed 39 bd 3c de 75 06 bd
       0.0004724385 0.021558195 0.02309891 -0.03282725
0003c0 78 9e 60 38 43 26 47 3c a6 df 22 3d c6 15 9d bc
       5.3553347e-05 0.012155118 0.03976407 -0.019175421
0003d0 aa 0f 6b 3a 7e 62 d7 bc 2d b6 a9 bc 1f 68 89 bc
       0.00089668727 -0.026292082 -0.020716751 -0.016773282
0003e0 42 c3 1d bd fa ae 47 bd 7c 9f 01 3d 45 8c 39 bc
       -0.03851629 -0.048750855 0.031646237 -0.011324947
0003f0 b7 67 c5 38 ca b4 97 bc d7 ac 1c bd a8 40 07 bd
       9.4130104e-05 -0.018518824 -0.03825077 -0.033020645

lin1.bias f4 [128]
000000 02 21 d6 3c c0 78 c3 bc fc 68 10 bc b4 4f 1f bc
       0.026138786 -0.023861289 -0.008814093 -0.009723593
000010 94 91 ae ba 04 63 6b 3d 55 40 ba 38 46 ec 16 3b
       -0.0013318532 0.057467476 8.881154e-05 0.0023029014
000020 07 df 8c 3d b5 d7 5d 39 07 59 80 3b de 12 13 bc
       0.068784766 0.0002115656 0.003916863 -0.008976666
000030 2c e1 b0 ba 30 89 b6 bc d2 18 e2 b9 a5 3f e1 bc
       -0.0013494841 -0.022282213 -0.00043124572 -0.027496168
000040 34 ec 11 3b 03 02 35 b7 1c 0f f0 3b 27 f2 ae 3c
       0.0022266032 -1.0788909e-05 0.00732602 0.021355702
000050 d6 63 e6 38 ce ab 2e b8 a8 7c 63 3d cd 55 d4 3a
       0.000109858505 -4.164484e-05 0.055538803 0.0016199887
000060 a2 81 35 3d f3 aa 85 3c d5 90 a7 3b 33 89 f5 bc
       0.04431308 0.016316867 0.005113701 -0.029972648
000070 6e 7a 09 bb 7e c8 ec bc 4b 24 52 3b 95 4a 34 3c
       -0.0020977515 -0.028904196 0.003206509 0.01100411
000080 48 b9 fe bb 7c 9c 8a bc 0f f2 79 b9 c0 7e 17 b9
       -0.007773552 -0.01692032 -0.00023836664 -0.000144477
000090 06 b3 37 ba 39 0a 2c 3d f7 8c 0b b9 4e ff 6c bc
       -0.00070075726 0.042001937 -0.00013308586 -0.014465166
0000a0 ac 01 62 ba 68 b5 47 b8 8c 26 ee 3a ec 93 0f 3d
       -0.0008621465 -4.7614245e-05 0.0018169447 0.03505318
0000b0 29 90 a8 ba c8 89 45 b9 e0 d2 78 3c 25 98 58 3a
       -0.0012860346 -0.00018838712 0.015186995 0.00082624174
0000c0 fd fa 81 3c 01 a1 43 3b 9a a2 1d 3c bb ce b1 bb
       0.01586675 0.0029850604 0.009621287 -0.0054262555
0000d0 dc d5 0b ba 83 85 a0 bc aa 0d 38 3c 06 13 0a bc
       -0.0005334297 -0.019594913 0.0112337265 -0.008427387
0000e0 a7 f0 2a 3d ab 44 e7 bb 6e e4 50 b9 12 87 32 bd
       0.04173341 -0.0070577464 -0.00019921522 -0.043585844
0000f0 57 73 3b bd dc c7 22 3a 68 bf 6a bc ca 0b 50 bd
       -0.045764294 0.0006209591 -0.014327861 -0.050792493
000100 66 4c 55 bd be d6 bf b9 3e e8 00 bc f4 9e 44 b8
       -0.052074812 -0.00036590354 -0.007867871 -4.6878078e-05
000110 b2 63 6c b9 14 bb 7f 3b cc 46 1a 3c a0 8f ea 37
       -0.00022543853 0.003902142 0.009416293 2.7961854e-05
000120 fc fa b5 bb a2 97 95 ba 23 6c a4 bc 9f 72 d4 3b
       -0.0055536013 -0.0011412988 -0.020071095 0.0064833905
000130 f4 a9 01 3d 66 f9 31 b9 b3 92 6d bb cf 38 1e bd
       0.03165622 -0.00016972944 -0.003625077 -0.038628396
000140 82 9d 9a 39 d8 cb 7e ba de b6 86 3b 9a 28 0e bd
       0.0002949052 -0.0009719706 0.004111155 -0.03470669
000150 7b 81 98 b9 b1 a3 36 3d 00 a5 a3 b9 e4 47 a6 bb
       -0.0002908817 0.044589702 -0.00031212717 -0.005074488
000160 d2 bf b0 3b 4c 7c 50 3d 5d fc 4f 3a 24 c9 f7 bb
       0.0053939605 0.05089979 0.00079340284 -0.0075618196
000170 50 f3 6a 3d 8a 15 1b bd 30 0d 04 bc a4 7b 9f bb
       0.057360947 -0.037862338 -0.008059785 -0.004867034
000180 07 ce 7c 3d bf 3c 21 3a 2b 07 75 b9 6c d0 11 bc
       0.06171992 0.00061507145 -0.00023367691 -0.008899789
000190 b4 d0 04 bb fd 3a b3 3c 23 fe 26 3d 2f b0 27 bd
       -0.0020265998 0.021878714 0.040769707 -0.040939506
0001a0 ef d8 8d ba 9d 57 7d bc 6e b0 12 3b 01 67 17 3c
       -0.0010822098 -0.015462783 0.0022382992 0.009240867
0001b0 57 fe 82 bd 90 66 20 bd cc 6b 12 3d 44 6c 22 bd
       -0.06396168 -0.03916031 0.035747334 -0.03965403
0001c0 db 5f 25 bc be 78 b9 ba f3 d2 9c 3c 6a 30 c7 39
       -0.0100936545 -0.0014150364 0.019143557 0.0003799231
0001d0 9d 6c da 37 b3 e5 9b 39 96 39 07 bb 70 f5 03 bd
       2.6038202e-05 0.00029735043 -0.002063369 -0.03221649
0001e0 96 9d b0 b9 07 b6 5b bb ee 96 b6 39 fa 0b f8 39
       -0.00033686747 -0.0033525245 0.00034826196 0.0004731117
0001f0 10 3d 1e 3d 8d ea f6 ba 50 f2 81 bc 50 6d 1f 3a
       0.038632452 -0.0018838212 -0.015862614 0.00060816575

lin2.weight f4 [64, 128]
000000 c2 67 df 3b 05 c5 7d 3d 5e bd dd b8 c6 f2 c2 36
       0.006817789 0.06195547 -0.000105733736 5.809913e-06
000010 9c 26 84 bb e0 5e ad 3c f4 42 da 3b 10 be a5 3b
       -0.004032923 0.021163404 0.0066608135 0.0050580576
000020 af a6 95 3d 34 88 54 3d 73 53 bf bc 3b 10 ea bc
       0.07307183 0.051887706 -0.023355221 -0.028572192
000030 ae a5 5f b9 50 85 43 3b 15 33 38 3b a5 0c 5f bd
       -0.00021328658 0.00298341 0.002810662 -0.05445542
000040 09 74 0f bd fa e6 48 bd ce 5b 95 bd bf bf 0e bd
       -0.03502277 -0.0490484 -0.07292901 -0.034850832
000050 e3 b5 0a 3c 10 38 36 34 b3 75 3b bd f5 06 29 ba
       0.008466217 1.6970466e-07 -0.045766544 -0.0006447875
000060 51 a9 c2 bb b3 dd 22 bc 7b c0 29 3d da 4a 14 bd
       -0.0059405942 -0.0099405525 0.04144333 -0.036204197
000070 cd dc 17 36 04 e8 24 bd 2f 82 4d 3d 50 96 ee bb
       2.2629276e-06 -0.04026033 0.05017298 -0.0072811022
000080 a9 fc e2 b5 ff fd 92 3d 47 52 aa 3b 41 b5 cc b9
       -1.6911846e-06 0.07177352 0.0051977965 -0.00039044957
000090 31 3a 71 b8 82 d5 35 bd 85 a3 d8 bc 4e b8 85 3d
       -5.7513073e-05 -0.04439307 -0.02644516 0.06529294
0000a0 4a a2 b6 38 a0 fd 87 3b b4 05 91 bd cf e2 20 3d
       8.708665e-05 0.0041501075 -0.07081166 0.0392788
0000b0 82 11 ab 3b d4 84 b0 3b 97 89 fe 3a 49 13 c0 3c
       0.005220593 0.005386928 0.0019419667 0.023446696
0000c0 1c 7d 02 3d 3c 3e 2b b7 d6 ac a3 bd ae 80 2a b8
       0.031857595 -1.0206884e-05 -0.0799195 -4.0651e-05
0000d0 ac d2 af b5 64 99 15 3b 78 8c 4a bd 72 52 77 3d
       -1.309983e-06 0.0022827024 -0.049450368 0.06038136
0000e0 c3 9b 86 b5 b0 22 72 b5 d8 48 57 39 f7 8d 08 3d
       -1.0029111e-06 -9.02025e-07 0.00020531134 0.033338513
0000f0 80 1a bf bc 24 21 17 b8 e4 2a 42 b8 7c a4 6a bd
       -0.023328066 -3.603207e-05 -4.629315e-05 -0.05728577
000100 bb 57 34 3c 85 87 d0 3a 31 78 ed 37 fe 0a 75 3d
       0.011007245 0.0015909529 2.830857e-05 0.059824936
000110 62 2c 9a 36 a2 b2 95 bd e6 d9 23 3c 10 99 c4 3b
       4.5947245e-06 -0.07309462 0.0100006815 0.005999692
000120 f8 69 90 36 62 0f ab bb b3 4f 92 3d ab 4c 89 3d
       4.303871e-06 -0.0052203396 0.07144108 0.067040764
000130 99 21 19 3d 97 8e 1e 37 3c 8f 44 b6 8f 2a 3a bd
       0.037385557 9.450733e-06 -2.928965e-06 -0.045450743
000140 cc 68 49 39 24 a7 9e 3c 4a 5e fc 3b e8 d4 13 bc
       0.00019207894 0.019366808 0.00770167 -0.009022929
000150 e5 53 8f bd 79 6a 8f 3d 82 74 3b 39 23 de a9 b8
       -0.069984235 0.0700273 0.00017877112 -8.099924e-05
000160 28 6d 0a 3d 95 00 18 bd 99 d4 0d 37 e8 4b 19 3d
       0.033795506 -0.03710993 8.453754e-06 0.037425905
000170 e5 fc 50 bb 4e 78 cf bc d1 14 a3 bd e0 2d 02 bd
       -0.0031889018 -0.02532592 -0.07962955 -0.03178203
000180 6b e0 3a 3d c4 f5 8a 3d a9 4f ac 37 b5 ca 15 39
       0.045624178 0.06785157 2.0541092e-05 0.00014285262
000190 6f d1 34 3d 7e ec 20 3d 0e 62 d6 bc 08 4c b5 39
       0.044145044 0.039288037 -0.026169803 0.00034579658
0001a0 67 1e d4 b8 f4 72 3b 3d 29 01 40 bd c3 f5 85 3d
       -0.000101146106 0.045763925 -0.046876106 0.06541016
0001b0 d2 f6 27 3d 7b 63 19 bd 9b e5 85 bd e9 33 aa 3b
       0.04100687 -0.037448388 -0.065379344 0.0051941765
0001c0 14 6e 56 bb 56 46 a2 b7 12 ab ce bc f8 55 ea bc
       -0.003271942 -1.9344658e-05 -0.025228057 -0.028605446
0001d0 5b bc 4e 3d a3 7b e6 b9 72 7b 3b 3d 44 16 87 3d
       0.0504726 -0.00043961135 0.045772023 0.06596044
0001e0 63 fd 60 39 78 89 f7 3c bd dd 9c 36 ff ab 5d bd
       0.00021456699 0.030216917 4.674976e-06 -0.054119106
0001f0 8c 0b 60 3d 98 a6 8f b6 d1 f7 8f 3d 71 7a 4f bb
       0.054698512 -4.281126e-06 0.07029689 -0.0031658674
000200 92 f5 34 3c d8 4a 87 39 a1 71 a2 3c 58 a6 a3 3b
       0.011044877 0.0002580497 0.019829573 0.004994195
000210 8a 21 a8 b8 98 e7 87 3d 2a c5 e4 b8 8e ca 6d ba
       -8.0171114e-05 0.0663597 -0.00010908612 -0.00090710155
000220 13 c8 52 3d e8 ab 85 38 e2 2f 10 bc 3d 43 68 3c
       0.051460337 6.373954e-05 -0.008800479 0.014176187
000230 b8 af f2 b9 f1 25 4d 3c 40 ff 06 3b 38 e2 92 bd
       -0.00046288758 0.012521253 0.0020598918 -0.07172054
000240 98 c2 02 b8 7f 29 f5 b7 35 6f 7d 3d 22 bf d3 bd
       -3.1175645e-05 -2.9225599e-05 0.061873633 -0.1033919
000250 37 4c 5c 39 03 5c 0f ba b0 4a c9 3d 75 9a 9a b8
       0.00021009227 -0.0005468728 0.09828699 -7.372062e-05
000260 b7 07 05 bd 9d be 24 3d dd a4 93 bc a2 78 05 bc
       -0.03247806 0.040220845 -0.018022949 -0.008146437
000270 15 8c 8d 3b d6 cb 69 bc 9e 0e 2e 39 47 53 b5 3d
       0.0043196776 -0.01426979 0.00016599378 0.088537745
000280 b6 fe ba ba 28 4f f8 3c 12 7b 7d 3b e8 7c 14 3b
       -0.0014266584 0.030311182 0.0038678092 0.0022657458
000290 67 cf 7d bb e8 6b 85 3d 24 e3 ac 3a b2 09 98 b9
       -0.0038728358 0.06514722 0.0013190252 -0.00028998923
0002a0 f8 8f ca 3b 8a 70 32 3b 72 7b c8 bb 12 e9 7f 3d
       0.006181713 0.0027227723 -0.0061182315 0.062478133
0002b0 c5 d0 a0 3b ab 16 a0 ba c4 2f 93 bd e8 fe 56 37
       0.0049077 -0.0012213787 -0.07186845 1.2814744e-05
0002c0 02 19 a3 bd 4d ef 14 3c 59 71 4a bd ad 4e c6 3b
       -0.07963754 0.009090257 -0.049424503 0.0060518594
0002d0 96 dc 3c 3a 29 99 96 bb a2 14 a6 bd 9a 0d f2 bc
       0.0007204501 -0.004595895 -0.08109404 -0.029547501
0002e0 99 2b f5 3b ee 1c 4f 3d 5c cf 30 b9 ce 35 84 bc
       0.007482004 0.0505647 -0.00016861915 -0.016138937
0002f0 ce 0f 13 bd 74 48 fe b9 d3 71 ef bc e6 b1 fa 3d
       -0.035903744 -0.00048500637 -0.02922908 0.12240963
000300 73 d1 f3 3d a6 af eb b7 6a 91 70 3a 48 a6 85 b6
       0.11905184 -2.8095976e-05 0.0009176942 -3.9830666e-06
000310 ef 6d 86 bb d9 ca 76 3d 4b e9 f4 3a f6 27 71 b9
       -0.0041024606 0.060252044 0.0018685249 -0.00022998438
000320 d9 0a 51 bb 4e 6f fa 3c ca 73 12 36 29 2e 54 3d
       -0.0031897335 0.030570652 2.1823093e-06 0.051801834
000330 c6 07 86 3a 7e 2b 0e 38 9d 37 8c 3b 97 f9 14 bd
       0.0010225705 3.3895943e-05 0.0042790906 -0.03637084
000340 b2 12 c1 b7 b3 46 e6 3d 30 80 fb 3a d0 c3 8f 3c
       -2.3016099e-05 0.112439536 0.0019187983 0.017549425
000350 09 65 e5 ba f7 3d 6f 3a 32 5f a9 38 03 8f 7f bb
       -0.0017501424 0.000912636 8.0762795e-05 -0.0038995154
000360 fa 20 66 37 05 c8 a6 3d 2d 57 51 ba bc ca ab b8
       1.3716746e-05 0.081436194 -0.00079857075 -8.1916776e-05
000370 a7 0c 14 3d 57 3e e5 3c df 42 21 3d f7 f2 83 bb
       0.03614488 0.027983828 0.039370414 -0.0040267664
000380 53 21 b6 bd f7 b3 59 b7 7b 9c b4 b7 6e 57 aa bb
       -0.08893075 -1.2976109e-05 -2.1530539e-05 -0.0051984107
000390 30 5f 2a bc cb ee 90 bd cb 8c 26 3c f0 7d d9 34
       -0.010398671 -0.07076796 0.010165404 4.051103e-07
0003a0 08 a0 85 bb 56 92 cb bc 22 91 29 bd 22 46 af 3d
       -0.004077915 -0.024850052 -0.041398175 0.08558299
0003b0 49 bf 7b 3c 05 1d a8 bd ca 23 b4 3b 59 ba d5 3d
       0.01536543 -0.0820866 0.0054974305 0.104359336
0003c0 ae 50 29 bc 7e db 6a 3b 1b 72 e2 3c 05 ca 57 bd
       -0.010334177 0.0035836394 0.0276423 -0.052682895
0003d0 8d c0 b7 b7 39 de 83 38 fa d1 07 bc c2 69 39 bd
       -2.1904963e-05 6.287959e-05 -0.008289808 -0.045266874
0003e0 43 37 26 3a 3d 4f 3c b8 4a bb 1a 3b e2 74 15 3d
       0.0006340632 -4.489649e-05 0.0023610168 0.03648842
0003f0 20 dc 0e b8 79 2d 73 b9 da c3 e0 bd 6a d6 56 3b
       -3.4060446e-05 -0.00023191226 -0.10974856 0.003278161

lin2.bias f4 [64]
000000 80 43 63 3d b2 14 8f bd 13 9d 69 bb b6 cd 3d 3d
       0.055484295 -0.06986369 -0.0035646602 0.04633876
000010 2f ad b1 3d e4 3b d5 bb ec 88 ac b8 85 be cb bc
       0.0867561 -0.0065073837 -8.227103e-05 -0.02487112
000020 7a 40 ba ba 26 a6 39 39 28 a3 0b bd c5 29 50 3d
       -0.0014209889 0.0001770487 -0.034091145 0.050821085
000030 ec 99 70 3c a7 3e 73 3d b7 a2 84 bd ae 55 d3 3b
       0.014685135 0.05938592 -0.06476348 0.006449423
000040 b6 dc 39 3d 58 fa 2c 3c 9b 72 38 3b b6 84 da bc
       0.045376502 0.0105577335 0.0028144482 -0.02667461
000050 7b f0 b1 3c 85 3b ed bc ff 40 c8 3d 27 92 44 37
       0.021721115 -0.028959045 0.09778022 1.1716539e-05
000060 d2 34 a8 bc 05 bc 2f 3d ca 83 93 3b 59 3e 40 ba
       -0.020533 0.04290392 0.0045017945 -0.0007333509
000070 11 f4 95 bc f6 ae 1c b9 2a 40 11 3c 10 f4 c2 3d
       -0.018304856 -0.00014942497 0.008865396 0.095192075
000080 49 ce 11 bd 71 87 4f 3d 0f 80 ac bb 75 08 36 bc
       -0.03559712 0.050666276 -0.005264289 -0.011110415
000090 4b 89 57 bd f8 42 29 bd c9 b4 c8 bc cd 48 e8 bb
       -0.052621167 -0.041323632 -0.024500268 -0.0070887567
0000a0 1b f6 64 ba 56 8a 5b 3d c3 7f 3e 3d 53 0b 9e 3b
       -0.00087341823 0.053598724 0.04650856 0.0048231273
0000b0 c1 06 77 3d 38 4c 85 3c 48 14 f8 b6 2e 8f 86 3b
       0.060309175 0.016271695 -7.393337e-06 0.004106424
0000c0 ae e4 81 3c bc e1 7e bc 3c 7f 1e bd 51 82 4f 3d
       0.015856113 -0.015556749 -0.03869556 0.05066139
0000d0 e0 31 1f 3d 19 05 93 bd b3 f4 4f b9 c1 f9 d2 bc
       0.038865924 -0.07178707 -0.00019832216 -0.025753858
0000e0 6c 2f 6b bb 43 9c 9a 3c 0b 9a cd 3d d4 a3 d8 b7
       -0.003588642 0.01887334 0.10039147 -2.5825495e-05
0000f0 ce 9a a7 3d 60 f4 ab 3b 67 1f 38 3d 4a 1a 27 3c
       0.081838235 0.0052476376 0.044951823 0.010199139

lin3.weight f4 [2, 64]
000000 c7 57 7f bd 28 99 4a 3b 27 40 41 bc c0 83 f2 3d
       -0.06233957 0.0030914042 -0.01179508 0.118415356
000010 c1 0d bb bd 6e f7 a9 ba b5 f5 f6 38 48 26 be 3d
       -0.09133483 -0.0012967417 0.000117759606 0.09284645
000020 41 12 b5 b8 d5 a2 72 3c c8 d4 4e bc a8 16 82 bd
       -8.6341526e-05 0.01480933 -0.012623973 -0.063519776
000030 05 92 c9 3d 40 aa a7 3c cb d8 73 3b 36 b6 52 3d
       0.09842304 0.020466924 0.0037208076 0.0514433
000040 bf ea 36 bd 4e 2b d9 bd f3 05 b4 3c 12 6e 00 be
       -0.044657465 -0.10603963 0.021975493 -0.12541988
000050 7e b6 c9 3c b1 78 d2 3d 07 5b 0a 3e d1 81 91 36
       0.024623152 0.10276926 0.13511287 4.3364494e-06
000060 31 e1 10 bd ed 60 02 be 9e bc 48 bd 62 37 8e bc
       -0.03537101 -0.12732287 -0.049008004 -0.017360393
000070 d4 9d 7b bd 34 15 ef 3b 3d 47 59 3d 36 3f b1 3c
       -0.061429814 0.007296229 0.053046454 0.021636587
000080 56 45 a8 3d 68 76 a0 3d 8d 81 b2 bb d0 2a 3c 3d
       0.0821635 0.07835084 -0.0054475726 0.045939267
000090 e4 4d c4 3b 26 e6 81 ba fd 2d b9 3d 36 88 60 3d
       0.0059907306 -0.0009910509 0.09041975 0.0548174
0000a0 33 11 9c bb e5 71 a1 bd eb 08 9f 3d 7a 53 bd 3d
       -0.0047627925 -0.07883052 0.07765373 0.092444375
0000b0 a7 6f b3 bd 87 e9 e7 3c 34 e3 29 b8 90 ae 8f 3a
       -0.0876153 0.028309597 -4.050434e-05 0.0010962058
0000c0 30 06 37 bc ff 52 89 bd 1f cb 68 bd 1a 2e bd bd
       -0.011170909 -0.067052834 -0.056834336 -0.09237309
0000d0 d0 ab c3 3d 61 f9 e1 bd c7 d5 92 b7 67 cd fd bd
       0.09554255 -0.110338934 -1.7504104e-05 -0.12392693
0000e0 d2 53 4e b8 12 3d 59 bd ad fc f9 3c 61 bd 39 bc
       -4.919229e-05 -0.053036757 0.030515993 -0.011336655
0000f0 cb ad bb 3d 0c f6 a1 bd b0 59 f6 3d 77 b8 b4 bd
       0.09164008 -0.07908258 0.12028825 -0.088242464
000100 bd 6c e4 3d 87 95 1d 3e 59 fc a4 ba 68 3a af bd
       0.11153553 0.15389071 -0.0012587412 -0.08556062
000110 03 cd b6 3d a3 29 a0 3d ae 23 87 bc 74 28 bd bc
       0.08925822 0.078204416 -0.016496506 -0.023090579
000120 63 0f 03 bc 25 a9 aa 3c dc 6c a6 3d 58 92 df 3b
       -0.007999274 0.020832608 0.08126232 0.0068228655
000130 c1 48 d8 bd 69 93 a2 bd 67 84 4e 3d 31 f7 25 3d
       -0.10560752 -0.079382725 0.050419237 0.040518943
000140 b1 b0 99 3d da 3b 8c bd 3d f6 9c ba 1a 52 c0 3c
       0.07504404 -0.06847353 -0.001197524 0.02347665
000150 be e0 1c 3a 23 c2 8a 3d b2 7a 75 3d 26 4a 98 38
       0.0005984417 0.0677531 0.059931464 7.261736e-05
000160 7e ec e6 bc d9 c7 da 3d 3b c1 89 3d ad 4c 82 bb
       -0.02818894 0.10682649 0.06726309 -0.0039764256
000170 c0 e8 fd 3d 04 dc ac 39 3a 03 78 bd df 18 2a 3e
       0.12397909 0.0003297032 -0.060549952 0.1661105
000180 df 10 a3 bd 47 3e c5 3c 6b 35 8a bc c5 e6 8d bc
       -0.07962202 0.024077548 -0.016871175 -0.017321954
000190 5f 5c 1f 3e 8e 7b ba 3d 4c 35 b7 3d 8b d8 8c 3d
       0.1556258 0.091055974 0.089457124 0.0687724
0001a0 58 7a 8d bc f8 7f 1d 3e e8 94 3f 3d 6d 81 5e bd
       -0.017270252 0.15380847 0.046772867 -0.05432265
0001b0 cd 17 c5 3d 29 4c 80 bd b2 ab 0c bc 64 03 97 3c
       0.0962368 -0.062645264 -0.008585857 0.018434234
0001c0 c8 45 12 be 44 c6 a7 bb 3f 57 cb 3c a4 4e 92 3c
       -0.14284432 -0.0051200707 0.024821876 0.017859764
0001d0 47 c7 3f bd 6f 09 82 3d 77 44 3e 37 32 ea c9 bc
       -0.046820905 0.063494556 1.1340823e-05 -0.024647806
0001e0 2c 7d 9b bc 12 d2 0d 3d 60 6b 57 bd c3 a8 60 3c
       -0.018980585 0.034624167 -0.052592635 0.013712111
0001f0 b6 36 b2 bc 11 15 01 be 7f 97 46 3c f9 29 34 bd
       -0.021754604 -0.12605692 0.01212108 -0.04398534

lin3.bias f4 [2]
000000 b9 6d 8a bd d2 13 10 bc
       -0.06759209 -0.008793788
