models/2conv1pool/best_model_cov2pool1_testaccuracy0.8393.pth (torch, 237666 bytes, 11 tensors)

convpool_layers.0.conv.weight f4 [1, 128]
0	0x3e2a47ea	0.16628996
1	0xbe2146fa	-0.15749732
2	0x3db4872c	0.088148445
3	0x3e15cb87	0.14628421
4	0xbda16ac3	-0.07881691
5	0xbe166e0b	-0.14690416
6	0xbd5edc07	-0.054409053
7	0x3ca3760f	0.019953756
8	0xbcf4179b	-0.029796412
9	0x3e054ed9	0.13018359
10	0x3e293cae	0.16527054
11	0xbcf1d07b	-0.029518357
12	0xbbd41d35	-0.0064732083
13	0x3d199521	0.037495736
14	0xbd857f9b	-0.065184794
15	0x3caecd43	0.02133811
16	0xbd828dfa	-0.06374736
17	0xbdacdb30	-0.08440244
18	0xbbea4f73	-0.0071505844
19	0xbda599a8	-0.08085948
20	0xbd8e0110	-0.069337964
21	0xbd72a5e9	-0.059240256
22	0xbc368a24	-0.011141334
23	0x3e37ee84	0.1796208
24	0xbd4c1a14	-0.049829558
25	0xbe21b843	-0.15792947
26	0xbe25ffd2	-0.16210869
27	0xbc2e726a	-0.010647396
28	0xbd437c39	-0.04772589
29	0x3e4cf5f5	0.200157
30	0xbdf909ae	-0.121600494
31	0xbd0cb2cd	-0.034350205
32	0x3def048b	0.116707884
33	0x3e5d9f69	0.21642841
34	0xbe0b6696	-0.13613352
35	0xbaaf7e7b	-0.0013389135
36	0xbc63490c	-0.013872396
37	0x3e5673b9	0.20942582
38	0x3ca75e14	0.020430602
39	0x3da1439d	0.07874224
40	0x3e4e26d1	0.20131995
41	0x3e478766	0.19485244
42	0x3d9a4645	0.07532934
43	0x3d62695a	0.055276252
44	0x3e192c41	0.14958288
45	0xbd5e409a	-0.054260828
46	0x3e36beff	0.17846297
47	0xbd885db5	-0.06658498
48	0x3e519b1b	0.20469324
49	0xba9769e2	-0.0011551941
50	0xbe2b2b56	-0.1671575
51	0xbdc116e8	-0.09428197
52	0x3e5b9a7f	0.21445654
53	0x3d7f6de8	0.062360674
54	0xbc7ec3e9	-0.015549638
55	0xbd30bf57	-0.043151226
56	0x3dfc016a	0.12304957
57	0xbdd07108	-0.10177809
58	0x3e0a3b92	0.13499287
59	0x3d8a4a6b	0.06752475
60	0xbe0e9969	-0.13925709
61	0xbd43422d	-0.047670532
62	0xbd9ca35e	-0.07648347
63	0x3e1ca289	0.15296377
64	0x3e54ba48	0.20774186
65	0x3e403cd8	0.1877321
66	0xbbfcbbe7	-0.0077128294
67	0xbd1b2463	-0.037876498
68	0x3e841477	0.25796863
69	0xbe01639c	-0.12635654
70	0xbdd7a9ec	-0.10530457
71	0x3dd98c87	0.106225066
72	0x3df5ea17	0.1200754
73	0x3e350631	0.17678143
74	0x3b84137c	0.004030643
75	0xbd4d54b9	-0.050129626
76	0x3e05037e	0.12989613
77	0xbd86ee56	-0.06588428
78	0xbe010fdb	-0.12603705
79	0xbd7bec1f	-0.06150448
80	0x3e4f1bcb	0.20225446
81	0xbe03d338	-0.12873542
82	0x3e1015dd	0.1407084
83	0x3dcff389	0.101538725
84	0xbd4bab93	-0.049724173
85	0xbcfb8e0e	-0.030707385
86	0x3cea2556	0.028582256
87	0x3db0362f	0.08604085
88	0xb9d49442	-0.00040546252
89	0xbd747b3f	-0.05968785
90	0x3e2b7471	0.16743638
91	0x3e294d71	0.16533448
92	0xbc1cafb1	-0.0095633725
93	0x38f5e4de	0.0001172514
94	0x3e3654d9	0.17805804
95	0xbdbc2400	-0.09186554
96	0xbdf6227d	-0.12018297
97	0xbd09c782	-0.03363753
98	0xbc335d24	-0.010947499
99	0x3d7ba129	0.06143299
100	0xbdacd2ca	-0.08438642
101	0xbddd2ccb	-0.10799559
102	0x3e517143	0.20453362
103	0x3e744cc2	0.23857406
104	0xbe1327fd	-0.14370723
105	0xbbfa177b	-0.0076321936
106	0x3d986d74	0.074427515
107	0x3e56cf97	0.20977627
108	0xbe1f2c14	-0.15544158
109	0x3debe123	0.11517551
110	0x3b33d1a2	0.0027438183
111	0x3ba6dce4	0.00509225
112	0xbe230fa4	-0.15923935
113	0xbdcfff7e	-0.10156153
114	0x3dea497b	0.114397965
115	0xbca44ced	-0.020056212
116	0x3c3aebca	0.011408756
117	0xbc2d9814	-0.01059534
118	0xbdb01b42	-0.08598949
119	0xbe1f3df1	-0.15550973
120	0x3c0f06d3	0.008729654
121	0xbcd57d1b	-0.026060631
122	0xbaddfd53	-0.0016936458
123	0x3e119bd5	0.14219601
124	0xbd353dff	-0.044248577
125	0xbd9be350	-0.07611716
126	0xbd8711f1	-0.06595219
127	0xbc5398a6	-0.012914812

convpool_layers.0.conv.bias f4 [128]
0	0x3cc495f9	0.023997294
1	0x3c82678b	0.015918514
2	0xbcb843d8	-0.022493288
3	0xbcf6e760	-0.030139625
4	0xbbc7b180	-0.0060941577
5	0x3c1e572b	0.009664337
6	0xba10a59e	-0.0005517843
7	0xbcadeac8	-0.021230116
8	0xba4b129e	-0.00077466096
9	0xbbd080c5	-0.006363007
10	0x3c00d3a8	0.007862963
11	0x3ad86b1f	0.0016511417
12	0xbb681461	-0.0035412537
13	0xbcea5bd4	-0.02860824
14	0x3c6e40b4	0.014541794
15	0xbc50a580	-0.012734771
16	0xbbe34dfa	-0.0069367858
17	0x3c7730f7	0.015087358
18	0x3af69a39	0.0018814272
19	0x3c04cf9b	0.008106138
20	0xbb3504e0	-0.0027621314
21	0x3c85ff12	0.016356979
22	0xb9813336	-0.00024642952
23	0xbc91600e	-0.017745998
24	0x3ca13ca1	0.01968223
25	0x3cbee4a5	0.023302386
26	0x3c3df842	0.011594834
27	0xbc775964	-0.015096996
28	0x3be977ea	0.0071248906
29	0x3c952e12	0.018210445
30	0x39a75013	0.00031912382
31	0xb97d279c	-0.00024142716
32	0x3c34f38d	0.011044395
33	0x3c104a75	0.008806814
34	0x3c8bb194	0.01705245
35	0xb9fa8fc1	-0.0004779082
36	0x38b5ac3d	8.6628344e-05
37	0xbbfc8687	-0.0077064666
38	0x3af10ce7	0.0018390686
39	0xbcb64bfb	-0.022253027
40	0x3c642f65	0.013927315
41	0x3b0efb8b	0.0021817412
42	0xbbbb6e9c	-0.005719973
43	0x3b1f1cd2	0.0024278653
44	0xbaba42cf	-0.0014210584
45	0x3a91b9b2	0.0011117964
46	0xbc4c52e0	-0.012470931
47	0x3c40b183	0.011761072
48	0x3c890ed4	0.016730703
49	0xba9aeffc	-0.0011820788
50	0x39ae2cd4	0.00033221266
51	0x3ad03c20	0.0015887059
52	0x3c07cd06	0.0082886275
53	0xbc4d9622	-0.0125480015
54	0xbb746f48	-0.0037297774
55	0x3a872e00	0.0010313392
56	0xba2408d2	-0.0006257418
57	0x3c0d4193	0.008621591
58	0x3c3f726a	0.011684993
59	0x3c696509	0.01424528
60	0x3ca4a6b4	0.020099021
61	0x3b51f19b	0.0032034877
62	0xbc184c37	-0.009295515
63	0xbbcb37fe	-0.006201743
64	0x3c928d9e	0.017889794
65	0xbcc40034	-0.023925878
66	0x391a7376	0.00014729597
67	0x3bc4cb57	0.0060056853
68	0xbbc49581	-0.0059992676
69	0x3ba9869f	0.005173519
70	0xbb8c3ac1	-0.004279465
71	0xbc9a599e	-0.01884156
72	0xbcedb3b4	-0.029016353
73	0xbb05e4f3	-0.0020430654
74	0xbcdec37d	-0.027192825
75	0x39b4aae1	0.0003445959
76	0xbba68f94	-0.005083034
77	0x3b0d877c	0.0021595648
78	0x3ab386bd	0.0013696771
79	0x3c1f4468	0.009720899
80	0x3c655583	0.013997438
81	0xbaa1e89e	-0.001235265
82	0xbb7517b4	-0.0037398161
83	0xbc96efe0	-0.018424928
84	0xbb81f1de	-0.0039656004
85	0xbbe0269e	-0.006840541
86	0xbcb4398e	-0.0220001
87	0xbc62c3a1	-0.013840587
88	0x3a4874c9	0.0007646797
89	0x3bbb3301	0.0057128672
90	0xbc848bad	-0.016179884
91	0x3c0e4ee4	0.008685801
92	0xbc63d86e	-0.013906581
93	0xbc1d423d	-0.009598312
94	0x3c218be3	0.009860012
95	0xbb2c2e45	-0.0026272696
96	0x3a53d428	0.0008080625
97	0xbc4b7cf0	-0.012419924
98	0x3b944f95	0.0045260885
99	0xbc329182	-0.01089895
100	0x3ad34511	0.0016118606
101	0x3c65e42b	0.01403145
102	0xbc3d079f	-0.011537462
103	0x3bebbe42	0.0071943114
104	0xbc495e46	-0.012290543
105	0xb99e531c	-0.0003019803
106	0xbbae69d7	-0.0053226757
107	0xbba93be0	-0.0051646084
108	0x3c38d81f	0.011281996
109	0xbba86b4b	-0.0051397434
110	0xbcb7ddf4	-0.022444703
111	0xbd3bb347	-0.04582527
112	0x3c325740	0.01088506
113	0x3aa8a013	0.0012865089
114	0x3b774513	0.003773038
115	0x3c077f34	0.008270074
116	0xbb3d0e80	-0.0028847754
117	0x3b04ebe0	0.0020282194
118	0x3ad9a9c6	0.0016606383
119	0x3c5b94d4	0.013402183
120	0xbd88e609	-0.06684501
121	0xbb77ae59	-0.0037793128
122	0x3be2f4a2	0.006926135
123	0x3bdfd60e	0.006830937
124	0x3bcadddf	0.006191
125	0x3bb46467	0.005505133
126	0x3c27c86d	0.010240656
127	0xbbd23505	-0.006415012

convpool_layers.0.pool.att f4 [1, 256]
0	0x3d24fdfe	0.04028129
1	0x3d375a61	0.044763926
2	0xbe583ef2	-0.21117762
3	0x3e2d02df	0.16895626
4	0xbc853d9b	-0.016264727
5	0xbd2c861f	-0.042120095
6	0xbd675d3a	-0.056485392
7	0x3d430d7a	0.047620274
8	0xbbca0f61	-0.006166384
9	0xbcac34ee	-0.021021333
10	0xbdea996f	-0.114550464
11	0xbbcca65a	-0.0062454166
12	0xbb2c1c16	-0.0026261858
13	0xbe473baf	-0.19456361
14	0xbca8494b	-0.020542761
15	0xbbba1833	-0.0056791543
16	0xbc7878b9	-0.015165501
17	0xbc23d637	-0.009999803
18	0xb9ba4101	-0.00035525116
19	0xbdc35de1	-0.0953939
20	0xbcae56d8	-0.021281645
21	0xbc0278e7	-0.007963396
22	0xbbd1550f	-0.0063883136
23	0xbd4d9db5	-0.05019923
24	0xb9842534	-0.0002520472
25	0xbc54a5fb	-0.012979026
26	0x3cc671c4	0.02422417
27	0xbaf74c38	-0.001886732
28	0xbc3353b4	-0.010945249
29	0xbdd77391	-0.105200894
30	0xbc7e6999	-0.015528106
31	0xbba60825	-0.005066889
32	0x3da737b0	0.081649184
33	0x3c2f5b50	0.010702923
34	0xbc3731c6	-0.0111813005
35	0xbcc81921	-0.024426045
36	0xbb978cc1	-0.0046249335
37	0xbd05b1ab	-0.03264014
38	0xbd55973c	-0.05214618
39	0x3c93f52e	0.018061247
40	0x3ca2e24a	0.019883294
41	0x3c9917eb	0.018688163
42	0x3c9d5e3e	0.019209977
43	0xbdb5e980	-0.08882427
44	0x3bbc631e	0.0057491204
45	0xbc086b53	-0.008326369
46	0x3d10e540	0.03537488
47	0xbd4fe597	-0.050756063
48	0xbdb4f80a	-0.08836372
49	0x3cf176a4	0.029475518
50	0xbd5e050c	-0.05420403
51	0xbbfe39e5	-0.0077583664
52	0x3d6bc3c5	0.057559747
53	0xbc955ebe	-0.018233653
54	0xbb9a39b9	-0.004706588
55	0xbbed636d	-0.0072445185
56	0xbd390d4c	-0.045178697
57	0xb9c66792	-0.0003784267
58	0xbca4c098	-0.020111367
59	0x3c923591	0.017847808
60	0xbc44194f	-0.011968925
61	0xbc48405a	-0.012222374
62	0xbc1de5a8	-0.009637274
63	0x3d5248dc	0.051339015
64	0x3e083b5c	0.13303894
65	0x3d2a16ce	0.041525654
66	0xbb49575c	-0.0030722236
67	0x3bcf6334	0.0063289646
68	0xbda7299b	-0.081622325
69	0xbc8e8387	-0.017396701
70	0xbd36f4dd	-0.044667114
71	0xbdfd14c3	-0.123574756
72	0xbd312d6d	-0.043256212
73	0x3dd6e72f	0.104933135
74	0xbcc7052b	-0.024294456
75	0xbc037297	-0.008022926
76	0xbd4911fe	-0.049089424
77	0xbbea8cb4	-0.0071578864
78	0xbc6857fc	-0.014181133
79	0xb9a0f5f1	-0.0003070082
80	0x3db6187b	0.08891388
81	0xbbc577c6	-0.006026241
82	0x3d811940	0.06303644
83	0x3d74a832	0.059730716
84	0x3c97e31c	0.018540911
85	0xbbbe01a6	-0.0057985364
86	0xbdb339d0	-0.08751261
87	0xbda8626a	-0.08221896
88	0xb923d377	-0.00015623668
89	0x3baf35e6	0.0053470014
90	0x3da967e4	0.08271769
91	0x3cb1bf11	0.021697553
92	0xbd0bf69f	-0.034170743
93	0xbb2fbede	-0.0026816647
94	0xbd3f47ec	-0.04669945
95	0x3db510d8	0.08841103
96	0xbd771047	-0.060318258
97	0xbd00bf19	-0.031432245
98	0x3b2e1e9c	0.0026568538
99	0x3d707b60	0.05871141
100	0x3ce9d934	0.028545953
101	0xbbd874b0	-0.006605707
102	0xbdae7464	-0.085182935
103	0x3d3c8b17	0.046031084
104	0xbcae5e44	-0.021285184
105	0xbb4fb2a6	-0.0031692176
106	0x3b95f04c	0.0045757648
107	0x3d8e1561	0.069376715
108	0xbbfbbf64	-0.0076827276
109	0xbd291ec5	-0.04128911
110	0xb7869854	-1.6044978e-05
111	0x3bf84597	0.007576655
112	0xbc2782d9	-0.010224068
113	0x3cd77da1	0.026305022
114	0xbc3e0b1b	-0.011599327
115	0xbb97e3b6	-0.0046352996
116	0xbd2401ab	-0.040040653
117	0xbd415dff	-0.047208782
118	0x3bea9235	0.0071585425
119	0xbc9c4e0e	-0.019080188
120	0xbd24a738	-0.040198535
121	0xbbcda436	-0.006275679
122	0xbb44dc0c	-0.0030038385
123	0xbdadbe23	-0.08483531
124	0xbb9091ff	-0.0044119353
125	0x3bb53750	0.0055302754
126	0xbd31fca4	-0.043453828
127	0xbb5817bb	-0.003297313
128	0x3d9a4e09	0.07534415
129	0xbd017eb5	-0.031614978
130	0x3d224d0f	0.03962427
131	0xbc4a63bc	-0.01235288
132	0xbb04bef9	-0.002025543
133	0xbc121d77	-0.008918158
134	0xbab291c1	-0.001362376
135	0x3da7c1dd	0.08191273
136	0x3c36f6ae	0.011167211
137	0xbd6553b1	-0.055988017
138	0xbc7e5150	-0.015522316
139	0x39d2032c	0.00040056685
140	0x39015550	0.0001233418
141	0x3cadab0e	0.02119973
142	0xbb0d6c34	-0.0021579387
143	0x3adcd7ca	0.0016848978
144	0xba40879e	-0.0007344427
145	0xbca2fc23	-0.019895619
146	0xbc1fe921	-0.009760172
147	0xbb37a8fe	-0.0028024311
148	0xbb026098	-0.0019894
149	0x3adffeba	0.0017089464
150	0x3a19c730	0.0005866168
151	0xbc868c71	-0.01642439
152	0x3b29fc66	0.0025937795
153	0xbc9939f7	-0.018704398
154	0xbbe1ba7b	-0.0068886853
155	0xb850c346	-4.9772927e-05
156	0xba6db3e4	-0.00090676383
157	0xba38dfe7	-0.0007052407
158	0xbc1a8ceb	-0.0094330115
159	0xba825f93	-0.0009946696
160	0x3c66f69a	0.01409688
161	0x3c0bd3f2	0.008534418
162	0xbbb8a985	-0.0056354427
163	0xbb63a9bb	-0.0034738618
164	0xbc7f44a1	-0.015580327
165	0xbc9aa113	-0.018875634
166	0x3a9c2808	0.0011913786
167	0x3b87049e	0.0041204235
168	0xbb8a1b41	-0.0042146747
169	0xbc940b80	-0.01807189
170	0xbcbf5508	-0.023355976
171	0x3d3c8ec4	0.04603459
172	0x3d0c7253	0.034288716
173	0xbaa9db14	-0.0012958967
174	0x3daaf30f	0.08347141
175	0xbb17ded1	-0.002317358
176	0xb9d7e738	-0.00041180267
177	0xb80abd49	-3.307805e-05
178	0xbbd5124d	-0.0065024258
179	0xbb3494d6	-0.0027554533
180	0x3c8d621a	0.017258693
181	0x3bb245a2	0.00544043
182	0xbd9c72d2	-0.07639088
183	0xba94884d	-0.0011332125
184	0xbd39afd3	-0.045333695
185	0xbb7bd0ea	-0.0038424083
186	0x3dcf8ad0	0.10133898
187	0xba3da050	-0.0007233666
188	0xbbb8ee64	-0.0056436528
189	0xba1305ff	-0.00056084985
190	0x3d79dd74	0.06100221
191	0x3cf105d2	0.02942172
192	0xbca6d646	-0.020365845
193	0xbcf12879	-0.029438244
194	0xbb50ba4b	-0.003184932
195	0x3a11254f	0.00055368704
196	0x3de90983	0.11378767
197	0xbba11b7d	-0.004916607
198	0xbb8db935	-0.004325057
199	0x3abf3452	0.0014587736
200	0x3bbe6d87	0.0058113965
201	0xbc75fed1	-0.015014366
202	0xbbbdfc42	-0.0057978937
203	0xbabcd3b3	-0.0014406353
204	0x3c53ecc2	0.012934865
205	0x3cb0f6b7	0.021602018
206	0xbc0259eb	-0.007956008
207	0xbae24bbf	-0.0017265006
208	0x3d7a84f2	0.061161943
209	0xbbb3e2d5	-0.005489687
210	0x3c5a93a8	0.013340868
211	0xbd520176	-0.051270925
212	0xbd1e985d	-0.038719524
213	0xba6d230a	-0.0009046054
214	0x3c5f51cb	0.013630341
215	0xba84dd5a	-0.0010136769
216	0x3913e2af	0.00014103459
217	0xb9c5b962	-0.0003771289
218	0x3d6fdf65	0.058562655
219	0xbd7665e3	-0.06015576
220	0xbae8de42	-0.0017766433
221	0x392ee50f	0.00016679264
222	0x3b8bce6c	0.0042665508
223	0xbb6f1d60	-0.0036486015
224	0xbbafdf1b	-0.0053671724
225	0xba4b9f3f	-0.0007767565
226	0xb7393a28	-1.10404e-05
227	0x3b8938af	0.0041876654
228	0xbb80d2cf	-0.0039313803
229	0x3ae6d74a	0.0017611769
230	0xbd691c2b	-0.05691163
231	0x3d371790	0.044700205
232	0xbbc8c4cf	-0.006126977
233	0x391a47e8	0.00014713372
234	0x3c115bee	0.008872015
235	0xbd2af5fc	-0.041738495
236	0xbc37701d	-0.0111961635
237	0x3d037173	0.032090615
238	0xb6d90ef2	-6.468844e-06
239	0x362ebef7	2.6039177e-06
240	0xbbda0e04	-0.006654503
241	0xbb8e4fb2	-0.0043429965
242	0x3bd23290	0.006414719
243	0x3da4f2a8	0.080540955
244	0x3c3e6a9b	0.011622096
245	0xb8a8b6a0	-8.044881e-05
246	0xbba79799	-0.0051145074
247	0xbbd4f584	-0.0064989943
248	0x3cb020cf	0.02150002
249	0x39f104c0	0.0004597064
250	0xba3f4684	-0.00072965794
251	0x3bb24e40	0.005441457
252	0x3d4a1544	0.049336687
253	0xbada7a45	-0.0016668519
254	0xbaef03d3	-0.0018235393
255	0x38e82c36	0.00011070857

convpool_layers.1.conv.weight f4 [128, 128]
0	0xbc024670	-0.007951364
1	0x3dea4995	0.11439816
2	0xb584fcdc	-9.908358e-07
3	0x3d0cb999	0.034356687
4	0x3e08966a	0.13338628
5	0xbaa2851c	-0.0012399289
6	0xbdbe4f2e	-0.09292446
7	0x3dc4e141	0.09613276
8	0x3d1aee91	0.03782517
9	0xbddb6611	-0.10712827
10	0xbb490856	-0.0030675135
11	0x3b372a07	0.0027948634
12	0x3d2c0db6	0.042005263
13	0x37dc760e	2.6281017e-05
14	0xbc86c14e	-0.016449597
15	0x3d88634b	0.06659564
16	0xba7dd598	-0.0009683012
17	0xb506f29c	-5.0271933e-07
18	0xbd7b8e5b	-0.061415058
19	0x3d06232c	0.032748386
20	0xbd167bec	-0.036739275
21	0x3b48372f	0.003055047
22	0xbc06d4b0	-0.00822942
23	0xb5901c9f	-1.0737166e-06
24	0x3cff8d1e	0.03119522
25	0xbc97c48c	-0.018526338
26	0xbbae6059	-0.005321544
27	0xbbbf3259	-0.0058348593
28	0xbc074370	-0.008255824
29	0x35a28dde	1.2111229e-06
30	0x3daf3e89	0.085568495
31	0x3543b6f5	7.29094e-07
32	0xb623d298	-2.4411474e-06
33	0xbb2e71eb	-0.0026618193
34	0x39d66cd5	0.00040898347
35	0xb7657d99	-1.3678707e-05
36	0x3b739aac	0.003717105
37	0xbbebaf78	-0.0071925484
38	0x39f15b04	0.00046034914
39	0xbd52bd31	-0.05144996
40	0xbd15090c	-0.03638558
41	0xbc8d7417	-0.01726727
42	0xbb8d0b20	-0.0043043047
43	0x351a338d	5.7444487e-07
44	0xbbc6b19b	-0.0060636527
45	0xbd0736ab	-0.03301112
46	0xb79243af	-1.7436074e-05
47	0xbbb1ace4	-0.0054222215
48	0xbbcf229c	-0.0063212644
49	0x3d173c04	0.03692247
50	0x3e24db8e	0.16099378
51	0x3dff3981	0.1246214
52	0xbc041c45	-0.008063381
53	0x3cbf261f	0.023333607
54	0xbb289f57	-0.002572974
55	0x39faf8a9	0.00047868982
56	0xb4ca3009	-3.7660382e-07
57	0xbd89cc7d	-0.06728456
58	0x3d971bba	0.07378335
59	0xbd46782f	-0.04845446
60	0xbbd27810	-0.006423004
61	0xbb815c21	-0.00394775
62	0x3da1cfef	0.07900988
63	0xba0b297f	-0.00053086126
64	0xbb86fa9e	-0.0041192314
65	0x3db0f231	0.08639944
66	0x36f26acc	7.224595e-06
67	0x3cdb732b	0.026788315
68	0x3acd6b95	0.0015672321
69	0xbd0bd3f9	-0.0341377
70	0x3510c448	5.3929807e-07
71	0x3dd41ee7	0.10357457
72	0x36b19c21	5.293187e-06
73	0x3c2f86e1	0.01071331
74	0x3a6a14f0	0.00089295115
75	0x3df93478	0.12168211
76	0xbd4f23a8	-0.050571114
77	0xb55770fd	-8.025816e-07
78	0x3c6a18ef	0.014288171
79	0xbcff4947	-0.031162871
80	0xbc6a1b46	-0.014288729
81	0x3d72bb47	0.059260633
82	0xbb8693f3	-0.0041069924
83	0xbd819713	-0.06327643
84	0x3bb15112	0.0054112757
85	0xb8225275	-3.8700604e-05
86	0xbb363ad1	-0.0027806053
87	0x3d30e0d0	0.043183148
88	0xbb7d0847	-0.003860967
89	0x3c4a562a	0.012349645
90	0xbd1f7806	-0.038932823
91	0xb99e2f3b	-0.00030171298
92	0xb6216f1e	-2.4055548e-06
93	0xbd2854cf	-0.041096505
94	0x35cfde65	1.5487427e-06
95	0xbae68b7d	-0.0017589178
96	0xbbbf30d4	-0.005834678
97	0xbc1562cc	-0.009117793
98	0x39e78c38	0.00044164225
99	0x3d413ecd	0.047179032
100	0xb6659f26	-3.4216296e-06
101	0xbdbe262b	-0.09284624
102	0x3b8010ec	0.0039082672
103	0x3cb3d24f	0.021950869
104	0x3cfdf17d	0.03099894
105	0x378f3702	1.7072543e-05
106	0xbccbc963	-0.024876302
107	0xbd8834af	-0.066506736
108	0xb5694313	-8.689687e-07
109	0x3db85556	0.090006515
110	0x35d3553f	1.5745535e-06
111	0xbafdcce1	-0.0019363427
112	0xbbe44950	-0.0069667473
113	0x3d25fb83	0.040523063
114	0xbbac9d77	-0.0052677947
115	0x3c56796f	0.013090475
116	0x3c7fe867	0.015619374
117	0x3d932d1f	0.071863405
118	0x3de8db71	0.1136998
119	0xbc788cc7	-0.015170283
120	0xbc45982c	-0.012060206
121	0x3dc2c6fa	0.09510608
122	0x3b02b2c7	0.0019942985
123	0xbc67cc2d	-0.0141478
124	0x3dd9005a	0.1059577
125	0x3d451bfc	0.04812239
126	0xbc042185	-0.008064632
127	0x3cbd68eb	0.023121318
128	0x3a647b09	0.00087158434
129	0x3aeeb68d	0.0018212363
130	0xb8982c24	-7.256147e-05
131	0x3c00e2a9	0.00786654
132	0x3a4db521	0.00078471197
133	0x3bca578b	0.0061749867
134	0x35b80b38	1.3712333e-06
135	0x3b96eb3f	0.0046056802
136	0x3700b760	7.67209e-06
137	0x3b188db6	0.0023277826
138	0x358b0f2e	1.0360725e-06
139	0x3664dc98	3.410305e-06
140	0x36338980	2.6753114e-06
141	0xbb2a025a	-0.0025941343
142	0xb5dc1412	-1.6397119e-06
143	0x3aaff4d5	0.0013424406
144	0x3ab2d538	0.0013643866
145	0xbbce8eb0	-0.006303631
146	0xb894b03f	-7.090018e-05
147	0x3c25d268	0.010120966
148	0x392dfb5b	0.00016592203
149	0x3bdac906	0.006676796
150	0x39821fe6	0.00024819298
151	0x378e38c9	1.6954162e-05
152	0xbb0503f0	-0.0020296536
153	0xbc840f7e	-0.016120669
154	0xbc5f12ba	-0.013615305
155	0xbaf92adf	-0.0019009969
156	0xb8242f63	-3.914478e-05
157	0x3b521a43	0.003205911
158	0x3b694c7c	0.0035598567
159	0x3c5b0dc6	0.013369983
160	0xbb960530	-0.004578255
161	0xbb910622	-0.00442578
162	0xb38ac408	-6.4617836e-08
163	0x35f3db2b	1.8168697e-06
164	0x36a550c4	4.9267856e-06
165	0xbc212f59	-0.009837949
166	0xbb9a49f6	-0.004708524
167	0xbb0076c3	-0.0019602038
168	0x3a6e8d34	0.00091000204
169	0x3a3df8b4	0.00072468375
170	0x3b9d77f7	0.0048055607
171	0xbb44b1c5	-0.0030013185
172	0x36a836d6	5.013174e-06
173	0x3b368fa8	0.0027856622
174	0xba0b008b	-0.000530251
175	0xbc0d69d7	-0.008631191
176	0x35063922	5.000203e-07
177	0x37b11cf7	2.1113532e-05
178	0x3b02f8cf	0.0019984727
179	0x3b4d4f79	0.0031327887
180	0xbb619b53	-0.0034424856
181	0x3b57baf7	0.0032917836
182	0xb8075a5a	-3.2270655e-05
183	0xb7ee69d0	-2.8421084e-05
184	0xb42296f5	-1.5142344e-07
185	0x3ab6a946	0.0013935945
186	0x3c8e41b3	0.017365312
187	0xbc263884	-0.01014531
188	0x3c6b5de8	0.014365651
189	0x34404608	1.790687e-07
190	0x3b1600cf	0.0022888666
191	0xbac1b0d6	-0.0014777433
192	0x38ac3f3a	8.213376e-05
193	0xbc9025ea	-0.017596204
194	0x3797b3b5	1.8084285e-05
195	0xbb10b3ce	-0.0022079828
196	0xb5593ac4	-8.0924315e-07
197	0x3b6730e2	0.003527694
198	0x3ba19404	0.004930975
199	0x3b2b96b4	0.0026182355
200	0xb4aebebf	-3.2548812e-07
201	0xbb82d164	-0.0039922465
202	0xbc905aa9	-0.017621355
203	0x3cab7cd8	0.020933554
204	0x3b1afa13	0.002364759
205	0xbb47adac	-0.0030468507
206	0x3b267a0e	0.002540234
207	0x360d5992	2.1062774e-06
208	0xba840198	-0.0010071276
209	0x3b20e905	0.0024552953
210	0xba8924c5	-0.0010463229
211	0x3a1ca392	0.00059753016
212	0xb61dd89f	-2.3520913e-06
213	0xbb74a7db	-0.0037331495
214	0xbb94592b	-0.004527231
215	0x3a1c1caf	0.0005955202
216	0x3c08252d	0.008309645
217	0x3b19c311	0.0023462216
218	0xba376f84	-0.0006997513
219	0x3b307643	0.0026925958
220	0xb5be6817	-1.4186397e-06
221	0x3ca7568d	0.020427013
222	0x3c6214c8	0.0137989
223	0x3bb00cd1	0.0053726216
224	0x3847d684	4.764508e-05
225	0xb6d78032	-6.422423e-06
226	0x3bc58b9a	0.0060286047
227	0x3ba136b9	0.0049198535
228	0xbbaa0855	-0.0051889815
229	0x3af74129	0.0018864024
230	0xb7a4d680	-1.9650208e-05
231	0x3be4b8fc	0.0069800597
232	0x399b3a0c	0.00029607152
233	0xb53befd5	-7.001193e-07
234	0x3a813993	0.0009859077
235	0x3c04058c	0.008057963
236	0xb699f176	-4.587865e-06
237	0x3aed9b60	0.001812797
238	0xba166375	-0.0005736866
239	0x3bfb5b51	0.007670798
240	0x3b256051	0.002523441
241	0x3a9f2684	0.0012142216
242	0xb58d8f06	-1.0546944e-06
243	0x3374d760	5.700656e-08
244	0xbc2c2b17	-0.01050832
245	0x3b19147f	0.0023358164
246	0x3b03aa5d	0.0020090558
247	0xbacf2aa5	-0.0015805556
248	0xbb4e8857	-0.003151437
249	0x3c9cbfc4	0.01913441
250	0x3b25af62	0.0025281538
251	0xbcc62819	-0.024189042
252	0x3c90b5bc	0.017664783
253	0x3b440c1c	0.0029914444
254	0x3bb3b124	0.0054837633
255	0xbc8df2b2	-0.01732764

convpool_layers.1.conv.bias f4 [128]
0	0xb4da4182	-4.0653327e-07
1	0xbc74385f	-0.014906018
2	0xb75ee995	-1.3286616e-05
3	0xbb76912c	-0.003762315
4	0xbc5dc139	-0.013534837
5	0x3c8cf815	0.017208138
6	0x3b19e458	0.002348205
7	0xbccc6a13	-0.024952924
8	0xbbd5cd88	-0.0065247454
9	0xbc4bd033	-0.012439775
10	0x00000000	0.0
11	0x00000000	0.0
12	0xbba5a73f	-0.0050553377
13	0xbc0aead1	-0.008478836
14	0x00000000	0.0
15	0xbd1d9bae	-0.038478546
16	0xbccd8cb5	-0.025091508
17	0x00000000	0.0
18	0xbc4520d1	-0.01203175
19	0x3ba1f9d7	0.0049431133
20	0xbc8896ca	-0.016673464
21	0xbb8cd6b3	-0.004298055
22	0x39270e93	0.0001593179
23	0x00000000	0.0
24	0xbc4367ea	-0.0119266305
25	0x3ca3fb1a	0.020017195
26	0x3b833f50	0.00400535
27	0xbb830965	-0.0039989226
28	0xbc3195f6	-0.010838976
29	0xbadc656d	-0.0016814895
30	0xbca73828	-0.02041252
31	0xb9f9ebc7	-0.0004766865
32	0xb8bcae2f	-8.996983e-05
33	0xbc59a66d	-0.013284308
34	0x00000000	0.0
35	0x36c84112	5.9680397e-06
36	0x00000000	0.0
37	0xb7f06960	-2.8659299e-05
38	0xbc012056	-0.007881245
39	0xbd0b75e7	-0.034047987
40	0x3a4ea3c5	0.000788268
41	0xbc998df7	-0.018744452
42	0xba732991	-0.0009275908
43	0xbbbab13a	-0.0056973966
44	0x00000000	0.0
45	0xbcc670e1	-0.024223747
46	0xba82639c	-0.0009947899
47	0xbc44d6bf	-0.01201409
48	0x00000000	0.0
49	0xbb8c310b	-0.0042783073
50	0xbc854be8	-0.016271546
51	0xbc9db8c8	-0.01925315
52	0x00000000	0.0
53	0xbcb5159c	-0.02210503
54	0xb8cad0b5	-9.670985e-05
55	0xb4a27b13	-3.02644e-07
56	0x00000000	0.0
57	0xbc3b6bd0	-0.011439279
58	0xbb1acaf2	-0.00236195
59	0xbc763af9	-0.015028709
60	0x3c75d14a	0.015003512
61	0xbbf7cf6c	-0.0075625684
62	0xbc4330ad	-0.011913461
63	0xbccb3e8a	-0.024810094
64	0xbcfc7b97	-0.030820651
65	0xbd08c917	-0.0333949
66	0xbac9a4df	-0.0015384218
67	0xbcd4cfcd	-0.025977993
68	0x00000000	0.0
69	0xbc8277ec	-0.015926324
70	0x00000000	0.0
71	0xbcc5bb22	-0.024137083
72	0x00000000	0.0
73	0xbc1185c7	-0.008881993
74	0xbaf45884	-0.0018642102
75	0xbc22ac14	-0.009928722
76	0xbd1aec55	-0.03782304
77	0x00000000	0.0
78	0xbc84cddb	-0.01621144
79	0xbb51bb8d	-0.0032002658
80	0xba3b68cc	-0.00071491
81	0xbc867b55	-0.016416231
82	0xbb4569c1	-0.0030122849
83	0xbca501e0	-0.020142496
84	0x00000000	0.0
85	0x00000000	0.0
86	0xbbde019c	-0.006775094
87	0xbc83452e	-0.016024198
88	0x3a37ab14	0.00070063886
89	0xbc9e667b	-0.019335976
90	0xbbd7a545	-0.006580981
91	0x388fc0f0	6.854709e-05
92	0x00000000	0.0
93	0xbac7ea0b	-0.0015252245
94	0xbbb67900	-0.0055686235
95	0x00000000	0.0
96	0xbc1f29ca	-0.009714553
97	0xbc7aaf0a	-0.015300522
98	0x3bf54f4f	0.007486261
99	0xbd09a875	-0.03360792
100	0x00000000	0.0
101	0xbc390ced	-0.011294586
102	0x00000000	0.0
103	0xbccaa7ec	-0.024738275
104	0xbc17b36f	-0.009259089
105	0x00000000	0.0
106	0xbcb19503	-0.0216775
107	0xbcc47e61	-0.023986043
108	0xb57b6d90	-9.366422e-07
109	0xbc9f40a1	-0.019439997
110	0xb809e8c0	-3.288011e-05
111	0x00000000	0.0
112	0xbc049631	-0.008092449
113	0xbc16d375	-0.009205689
114	0xba98223d	-0.0011606883
115	0xbba1cef2	-0.004938
116	0x00000000	0.0
117	0xbc954734	-0.018222429
118	0xbc8f857b	-0.017519703
119	0x00000000	0.0
120	0xbc08e28e	-0.008354796
121	0xbca46279	-0.020066487
122	0x3b3d0268	0.0028840546
123	0xbc07a68b	-0.008279453
124	0xbc63a895	-0.013895174
125	0xbcaccbcd	-0.021093274
126	0x3bb457a0	0.00550361
127	0xbc45c5cc	-0.012071084

lin1.weight f4 [128, 256]
0	0xbd37d0e9	-0.044876967
1	0xbc677d66	-0.014129018
2	0xbd2336ad	-0.039847065
3	0x3c419485	0.011815195
4	0xbd256073	-0.040375184
5	0xbb9905de	-0.004669889
6	0x3c0c55a9	0.008565345
7	0xbc133094	-0.00898375
8	0xbab79124	-0.0014005047
9	0xbd7d3103	-0.06181432
10	0x3d382ab2	0.044962592
11	0xba6a2466	-0.00089318154
12	0xb87a558a	-5.968431e-05
13	0x3c29d239	0.010365062
14	0xbb0398c4	-0.002008007
15	0xbd04b23b	-0.032396536
16	0x3c03817c	0.008026477
17	0xbb2c1d8f	-0.0026262735
18	0xbc993355	-0.018701235
19	0xbb32dcf9	-0.0027292354
20	0xbbd13a24	-0.0063851047
21	0x3c768149	0.015045472
22	0xb9a0e461	-0.00030687734
23	0x39d24607	0.00040106496
24	0xbd870697	-0.06593054
25	0xbbb7a9f5	-0.0056049773
26	0xbbbad948	-0.0057021715
27	0xba0ff4d0	-0.0005491497
28	0x3b494e57	0.003071686
29	0xbd35a0c8	-0.044342786
30	0xbd187e36	-0.03722974
31	0xbaa01abc	-0.0012214999
32	0x3d018e5c	0.031629905
33	0xbd66df7c	-0.056365475
34	0xbb93ba6f	-0.0045083086
35	0xb83fd21a	-4.573362e-05
36	0xb9e7ba72	-0.00044198666
37	0x3c8020d3	0.015640652
38	0xbd0c7ff7	-0.034301724
39	0x3b8bf60b	0.004271274
40	0xbd68a478	-0.056797475
41	0x3aa8fa3e	0.0012891961
42	0xbb7e77ac	-0.0038828654
43	0x3d268bc4	0.040660635
44	0xbd79d1d1	-0.060991112
45	0xbc1f0ee3	-0.009708139
46	0x3c863dc4	0.016386874
47	0xbd1e55d6	-0.03865608
48	0xbc0f0977	-0.008730284
49	0x3b846ce8	0.004041303
50	0xbb1bf925	-0.0023799625
51	0xbcf2884c	-0.029606007
52	0xbcacff5b	-0.021117857
53	0x3c96fa33	0.018429851
54	0xb9f0a52f	-0.0004589944
55	0xbac0b51e	-0.0014702415
56	0x3cb6d670	0.022319049
57	0xbcc3a933	-0.023884391
58	0xbcf78178	-0.030213103
59	0x3d26c0f6	0.040711366
60	0xbb7995b0	-0.0038083605
61	0xbaba99f3	-0.0014236554
62	0xbb869947	-0.0041076276
63	0x3d09e471	0.033665124
64	0xbce4984d	-0.027904654
65	0x3d13208d	0.035919715
66	0xb9013e49	-0.00012325602
67	0xbcdc1874	-0.026867129
68	0xbd01be74	-0.03167577
69	0xbd6bbc3d	-0.057552565
70	0xbb68cfe4	-0.0035524303
71	0x3b08dbd3	0.0020882979
72	0xbc912a65	-0.01772041
73	0x3cb35d60	0.02189511
74	0xbc1c5177	-0.009540907
75	0xbd19c5da	-0.0375422
76	0x3bc83ae1	0.0061105345
77	0xbb07cb33	-0.0020720481
78	0xbd89da32	-0.067310706
79	0xbafbe285	-0.0019217288
80	0xbca2e6b8	-0.019885406
81	0x3c17690f	0.0092413565
82	0x3c75a02e	0.014991803
83	0xbd7ed667	-0.06221619
84	0xbacb379a	-0.0015504241
85	0xba589297	-0.00082615897
86	0xbc15cb50	-0.009142712
87	0xbd0f6b57	-0.035014477
88	0xb7aaed7b	-2.0376165e-05
89	0x3c528111	0.012848155
90	0xbd31131a	-0.043231107
91	0x3a1597f8	0.0005706544
92	0xba4bffbc	-0.0007781943
93	0x3bcddf03	0.0062826886
94	0xbd5a31b3	-0.053270053
95	0xbb464c07	-0.0030257718
96	0xbb82bb12	-0.0039895857
97	0xb9feea12	-0.0004862105
98	0x3a54cc2e	0.00081175833
99	0x3b82f52b	0.0039965115
100	0xbb461a89	-0.0030228219
101	0x3c5410ea	0.012943486
102	0x3d10bba8	0.035335213
103	0xbc92a2ed	-0.017899955
104	0xbc0306a1	-0.007997186
105	0xb911f57a	-0.00013919725
106	0x3cc38ec4	0.023871787
107	0xbd6853f1	-0.056720678
108	0xbbb069af	-0.005383692
109	0xbd081e91	-0.033232275
110	0xbb7e2e91	-0.003878508
111	0xbb90570f	-0.0044049094
112	0xbd6a5818	-0.05721292
113	0xbcc546ff	-0.024081705
114	0x3c77fe90	0.015136376
115	0xba322afb	-0.0006796566
116	0x3cb101b9	0.021607267
117	0xbd84d296	-0.064854786
118	0xbcb78d40	-0.02240622
119	0xbbae4f6d	-0.005319527
120	0xbc454414	-0.012040157
121	0xbd522016	-0.05130013
122	0xba8253ef	-0.0009943227
123	0xbca5a463	-0.020219987
124	0xbd211dd1	-0.039335076
125	0xbd8270a9	-0.063691445
126	0xbb16b89f	-0.0022998226
127	0xbcace1e1	-0.021103801
128	0xbbd91678	-0.006624993
129	0xbd2fc6e3	-0.042914283
130	0x3d8c7418	0.068580806
131	0xbca6a9e9	-0.020344691
132	0x3d0af472	0.033924527
133	0x3c9c5a86	0.019086134
134	0xbcdbdc7e	-0.026838537
135	0xbb317632	-0.0027078507
136	0xb9048f44	-0.00012641872
137	0xbba30ae0	-0.0049756616
138	0xbcd76df8	-0.026297554
139	0xbb470649	-0.0030368736
140	0x3969be52	0.00022291511
141	0x3d79b20f	0.060960826
142	0x3a792915	0.0009504718
143	0x3c2b7deb	0.010467033
144	0xbc77d5f2	-0.015126692
145	0x3c23e66c	0.010003667
146	0x3cdf55a2	0.027262513
147	0xbaa19840	-0.0012328699
148	0xbb0a5bed	-0.002111192
149	0xbd0d7308	-0.03453353
150	0xbac411df	-0.0014958939
151	0x3c3c8633	0.011506605
152	0x3c4fab2e	0.01267509
153	0xbc31b3aa	-0.010846058
154	0x3a11b66f	0.0005558496
155	0xba59f152	-0.00083138526
156	0x3b9a50cd	0.0047093392
157	0x3c0d953f	0.00864154
158	0xbbca2026	-0.006168383
159	0x3ab6345a	0.00139011
160	0xbc777965	-0.015104626
161	0x3cc19804	0.023632057
162	0xbc0ce298	-0.008598946
163	0xb939d6e0	-0.00017723022
164	0x3b62e1c2	0.0034619425
165	0x3d272926	0.040810727
166	0x3a956547	0.0011397981
167	0xbce36a32	-0.027760599
168	0x3c36ae4a	0.011149952
169	0x3d1db39b	0.038501363
170	0x3d621489	0.055195365
171	0xbc434da6	-0.011920368
172	0x3d86b2bd	0.0657706
173	0x3d474ab3	0.048655223
174	0xbd2e84b5	-0.042607028
175	0xbcb6ffef	-0.022338836
176	0x3d021a0b	0.031763118
177	0xbc840bc5	-0.016118893
178	0xbc9f4b7b	-0.019445172
179	0x3ccc475c	0.02493637
180	0x3d0089a4	0.031381264
181	0x3d3a5a22	0.045496114
182	0xbaca3b92	-0.001542913
183	0x3bffcb4b	0.007806217
184	0xbd2f9975	-0.042870957
185	0x3c806355	0.015672365
186	0x3d47c590	0.048772395
187	0x3cbe409a	0.023224164
188	0xbb9945f8	-0.0046775304
189	0xbbd48396	-0.006485413
190	0x3ce602b0	0.028077453
191	0x3cdd20cc	0.026993178
192	0x3d274ac0	0.04084277
193	0x3b92a9d8	0.0044758134
194	0x3a9bba00	0.0011880994
195	0x3d505940	0.050866365
196	0xbd260cac	-0.04053943
197	0x3c49b4a4	0.0123111345
198	0xbc5a9ffc	-0.013343807
199	0x3d4d4941	0.05011869
200	0x3d55443d	0.05206703
201	0x3d4f4bcd	0.0506094
202	0x3cd60e24	0.02612979
203	0x3cb62c61	0.022237958
204	0x3d4946d0	0.049139798
205	0x3c0b191b	0.008489872
206	0x3d26990b	0.040673297
207	0xbc6a7b83	-0.014311674
208	0x3d24a483	0.040195953
209	0x3cdf9407	0.027292265
210	0x3d850896	0.06495778
211	0xbd0b1965	-0.033959765
212	0xbc54e0f2	-0.012993084
213	0xba95b224	-0.0011420888
214	0x3d68c513	0.05682857
215	0x3c594442	0.013260903
216	0xb9a4e406	-0.00031450408
217	0x3d14f269	0.036363993
218	0x3d275b4d	0.040858556
219	0x3d851327	0.06497794
220	0xba4b6b19	-0.0007759794
221	0xbc7568a8	-0.014978565
222	0x3d85a9b1	0.06526507
223	0x3ad6cc93	0.0016387872
224	0xbd04b7d6	-0.032401882
225	0x3ab2d236	0.001364297
226	0x3a5c4928	0.0008403235
227	0x3d55db8e	0.052211337
228	0xbcf5b6c9	-0.029994385
229	0xbcabb30a	-0.020959396
230	0xbd346e4b	-0.044050496
231	0x3bdc4dd5	0.0067231455
232	0xbd1280dc	-0.03576742
233	0xba3519d2	-0.00069084496
234	0x3d894da4	0.06704262
235	0xbcd6e120	-0.026230395
236	0xbc3a4f95	-0.011371513
237	0x3cdd0b91	0.026983054
238	0xbb9a76cf	-0.00471387
239	0xbad63ff7	-0.0016345967
240	0x3cfa662d	0.0305663
241	0xbccc82ef	-0.024964778
242	0x3c155112	0.009113567
243	0xba91201f	-0.0011072195
244	0x3b218344	0.002464489
245	0xbbffe6a4	-0.007809477
246	0xbc9d5b1b	-0.019208482
247	0xbc75021c	-0.014954116
248	0x3cb8d56b	0.022562703
249	0x3d3e1383	0.046405327
250	0xba8202f7	-0.0009919096
251	0xbc63e838	-0.013910346
252	0xbd3ebf43	-0.04656912
253	0xbd176ac6	-0.03696706
254	0x388ebea7	6.8065994e-05
255	0xbc9b2a31	-0.018941017

lin1.bias f4 [128]
0	0x3cd5dd16	0.026106399
1	0x3b03c3e7	0.002010578
2	0xbd1c8974	-0.038217023
3	0xbd1a3ef7	-0.037657704
4	0x3cf2bb32	0.029630277
5	0xbb8695e9	-0.004107226
6	0xbc4cacdd	-0.012492386
7	0xbcd47ceb	-0.025938472
8	0x3cfde597	0.030993266
9	0xb87fb01c	-6.0960752e-05
10	0x3cc378f2	0.023861382
11	0xbcf2e08f	-0.029648094
12	0xbc3b22f1	-0.011421905
13	0x3c6d89dd	0.014498201
14	0xbb94f513	-0.0045458167
15	0x3cb84446	0.022493493
16	0x3cf0b9ab	0.029385408
17	0xbc99a2e3	-0.018754428
18	0xba94f658	-0.001136492
19	0xbd41246e	-0.047153883
20	0xb82887b3	-4.01807e-05
21	0x3cfdac9e	0.0309661
22	0xbb34f98e	-0.0027614566
23	0xbc539eb2	-0.012916254
24	0xbd2432d0	-0.04008752
25	0x398f7ce1	0.00027368127
26	0xbc9c47d0	-0.019077212
27	0xbadcd80d	-0.0016849056
28	0xbd1f4286	-0.0388818
29	0xbc08da2c	-0.0083527975
30	0xbca25adb	-0.019818714
31	0xbbcc8c27	-0.0062422934
32	0xba93f464	-0.0011288044
33	0x3cbe7720	0.023250163
34	0x3ce7c50a	0.028292198
35	0x3cf77de3	0.030211395
36	0xbc170e34	-0.009219695
37	0xbd582d88	-0.052777797
38	0xba8d2896	-0.0010769542
39	0x3ba5719d	0.005048944
40	0xbd0d865d	-0.034551967
41	0xbc1e6f98	-0.009670161
42	0x3d064027	0.032776024
43	0xbcf5d26d	-0.030007565
44	0x382ef2d8	4.1711e-05
45	0xbb527182	-0.0032111113
46	0xbc91e8fe	-0.017811295
47	0x3ae428ac	0.0017407141
48	0x3d599eeb	0.05313007
49	0xbd14755f	-0.036244746
50	0xbc80545f	-0.015665231
51	0xbc72a816	-0.014810583
52	0xbb5cee7f	-0.003371149
53	0x3d724bb7	0.05915424
54	0x3b85b0c8	0.004079912
55	0xbbc08a83	-0.005875887
56	0xbb98bbb0	-0.004661046
57	0xb79a4590	-1.8390623e-05
58	0x3bfc0c93	0.0076919287
59	0x3909c002	0.00013136867
60	0x373200de	1.0609829e-05
61	0x3a4e2cb7	0.00078649394
62	0x3ca96257	0.020676775
63	0x3ce54ac1	0.027989747
64	0xbc57d255	-0.013172706
65	0xbcdd2787	-0.026996387
66	0xb98b5268	-0.00026573543
67	0x3d0fd5c0	0.035115957
68	0xbb60abf2	-0.0034282175
69	0xb7e8f613	-2.7771142e-05
70	0x3b927ea9	0.0044706655
71	0xbc73a219	-0.01487019
72	0x3bc88852	0.0061197663
73	0xbc2a5645	-0.010396545
74	0x3c00fc30	0.007872626
75	0x3cf6be7c	0.030120127
76	0x3a7effc2	0.0009727442
77	0xbb54ed24	-0.003248998
78	0xbb02951c	-0.0019925302
79	0xba2c0f11	-0.00065635244
80	0xbd1b1035	-0.037857253
81	0x3d50f746	0.05101707
82	0xbc0ebedb	-0.008712496
83	0x3c8fc727	0.017551018
84	0xb9b021a5	-0.00033594403
85	0xb6823458	-3.8803955e-06
86	0x3c3efede	0.011657445
87	0x3d3c03f7	0.04590222
88	0x3d0c365d	0.034231532
89	0xbc354276	-0.011063209
90	0xbd6787fc	-0.05652617
91	0xbbccd3b7	-0.0062508243
92	0xbb18a36d	-0.0023290769
93	0x3d061ff2	0.03274531
94	0xbc157d63	-0.009124133
95	0xb7b4d73f	-2.1557904e-05
96	0xbac78177	-0.0015221079
97	0xbc6c6ee4	-0.014430735
98	0x3c1276b6	0.008939436
99	0x3cc30221	0.023804726
100	0xba834f00	-0.0010018051
101	0xba217dde	-0.0006160418
102	0x3ce8ff85	0.028442154
103	0xbca1c88e	-0.019748952
104	0xba1b234f	-0.0005918042
105	0x382d2322	4.1279134e-05
106	0xb9da6889	-0.00041658085
107	0x3d455b60	0.048182845
108	0xbcb72e03	-0.022360807
109	0x3d248f25	0.040175576
110	0xbc38b6a1	-0.011274011
111	0xbb240695	-0.0025028337
112	0x3d88e7c2	0.06684829
113	0xba7b6b65	-0.0009590893
114	0xb86a25ba	-5.5825083e-05
115	0x3d8bfb6c	0.06835064
116	0x3c124325	0.008927141
117	0xbb125fb9	-0.0022334887
118	0x3c99926e	0.01874658
119	0xb9210fdb	-0.00015360063
120	0xbb15ab61	-0.0022837745
121	0x3d876365	0.06610755
122	0x388a2e01	6.588922e-05
123	0xba5d4c77	-0.0008441875
124	0xb85512c0	-5.080062e-05
125	0xb98379d2	-0.0002507703
126	0xbbb51bf2	-0.005527013
127	0xbcee9272	-0.029122565

lin2.weight f4 [64, 128]
0	0xbacb8a7b	-0.0015528941
1	0x3b0ec20a	0.0021783137
2	0x3dab2b2e	0.08357845
3	0x3d109818	0.035301298
4	0xbd67c378	-0.056582898
5	0xbbb6810a	-0.005569582
6	0x3ac65f8c	0.0015134676
7	0xbc026109	-0.007957705
8	0x39896ac3	0.0002621022
9	0x37b08aae	2.1045413e-05
10	0x3cb4b41c	0.02205854
11	0xbd9a5785	-0.07536224
12	0xbd47b341	-0.048754934
13	0x3da605d4	0.081065804
14	0x38bf002b	9.107621e-05
15	0x3d0356d3	0.032065224
16	0xbbe99af2	-0.0071290666
17	0x3b006071	0.0019588734
18	0x3ab8e095	0.0014105017
19	0xb9169203	-0.00014359508
20	0xb815a06e	-3.567378e-05
21	0x3d0e5f35	0.034758765
22	0x360fcacb	2.1426702e-06
23	0x3d73e787	0.059546974
24	0x3d5b3764	0.05351962
25	0xb92ecdb8	-0.0001667057
26	0xbd36a480	-0.044590473
27	0xbccbc315	-0.024873296
28	0x3ab6c5bf	0.0013944431
29	0xbca350fb	-0.019936075
30	0xbbcb464d	-0.006203449
31	0xbc244f26	-0.010028636
32	0x39dde8be	0.0004232581
33	0x3c59f3ff	0.013302802
34	0x3d3c6465	0.04599418
35	0xbd1efd69	-0.03881589
36	0xbbea3437	-0.007147338
37	0xbd1824b4	-0.037144378
38	0x397c6054	0.00024068478
39	0xbcbea572	-0.02327225
40	0xbc2585a2	-0.010102661
41	0xbbb20848	-0.005433116
42	0xbc27a75e	-0.010232775
43	0x3ca792af	0.020455686
44	0x394f066e	0.00019743454
45	0xbc628fa3	-0.013828191
46	0xbd97ec24	-0.07418087
47	0xbd3969cf	-0.045266923
48	0x3d7eff56	0.062255226
49	0x3d35737b	0.044299584
50	0x3c893ccb	0.016752621
51	0x3c1251ab	0.008930604
52	0xbbc93ab4	-0.006141031
53	0xbd511580	-0.051045895
54	0x3be7d5be	0.0070750406
55	0xbc1c5910	-0.0095427185
56	0x3c95f7bd	0.018306607
57	0x3a956c7c	0.0011400129
58	0xbd08ccbd	-0.03339838
59	0x37327140	1.0635995e-05
60	0x371b0cc2	9.24169e-06
61	0xb53137ad	-6.601866e-07
62	0x3be4b5e9	0.006979693
63	0xb9e46f67	-0.0004357055
64	0x3d5fd902	0.054650314
65	0xbda0c905	-0.078508414
66	0x393425d3	0.00017180228
67	0xbd53d51b	-0.051716905
68	0xb680680c	-3.82681e-06
69	0x371bfd44	9.297688e-06
70	0xbd40c408	-0.04706195
71	0xbbd54672	-0.006508642
72	0xbd06e165	-0.032929797
73	0xbbecfc26	-0.007232207
74	0x3a049dd6	0.000505892
75	0x3ba888cd	0.005143261
76	0xbc08f40b	-0.008358966
77	0x3a237a9c	0.0006236227
78	0xbd925120	-0.071443796
79	0xbc001156	-0.007816633
80	0xbd27714b	-0.04087953
81	0xbd458a7b	-0.04822777
82	0xbbbb5b8f	-0.0057177017
83	0x3d5c54e8	0.05379191
84	0xb7915097	-1.7322875e-05
85	0x362168f7	2.4051967e-06
86	0x3d1d2224	0.038362637
87	0x3c207f36	0.009795954
88	0xbc982a0b	-0.018574735
89	0x3b155302	0.0022785072
90	0xbd807d9a	-0.062739566
91	0x3bbddcb5	0.0057941326
92	0x3ca55222	0.020180766
93	0x3d33f555	0.04393514
94	0xbc0ef500	-0.008725405
95	0xb87b3771	-5.9894697e-05
96	0xbd83fa05	-0.06444172
97	0xb7065346	-8.006411e-06
98	0x3bb64518	0.005562436
99	0x3d87a4f7	0.066232614
100	0xbb01d0ae	-0.001980822
101	0xb8897da2	-6.55607e-05
102	0xbd431bf6	-0.047634088
103	0x3c6d0c08	0.0144682005
104	0xbbd1d462	-0.006403492
105	0x38654259	5.4659646e-05
106	0x3b0d0450	0.0021517463
107	0xbc1e451a	-0.00966003
108	0x3b9e852a	0.0048376517
109	0x3c9ae808	0.01890947
110	0xbccafa5c	-0.024777584
111	0x3b89831a	0.0041965367
112	0xbd301101	-0.042984966
113	0x368d492d	4.2106462e-06
114	0x372a72c6	1.0159512e-05
115	0x3daf7ce3	0.08568742
116	0xba019f4e	-0.0004944698
117	0xb5c94c74	-1.4997918e-06
118	0x3d2053a2	0.03914226
119	0xb6fc706a	-7.523272e-06
120	0x3b9c3ce4	0.004768001
121	0x3d22536c	0.03963034
122	0x36036762	1.9580698e-06
123	0x3bd99910	0.006640561
124	0x3aaa618c	0.0012999042
125	0xb803d02b	-3.1426705e-05
126	0x3bc3d118	0.0059758537
127	0x3d83e28c	0.06439695
128	0xbd88a92c	-0.06672892
129	0xbbbb9490	-0.005724497
130	0xbc68503a	-0.014179284
131	0x3d32de2b	0.043668907
132	0x3ca02133	0.01954708
133	0xb99f561e	-0.00030391006
134	0x3a9fce76	0.0012192267
135	0xbcf3011b	-0.029663613
136	0x3c054f6b	0.0081366105
137	0xb69dd62b	-4.703897e-06
138	0xbca80ded	-0.020514453
139	0xbd17a091	-0.037018362
140	0x3caf623d	0.021409148
141	0x3ceb492e	0.028721418
142	0xb3e76cce	-1.0776567e-07
143	0x3d6b9883	0.057518493
144	0xbd190562	-0.03735865
145	0xbcfaa69d	-0.030597026
146	0x36bef8e0	5.691414e-06
147	0xbd4c9278	-0.04994437
148	0xb7d22c0e	-2.5054465e-05
149	0xbd84b2e1	-0.06479431
150	0xb978a1e6	-0.00023711435
151	0x3d5ef3b5	0.054431636
152	0xbc8e60ab	-0.01738008
153	0xb952f3d1	-0.0002011799
154	0xbd4f7662	-0.050650008
155	0x3b73eff6	0.0037221885
156	0xbb5758a1	-0.0032859223
157	0xbc100389	-0.008789905
158	0x3c356ee8	0.011073805
159	0xbb70000f	-0.0036621129
160	0x37a9584b	2.0187485e-05
161	0x3b9e1837	0.004824664
162	0xbd42684a	-0.04746274
163	0xbd3baeb8	-0.04582092
164	0xbb8e3ec4	-0.0043409783
165	0xbd04db64	-0.03243579
166	0x3aab425f	0.0013066045
167	0xb8d32b44	-0.00010069323
168	0xbd4b81ad	-0.049684215
169	0xbb947ee9	-0.0045317304
170	0xbc918b6d	-0.017766679
171	0xbce3281e	-0.02772909
172	0x3a71d586	0.0009225238
173	0xba23c41e	-0.000624718
174	0xbd5ce4bd	-0.05392908
175	0x3a843d9c	0.0010089162
176	0xb987b2d7	-0.00025882453
177	0x3cf5176d	0.029918397
178	0x3d4c2b63	0.049846064
179	0x3a3a9044	0.0007116834
180	0x38cc5af6	9.744421e-05
181	0xbc8f7c78	-0.017515406
182	0xbbe241f6	-0.006904836
183	0x3ba1d32c	0.0049385037
184	0xbc4d1925	-0.012518202
185	0xb7a5ddca	-1.9772811e-05
186	0x3d3bddc4	0.04586579
187	0xb6a2eb17	-4.8553443e-06
188	0xb30caf95	-3.275598e-08
189	0x34b12914	3.2998707e-07
190	0x3b128754	0.0022358494
191	0x384eaa1d	4.9272658e-05
192	0x3c867d5e	0.016417202
193	0x3d3ac4ff	0.045598026
194	0x341b1afc	1.4445317e-07
195	0x3d6aa04d	0.05728178
196	0x3423ba36	1.5248301e-07
197	0xb56b4204	-8.764039e-07
198	0x3d6b138a	0.05739168
199	0x3b9f266f	0.0048568766
200	0xbc792c27	-0.015208281
201	0xb9cd0941	-0.00039107542
202	0x373145ed	1.0566303e-05
203	0x3d5abb71	0.053401414
204	0xbabdfe5e	-0.0014495363
205	0x38bc4d5a	8.9789464e-05
206	0x3c46844d	0.012116504
207	0x39efca34	0.00045736285
208	0x3d21c70e	0.039496474
209	0xbd495ae4	-0.049158946
210	0x3b80d817	0.00393201
211	0x3bc05bdf	0.005870327
212	0x35af4a51	1.3060145e-06
213	0xb5d631f1	-1.5958777e-06
214	0x3a516f12	0.0007989268
215	0xbd44c4c1	-0.0480392
216	0xbc1eea21	-0.009699375
217	0xb8b5dc5f	-8.6718e-05
218	0x3d497586	0.049184345
219	0xbb5bb46c	-0.0033524288
220	0xbcc15a0e	-0.023602512
221	0xbac37b5d	-0.0014914084
222	0x392d71da	0.00016540979
223	0xb7184886	-9.076792e-06
224	0xbcae2512	-0.02125791
225	0xb45ab41e	-2.0368358e-07
226	0x3bef9918	0.0073119514
227	0x3cb44706	0.022006523
228	0x3a99cdae	0.0011734271
229	0xb734ec44	-1.0783846e-05
230	0x3cdbb89f	0.026821433
231	0x3bc6ad12	0.006063112
232	0xba8d8806	-0.0010797984
233	0xb679cae1	-3.7221982e-06
234	0x37be9cfc	2.2722867e-05
235	0x3b7f1cf5	0.0038927172
236	0x38e28123	0.00010800573
237	0x3c2e17eb	0.01062582
238	0xbc95becc	-0.018279456
239	0x3a1d2fbc	0.00059961877
240	0x3d483335	0.04887696
241	0x367a60a5	3.7309158e-06
242	0xb535a50e	-6.766794e-07
243	0x3cafd10b	0.021461984
244	0x36b0408a	5.252722e-06
245	0x354a0634	7.525989e-07
246	0x3d25d22b	0.040483635
247	0x3aad8291	0.0013237764
248	0x389c8302	7.463062e-05
249	0xbce36257	-0.027756853
250	0x35492b30	7.494118e-07
251	0x357afa64	9.3496624e-07
252	0xb9ce0aa7	-0.00039299318
253	0x36974a51	4.5088022e-06
254	0xbb1ec614	-0.002422695
255	0x3d448d32	0.047986217

lin2.bias f4 [64]
0	0x3db42c30	0.087974906
1	0x3d91069f	0.07081341
2	0xb9d3d215	-0.0004040158
3	0x3d10ce46	0.035352968
4	0x3cdc1087	0.02686335
5	0x3d8785da	0.06617327
6	0x3d858390	0.06519234
7	0x3da86306	0.08222012
8	0x38cccf3d	9.766079e-05
9	0x3c5e0334	0.013550568
10	0xbccd6b93	-0.02507571
11	0x36061975	1.9982374e-06
12	0x3c8ffdc7	0.017577065
13	0xbc3d86cf	-0.011567785
14	0xbd37094b	-0.044686597
15	0x3d87228c	0.06598386
16	0x3d92827c	0.07153794
17	0xb7c11f44	-2.3021952e-05
18	0x3cdba3f1	0.026811572
19	0xbd086f6a	-0.033309378
20	0x3dbf7930	0.093492866
21	0x3a32cf8e	0.0006821089
22	0x3c8dc7bc	0.017307155
23	0xbca74b25	-0.020421574
24	0x3d58e1a0	0.052949548
25	0xbc321de8	-0.010871388
26	0x3cb34639	0.02188407
27	0x3cb25fcf	0.0217742
28	0xbca0d202	-0.01963139
29	0x3a4d9fcd	0.00078439416
30	0xbd021a99	-0.031763647
31	0xbc0eb246	-0.008709496
32	0xbd8f1d71	-0.069880374
33	0x3db0c54f	0.08631384
34	0xb6265b63	-2.4789122e-06
35	0xbd1a1fe7	-0.03762808
36	0xbcf06911	-0.029346975
37	0x3d0fba9d	0.035090078
38	0xbd024f94	-0.031814173
39	0xbcdc0687	-0.026858581
40	0xba044669	-0.00050458923
41	0xbabd61f7	-0.0014448751
42	0x3c5d84ec	0.013520461
43	0xbdd3dedd	-0.10345242
44	0xbca9ae9a	-0.02071314
45	0x3d1f8c6d	0.03895228
46	0xbcb55726	-0.022136282
47	0x3d914002	0.07092287
48	0x364cf80e	3.0542756e-06
49	0x3d1e88ce	0.038704686
50	0xbcd77b8a	-0.026304025
51	0xbc4e1304	-0.012577776
52	0x3bf080c0	0.007339567
53	0x3d160c22	0.036632665
54	0xbca4d771	-0.020122262
55	0x3dc0b6f0	0.094098926
56	0xb7121873	-8.707971e-06
57	0xb71a5750	-9.199444e-06
58	0x3c8bb9c6	0.017056357
59	0xbbeaca40	-0.0071652234
60	0x3cd9802a	0.026550371
61	0xbd520945	-0.05127837
62	0x3d8bf61d	0.06834052
63	0x3c993c40	0.018705487

lin3.weight f4 [2, 64]
0	0xbd597d8d	-0.05309825
1	0x3dab946e	0.0837792
2	0x3b02f07d	0.0019979768
3	0x3d717410	0.058948576
4	0xbdadba3b	-0.08482786
5	0xbda328a9	-0.0796674
6	0x3decc921	0.115618
7	0xbdff6d6f	-0.12472045
8	0x37747ef0	1.4573088e-05
9	0xbb3875a4	-0.002814629
10	0x3ca86b76	0.020559054
11	0xb5af698a	-1.3069232e-06
12	0x3dcbcead	0.0995153
13	0xbd02ab9c	-0.03190194
14	0x3daebe08	0.08532339
15	0xbca60fc5	-0.020271191
16	0xbc70c594	-0.014695544
17	0x3c04520b	0.008076201
18	0x3d25d14b	0.0404828
19	0xbca5c04d	-0.020233298
20	0x3df31f45	0.118711986
21	0x3ddf8203	0.1091347
22	0x3e02f5f7	0.1278914
23	0x3b964fa2	0.0045871297
24	0x3db0558f	0.08610069
25	0xbcaecfff	-0.021339415
26	0xbd87912b	-0.066194855
27	0x3d5e4f5a	0.054274894
28	0xbc5df718	-0.013547681
29	0xba995bdd	-0.0011700351
30	0xbd3fec39	-0.04685614
31	0x3d3cca98	0.046091646
32	0xbdabedad	-0.083949424
33	0xbe2162c3	-0.15760331
34	0xbba51e20	-0.0050389916
35	0x3c65a385	0.014016037
36	0xbd168eac	-0.036757156
37	0xbc9139b1	-0.017727705
38	0x3d965211	0.07339872
39	0x3c0d62d3	0.008629519
40	0x3d1cba58	0.03826365
41	0x3c068923	0.008211407
42	0x3d41cd5b	0.047314983
43	0xbe0e3e73	-0.1389101
44	0xbd275b26	-0.04085841
45	0xbddba336	-0.107244894
46	0xbd182eb0	-0.0371539
47	0xbe02756c	-0.12740105
48	0x370151b9	7.708027e-06
49	0x3d6e2398	0.058139414
50	0xbde7e9cd	-0.11323891
51	0xbd0c593d	-0.03426479
52	0xbe185194	-0.1487487
53	0x3cfc0dc3	0.03076828
54	0xbe40f71e	-0.18844268
55	0x3dfc3542	0.123148456
56	0x3b71515c	0.0036822176
57	0xb8b89081	-8.80072e-05
58	0xbb763fcc	-0.0037574647
59	0xbac44df7	-0.0014976849
60	0x3cac598a	0.02103879
61	0x3c812d5e	0.015768703
62	0xbb0ebb1b	-0.0021779004
63	0x3de7303e	0.11288498
64	0xbdd44181	-0.103640564
65	0x3daa413f	0.08313226
66	0xba8f0878	-0.0010912558
67	0xbdb507e2	-0.08839394
68	0xbdeec2bb	-0.11658236
69	0x3e2a70fc	0.16644663
70	0x3dbf8ebc	0.09353396
71	0x3d876b75	0.06612293
72	0x390ad716	0.00013240831
73	0xbd2b8c1f	-0.041881677
74	0xbc3231ac	-0.0108761005
75	0x3699b668	4.58099e-06
76	0xbdf6cb21	-0.120504625
77	0xbd30c32d	-0.043154884
78	0xbcadfcc2	-0.021238688
79	0x3e3e522e	0.18586037
80	0xbc814c59	-0.015783476
81	0x3c8cfbec	0.01720997
82	0xbb71a706	-0.0036873235
83	0x3e140b25	0.14457376
84	0x3d9c399a	0.07628174
85	0x3dde0e7b	0.10842606
86	0x39504e68	0.00019865634
87	0xb7dbfd3e	-2.622476e-05
88	0xbd642fea	-0.055709757
89	0x3c95022b	0.01818951
90	0x3d8c5073	0.06851282
91	0xbcb574d7	-0.02215044
92	0xbc217aa7	-0.009855903
93	0x356c4ce8	8.8028764e-07
94	0x3da22d49	0.07918794
95	0xbd15d0c4	-0.036576048
96	0xbd5a5aa1	-0.053309087
97	0x3dfbb8a6	0.12291078
98	0xbbf292bc	-0.007402746
99	0xbd2072f7	-0.03917214
100	0xbdd5381a	-0.10411091
101	0xbd91d5dc	-0.071208686
102	0xbdd6d580	-0.10489941
103	0x38fbe2e0	0.000120108714
104	0xbc27f0a5	-0.010250245
105	0xbbc483c5	-0.0059971535
106	0x3d490045	0.049072523
107	0x3c4e9f43	0.012611213
108	0x3c1e4eb8	0.009662323
109	0x3dd4ad7f	0.10384654
110	0xbdea59b3	-0.1144289
111	0x3cf79716	0.03022341
112	0x3baabee8	0.005210746
113	0xbd2f56f2	-0.042807527
114	0x3e0fade1	0.14031173
115	0x3c971e9e	0.018447217
116	0x3d05c22d	0.032655884
117	0xbca084d8	-0.019594595
118	0x3d8c5350	0.06851828
119	0xbd4a29af	-0.04935616
120	0x3a86f1fe	0.0010295508
121	0xb50cd88c	-5.246918e-07
122	0x3dec7623	0.1154597
123	0xbc90cf08	-0.017676845
124	0xbd1e4bc4	-0.038646474
125	0x3de52b16	0.111898586
126	0x3da81ec9	0.08208997
127	0x3d0debe9	0.03464881

lin3.bias f4 [2]
0	0x3d38db51	0.04513103
1	0x3bcb6397	0.0062069404
